src/lib/libtf/models/coffee_mug.tflite (tflite, 40824 bytes, 21 tensors)

model_1/Conv1/Conv2D i1 [8, 3, 3, 1]
000000 c7 32 09 81 79 00 d6 2e 00 3a 7f 23 bd b1 d4 08
       -57 50 9 -127 121 0 -42 46 0 58 127 35 -67 -79 -44 8
000010 d7 05 1f 1c d1 34 45 81 15 21 c6 2b 35 14 36 4b
       -41 5 31 28 -47 52 69 -127 21 33 -58 43 53 20 54 75
000020 1a b0 81 c7 04 cb 2f 10 81 70 05 db 20 03 c9 01
       26 -80 -127 -57 4 -53 47 16 -127 112 5 -37 32 3 -55 1
000030 00 7f 02 02 b6 00 f0 a5 fa ee 81 f5 f5 ce 07 29
       0 127 2 2 -74 0 -16 -91 -6 -18 -127 -11 -11 -50 7 41
000040 81 1c eb fa f3 e5 47 f3
       -127 28 -21 -6 -13 -27 71 -13

model_1/expanded_conv_depthwise_BN/FusedBatchNormV3;model_1/expanded_conv_depthwise/depthwise;model_1/block_5_project/Conv2D i1 [1, 3, 3, 8]
000000 ff 02 0a 13 07 02 08 20 04 03 d4 7f ea 03 fb 1e
       -1 2 10 19 7 2 8 32 4 3 -44 127 -22 3 -5 30
000010 fa 01 f6 12 fe 03 f9 16 fa 01 7f ea 7f 01 8f 2b
       -6 1 -10 18 -2 3 -7 22 -6 1 127 -22 127 1 -113 43
000020 7f 81 90 04 a4 7f f1 81 e3 05 13 eb fe 01 7f 27
       127 -127 -112 4 -92 127 -15 -127 -29 5 19 -21 -2 1 127 39
000030 00 03 09 07 0e 00 0f 22 03 00 d3 00 f2 03 f6 98
       0 3 9 7 14 0 15 34 3 0 -45 0 -14 3 -10 -104
000040 fb 01 fb 01 ff fe f9 26
       -5 1 -5 1 -1 -2 -7 38

model_1/expanded_conv_project/Conv2D i1 [8, 1, 1, 8]
000000 e5 fb d2 e1 eb 25 81 f6 11 5e 00 7f 0a fa f8 d8
       -27 -5 -46 -31 -21 37 -127 -10 17 94 0 127 10 -6 -8 -40
000010 7f fe e1 cd bf 2a 5b cb 0a 81 26 b0 14 b0 1b 38
       127 -2 -31 -51 -65 42 91 -53 10 -127 38 -80 20 -80 27 56
000020 7d fa c1 f2 1c fc 81 d1 04 df 04 24 04 81 ff 0c
       125 -6 -63 -14 28 -4 -127 -47 4 -33 4 36 4 -127 -1 12
000030 7f e2 6f fd 72 e0 fa 05 81 fd a0 f9 a1 0a 22 06
       127 -30 111 -3 114 -32 -6 5 -127 -3 -96 -7 -95 10 34 6

model_1/block_1_expand/Conv2D i1 [48, 1, 1, 8]
000000 9b 9b 16 81 c9 f9 fc fb 81 ee 62 fe c8 1d 02 15
       -101 -101 22 -127 -55 -7 -4 -5 -127 -18 98 -2 -56 29 2 21
000010 18 f0 1c 7f 1e e3 f2 f7 8d b6 e7 ec 29 7f d3 d8
       24 -16 28 127 30 -29 -14 -9 -115 -74 -25 -20 41 127 -45 -40
000020 f8 e5 f7 fc f7 06 81 b6 fc de f3 00 f3 0f 81 bb
       -8 -27 -9 -4 -9 6 -127 -74 -4 -34 -13 0 -13 15 -127 -69
000030 7f 09 11 f4 bf 14 01 fa 81 e1 ee 06 43 10 fc 0e
       127 9 17 -12 -65 20 1 -6 -127 -31 -18 6 67 16 -4 14
000040 14 29 f5 f4 e5 81 2c 0f 4a 16 f6 fd e9 fa fb 7f
       20 41 -11 -12 -27 -127 44 15 74 22 -10 -3 -23 -6 -5 127
000050 6d f2 8f 0b a6 f2 2a 7f 81 6f 01 e4 50 bb 0c 17
       109 -14 -113 11 -90 -14 42 127 -127 111 1 -28 80 -69 12 23
000060 7f dc 8d 0b 32 01 f4 ee 7f 09 0b f1 e5 1c 09 f6
       127 -36 -115 11 50 1 -12 -18 127 9 11 -15 -27 28 9 -10
000070 8c a6 56 e6 4d ec dd 81 20 46 02 f7 f6 81 ef 08
       -116 -90 86 -26 77 -20 -35 -127 32 70 2 -9 -10 -127 -17 8
000080 f6 bc 0d 05 0c 7f 0d 05 1e 8f b9 f9 e5 7f cd f0
       -10 -68 13 5 12 127 13 5 30 -113 -71 -7 -27 127 -51 -16
000090 28 ef f3 f2 ed 1d 7f f2 fa 15 fc 81 f4 24 fc f7
       40 -17 -13 -14 -19 29 127 -14 -6 21 -4 -127 -12 36 -4 -9
0000a0 b9 e0 43 0b 39 62 fb 81 ea fb 1e e7 ef 0d 81 b4
       -71 -32 67 11 57 98 -5 -127 -22 -5 30 -25 -17 13 -127 -76
0000b0 49 ee 04 7f ea f3 3a 2a 7f f4 8c fe 1d eb 0d 02
       73 -18 4 127 -22 -13 58 42 127 -12 -116 -2 29 -21 13 2
0000c0 e0 19 1f 24 0b 03 81 aa 7f 09 a8 0a 0d fb 05 1c
       -32 25 31 36 11 3 -127 -86 127 9 -88 10 13 -5 5 28
0000d0 01 33 e4 81 e9 12 04 fb 7f 0f 91 01 9f 25 1c 46
       1 51 -28 -127 -23 18 4 -5 127 15 -111 1 -97 37 28 70
0000e0 81 eb ea 11 35 0d fc 24 fa 81 ed 83 f3 1d ed ec
       -127 -21 -22 17 53 13 -4 36 -6 -127 -19 -125 -13 29 -19 -20
0000f0 f6 67 7f 29 21 88 74 2d ba f7 81 2b 03 ee 5d 6a
       -10 103 127 41 33 -120 116 45 -70 -9 -127 43 3 -18 93 106

model_1/block_1_depthwise_BN/FusedBatchNormV3;model_1/block_1_depthwise/depthwise;model_1/block_6_expand/Conv2D i1 [1, 3, 3, 48]
000000 f3 b1 98 5c aa 03 a6 b6 40 3e 73 d5 00 0f b1 c9
       -13 -79 -104 92 -86 3 -90 -74 64 62 115 -43 0 15 -79 -55
000010 68 a6 1a d0 eb 96 db b5 4f 5e fe 84 07 d9 3b 4b
       104 -90 26 -48 -21 -106 -37 -75 79 94 -2 -124 7 -39 59 75
000020 2e 42 42 11 64 57 2c 0f 81 ea 1a 2a d4 3a d2 a1
       46 66 66 17 100 87 44 15 -127 -22 26 42 -44 58 -46 -95
000030 4b fb 20 52 81 2b bd 0f 62 69 74 36 fe bd 81 a5
       75 -5 32 82 -127 43 -67 15 98 105 116 54 -2 -67 -127 -91
000040 7f d7 6b aa 90 7f 7f 2d 7f 5d 2d 86 b3 dc 90 6e
       127 -41 107 -86 -112 127 127 45 127 93 45 -122 -77 -36 -112 110
000050 65 7f 6c 72 f3 58 3a bc a3 b7 0f c6 c3 76 c3 64
       101 127 108 114 -13 88 58 -68 -93 -73 15 -58 -61 118 -61 100
000060 61 fc 38 48 b3 0f f3 f3 17 3f e5 df bd 0b c3 de
       97 -4 56 72 -77 15 -13 -13 23 63 -27 -33 -67 11 -61 -34
000070 22 52 32 f8 ac e7 b2 57 31 20 18 d7 03 e4 19 31
       34 82 50 -8 -84 -25 -78 87 49 32 24 -41 3 -28 25 49
000080 35 65 0e 4b 02 14 2b f8 cd 04 0c 07 e9 4d e5 fe
       53 101 14 75 2 20 43 -8 -51 4 12 7 -23 77 -27 -2
000090 30 81 72 74 5a b8 81 81 65 4e 69 cb 05 03 82 aa
       48 -127 114 116 90 -72 -127 -127 101 78 105 -53 5 3 -126 -86
0000a0 58 7f 25 8a d3 6e 20 81 5f 7e 6d 98 fb 8a af 53
       88 127 37 -118 -45 110 32 -127 95 126 109 -104 -5 -118 -81 83
0000b0 69 fe 5f 33 25 7f 44 05 ed ed 5c 60 92 4e 83 6a
       105 -2 95 51 37 127 68 5 -19 -19 92 96 -110 78 -125 106
0000c0 7f fa 06 7f 7b 81 a6 08 7f 7f 7f 30 eb 81 8a 81
       127 -6 6 127 123 -127 -90 8 127 127 127 48 -21 -127 -118 -127
0000d0 75 41 7f 81 81 85 9a 3d 5e 7f 7f 81 81 84 7f 7f
       117 65 127 -127 -127 -123 -102 61 94 127 127 -127 -127 -124 127 127
0000e0 7f 08 7f 7f ff 7c 7f 81 02 81 7f a7 81 7f 81 81
       127 8 127 127 -1 124 127 -127 2 -127 127 -89 -127 127 -127 -127
0000f0 59 f8 81 47 59 c7 e3 f5 13 42 f6 ee 81 09 da db
       89 -8 -127 71 89 -57 -29 -11 19 66 -10 -18 -127 9 -38 -37

model_1/block_1_project/Conv2D i1 [8, 1, 1, 48]
000000 32 66 dc 46 fe fd e5 07 3f bf 01 e9 09 06 dc ca
       50 102 -36 70 -2 -3 -27 7 63 -65 1 -23 9 6 -36 -54
000010 00 f0 1e 0c c6 e0 df 06 11 0d 1c 00 11 08 ec 1b
       0 -16 30 12 -58 -32 -33 6 17 13 28 0 17 8 -20 27
000020 c2 09 71 81 ea 18 f8 71 e7 0b 0d fd f4 27 1b d6
       -62 9 113 -127 -22 24 -8 113 -25 11 13 -3 -12 39 27 -42
000030 05 ca 28 34 f4 f7 ea ec 33 ce 5c 2f 18 08 cd a9
       5 -54 40 52 -12 -9 -22 -20 51 -50 92 47 24 8 -51 -87
000040 7f 2c 0e 07 b3 25 28 f1 cd 9b e3 ce f6 c3 30 d2
       127 44 14 7 -77 37 40 -15 -51 -101 -29 -50 -10 -61 48 -46
000050 f9 e8 e1 10 06 eb 5a c8 f5 26 c4 22 53 43 11 2f
       -7 -24 -31 16 6 -21 90 -56 -11 38 -60 34 83 67 17 47
000060 54 e5 ed f1 72 72 3d 53 e4 f9 fe e0 fb 2e 3a 1a
       84 -27 -19 -15 114 114 61 83 -28 -7 -2 -32 -5 46 58 26
000070 e1 e2 3f b7 d2 d0 d1 3c 9d a1 7e 19 40 bf c3 14
       -31 -30 63 -73 -46 -48 -47 60 -99 -95 126 25 64 -65 -61 20
000080 81 5c 6e 18 f1 f9 f6 10 20 49 13 c4 ee 0f 38 d6
       -127 92 110 24 -15 -7 -10 16 32 73 19 -60 -18 15 56 -42
000090 4c df 0d f9 75 7d 1f 2d d7 e0 1b 38 81 27 49 16
       76 -33 13 -7 117 125 31 45 -41 -32 27 56 -127 39 73 22
0000a0 05 0c 48 90 a3 0c 20 5e 03 dd 33 18 2f c5 07 f1
       5 12 72 -112 -93 12 32 94 3 -35 51 24 47 -59 7 -15
0000b0 87 3c be 84 15 dc 3e d0 33 a4 92 de be 25 ef 39
       -121 60 -66 -124 21 -36 62 -48 51 -92 -110 -34 -66 37 -17 57
0000c0 24 2c e2 dd f3 f6 eb f1 02 fa f5 f2 e0 eb 3f 37
       36 44 -30 -35 -13 -10 -21 -15 2 -6 -11 -14 -32 -21 63 55
0000d0 d9 eb dd 2d 1c f0 ef 02 ce d6 f9 34 f5 0f ea 1a
       -39 -21 -35 45 28 -16 -17 2 -50 -42 -7 52 -11 15 -22 26
0000e0 df f3 18 81 f5 19 0a 34 05 f6 f7 e5 2e 01 59 e8
       -33 -13 24 -127 -11 25 10 52 5 -10 -9 -27 46 1 89 -24
0000f0 44 35 aa 32 0a 0b f8 22 b0 c1 c4 ed 26 12 2a 1b
       68 53 -86 50 10 11 -8 34 -80 -63 -60 -19 38 18 42 27

model_1/block_2_expand/Conv2D i1 [48, 1, 1, 8]
000000 ea 26 05 81 97 fc 26 76 66 08 f8 02 a6 2c 7f 20
       -22 38 5 -127 -105 -4 38 118 102 8 -8 2 -90 44 127 32
000010 f2 77 d5 da dd 59 c7 81 34 c7 b7 6d 81 d1 06 eb
       -14 119 -43 -38 -35 89 -57 -127 52 -57 -73 109 -127 -47 6 -21
000020 26 c6 2b f1 81 fc 31 17 ed 34 f7 9e 81 fa e1 07
       38 -58 43 -15 -127 -4 49 23 -19 52 -9 -98 -127 -6 -31 7
000030 31 eb 26 24 7f e4 f2 8b 0c 20 13 7f 1b fb 02 12
       49 -21 38 36 127 -28 -14 -117 12 32 19 127 27 -5 2 18
000040 16 1b 0b d7 27 7f 0d e4 66 1e f5 08 c2 c6 7f 50
       22 27 11 -41 39 127 13 -28 102 30 -11 8 -62 -58 127 80
000050 03 43 b6 dc 07 7f 4e c6 ec dd 81 67 bc 1f ed 53
       3 67 -74 -36 7 127 78 -58 -20 -35 -127 103 -68 31 -19 83
000060 94 a9 34 2e 19 81 d1 0f 22 1d 1c 2e c6 7f 0a dd
       -108 -87 52 46 25 -127 -47 15 34 29 28 46 -58 127 10 -35
000070 08 93 0f 05 c2 a6 81 66 a4 2a 03 05 53 02 81 db
       8 -109 15 5 -62 -90 -127 102 -92 42 3 5 83 2 -127 -37
000080 5e 48 a0 81 32 7c 62 22 97 6f 81 20 f8 ea 0e 8e
       94 72 -96 -127 50 124 98 34 -105 111 -127 32 -8 -22 14 -114
000090 22 f7 a5 7f f7 e0 dc c9 71 0b 08 1d d8 06 7f 30
       34 -9 -91 127 -9 -32 -36 -55 113 11 8 29 -40 6 127 48
0000a0 26 b4 99 7f 39 e6 e8 bc 19 36 7f 91 2f e8 16 93
       38 -76 -103 127 57 -26 -24 -68 25 54 127 -111 47 -24 22 -109
0000b0 bc da 81 39 ed 25 08 6a 50 24 19 2c 81 76 46 cb
       -68 -38 -127 57 -19 37 8 106 80 36 25 44 -127 118 70 -53
0000c0 fa fd 81 4d df 18 27 3c 2e df ac 7f 38 03 da ef
       -6 -3 -127 77 -33 24 39 60 46 -33 -84 127 56 3 -38 -17
0000d0 ac 1c 7f 98 ec 1d 40 fb b3 52 7f fb 10 fa 4e 13
       -84 28 127 -104 -20 29 64 -5 -77 82 127 -5 16 -6 78 19
0000e0 cb 98 21 81 f4 0e fd e2 ad b4 eb 50 f9 81 fa 40
       -53 -104 33 -127 -12 14 -3 -30 -83 -76 -21 80 -7 -127 -6 64
0000f0 81 32 65 da 2a 2b 38 1b c4 35 55 81 d2 13 25 3f
       -127 50 101 -38 42 43 56 27 -60 53 85 -127 -46 19 37 63

model_1/block_2_depthwise_BN/FusedBatchNormV3;model_1/block_2_depthwise/depthwise;model_1/block_6_expand/Conv2D i1 [1, 3, 3, 48]
000000 fc db 24 e7 7f fb fd f0 d9 2a f3 08 3f 11 7f dc
       -4 -37 36 -25 127 -5 -3 -16 -39 42 -13 8 63 17 127 -36
000010 17 e8 ec f0 e6 f0 c4 18 81 32 1f c5 ef 1d f2 01
       23 -24 -20 -16 -26 -16 -60 24 -127 50 31 -59 -17 29 -14 1
000020 e0 28 14 ff 54 3e 1f f9 3b 0d f1 01 99 f4 dc d9
       -32 40 20 -1 84 62 31 -7 59 13 -15 1 -103 -12 -36 -39
000030 08 a3 b4 e0 d0 fe 28 13 0c 00 39 7f f4 33 c1 7f
       8 -93 -76 -32 -48 -2 40 19 12 0 57 127 -12 51 -63 127
000040 05 c9 27 ca bb 81 ad 4b 82 aa 13 7f 0e 2d 7f 0d
       5 -55 39 -54 -69 -127 -83 75 -126 -86 19 127 14 45 127 13
000050 81 a0 d3 23 7f a9 77 08 36 f5 e7 f6 cd f1 45 00
       -127 -96 -45 35 127 -87 119 8 54 -11 -25 -10 -51 -15 69 0
000060 10 f2 ef 7f 2e 08 b8 00 e4 da e5 ed 33 fc cb d1
       16 -14 -17 127 46 8 -72 0 -28 -38 -27 -19 51 -4 -53 -47
000070 22 10 f6 f7 04 04 e2 13 c7 be e8 2f f9 27 af f7
       34 16 -10 -9 4 4 -30 19 -57 -66 -24 47 -7 39 -81 -9
000080 12 55 14 12 00 5b 81 04 24 fd f7 1c 81 fe c7 28
       18 85 20 18 0 91 -127 4 36 -3 -9 28 -127 -2 -57 40
000090 90 c7 7f fd da db 53 0d 10 61 08 11 30 15 66 1f
       -112 -57 127 -3 -38 -37 83 13 16 97 8 17 48 21 102 31
0000a0 2a 81 59 2d 54 fc 36 d7 ee ef 25 c0 13 30 22 3e
       42 -127 89 45 84 -4 54 -41 -18 -17 37 -64 19 48 34 62
0000b0 26 a5 05 7f 07 2a d3 8f 13 56 ec b2 25 ae c1 15
       38 -91 5 127 7 42 -45 -113 19 86 -20 -78 37 -82 -63 21
0000c0 7f c4 b7 be 04 81 7f 7f 7f 14 7f d6 81 12 db d8
       127 -60 -73 -66 4 -127 127 127 127 20 127 -42 -127 18 -37 -40
0000d0 7f a8 7f 7f 7f 5a 7f 81 06 e4 68 e3 7f 7e 89 7f
       127 -88 127 127 127 90 127 -127 6 -28 104 -29 127 126 -119 127
0000e0 20 90 7f 96 b7 7f 96 73 81 81 7f 81 70 81 7f 81
       32 -112 127 -106 -73 127 -106 115 -127 -127 127 -127 112 -127 127 -127
0000f0 f8 a2 0a 45 eb f8 d6 06 f1 81 dc 32 4e 0f c5 2d
       -8 -94 10 69 -21 -8 -42 6 -15 -127 -36 50 78 15 -59 45

model_1/block_2_project/Conv2D i1 [8, 1, 1, 48]
000000 23 d6 5e 41 21 dd 17 0a fc 3a e4 0d d6 ae 2a 03
       35 -42 94 65 33 -35 23 10 -4 58 -28 13 -42 -82 42 3
000010 94 3c dc 3f d3 46 ff e9 fd d2 44 e5 e4 14 e3 65
       -108 60 -36 63 -45 70 -1 -23 -3 -46 68 -27 -28 20 -29 101
000020 c2 f8 dd b1 c1 d7 db f1 f7 38 81 07 33 17 17 2f
       -62 -8 -35 -79 -63 -41 -37 -15 -9 56 -127 7 51 23 23 47
000030 c8 e3 42 f7 e8 1c d7 e6 32 f9 00 e4 eb 10 05 10
       -56 -29 66 -9 -24 28 -41 -26 50 -7 0 -28 -21 16 5 16
000040 02 18 0a f9 c2 e6 b5 e8 1c db e5 e2 12 b8 f4 81
       2 24 10 -7 -62 -26 -75 -24 28 -37 -27 -30 18 -72 -12 -127
000050 fe c2 be b5 d2 a9 e6 16 2a ee 57 92 d1 ee e9 f7
       -2 -62 -66 -75 -46 -87 -26 22 42 -18 87 -110 -47 -18 -23 -9
000060 c9 60 f7 28 14 09 1a db 4e d5 43 4f 68 0e 23 c9
       -55 96 -9 40 20 9 26 -37 78 -43 67 79 104 14 35 -55
000070 5f 06 0d 21 f7 11 12 7f 8e d2 04 ed 01 52 ef a7
       95 6 13 33 -9 17 18 127 -114 -46 4 -19 1 82 -17 -89
000080 f1 fe 0b b7 ec 0a db ef 56 b2 17 fe 1b 83 04 f5
       -15 -2 11 -73 -20 10 -37 -17 86 -78 23 -2 27 -125 4 -11
000090 3e ee bd 23 5b aa 06 85 dc f9 c1 a9 ee 7f f7 15
       62 -18 -67 35 91 -86 6 -123 -36 -7 -63 -87 -18 127 -9 21
0000a0 cf ee c1 cb 25 52 f7 cd 70 27 37 bb 21 9b 37 c2
       -49 -18 -63 -53 37 82 -9 -51 112 39 55 -69 33 -101 55 -62
0000b0 3e 40 79 b4 d3 16 e4 33 1a 5c ac 1f fb 16 0c 2c
       62 64 121 -76 -45 22 -28 51 26 92 -84 31 -5 22 12 44
0000c0 cf 21 db 41 59 e3 1a da d7 ff c3 1f d0 f1 03 c3
       -49 33 -37 65 89 -29 26 -38 -41 -1 -61 31 -48 -15 3 -61
0000d0 0b 3f e0 dd d8 1e c1 c4 17 f7 0f dc 1f df de 3b
       11 63 -32 -35 -40 30 -63 -60 23 -9 15 -36 31 -33 -34 59
0000e0 fd 48 bd be c1 c0 d7 01 3d cf 7f 16 05 56 ca d1
       -3 72 -67 -66 -63 -64 -41 1 61 -49 127 22 5 86 -54 -47
0000f0 3c 0b 51 f6 f9 10 34 25 7f fb 46 04 49 36 1d c6
       60 11 81 -10 -7 16 52 37 127 -5 70 4 73 54 29 -58

model_1/block_3_expand/Conv2D i1 [48, 1, 1, 8]
000000 25 18 ca 0c e0 2a 81 1c fe bc 81 f9 fa e8 7e 91
       37 24 -54 12 -32 42 -127 28 -2 -68 -127 -7 -6 -24 126 -111
000010 86 cc b8 d6 dc 39 81 f3 cd e3 16 ef ed 81 96 ee
       -122 -52 -72 -42 -36 57 -127 -13 -51 -29 22 -17 -19 -127 -106 -18
000020 d3 81 d1 0f 3f 16 db d1 43 d9 56 2f 81 3f b0 a1
       -45 -127 -47 15 63 22 -37 -47 67 -39 86 47 -127 63 -80 -95
000030 26 81 bd e2 f2 3d d8 a9 ee b4 d0 c7 4b 81 06 12
       38 -127 -67 -30 -14 61 -40 -87 -18 -76 -48 -57 75 -127 6 18
000040 2e 40 2e 4a 1c cb 02 7f ea cc d0 08 30 f1 7f f3
       46 64 46 74 28 -53 2 127 -22 -52 -48 8 48 -15 127 -13
000050 db 15 81 12 1b 13 6c 8f 00 e0 d8 ff 81 15 01 39
       -37 21 -127 18 27 19 108 -113 0 -32 -40 -1 -127 21 1 57
000060 53 35 e8 2a ae 7f 4f f4 d3 fe 17 e9 2e 81 fe 43
       83 53 -24 42 -82 127 79 -12 -45 -2 23 -23 46 -127 -2 67
000070 9e cf 0b 27 09 3f 81 8c 37 5b 36 ff 81 29 7a c3
       -98 -49 11 39 9 63 -127 -116 55 91 54 -1 -127 41 122 -61
000080 f6 cf 02 42 fc ba 0e 81 b8 7f 1d f6 c4 cc ad b1
       -10 -49 2 66 -4 -70 14 -127 -72 127 29 -10 -60 -52 -83 -79
000090 56 7f a1 97 68 65 a4 b3 e7 58 ef 12 81 0a bd 93
       86 127 -95 -105 104 101 -92 -77 -25 88 -17 18 -127 10 -67 -109
0000a0 81 fa 04 0a 16 12 62 2b e5 f6 3c 13 9f 89 81 19
       -127 -6 4 10 22 18 98 43 -27 -10 60 19 -97 -119 -127 25
0000b0 fe df d0 f9 81 01 08 3b 3b 04 ed f4 7f 3e a4 57
       -2 -33 -48 -7 -127 1 8 59 59 4 -19 -12 127 62 -92 87
0000c0 7f 0e c7 1a ab 05 10 f6 20 b8 44 77 c8 81 14 76
       127 14 -57 26 -85 5 16 -10 32 -72 68 119 -56 -127 20 118
0000d0 10 7f 03 39 4d eb 10 f5 81 79 3c f2 7e bc fc 66
       16 127 3 57 77 -21 16 -11 -127 121 60 -14 126 -68 -4 102
0000e0 b8 b6 c7 de 4f 81 17 f2 c8 e5 2f 29 7f a3 a5 4f
       -72 -74 -57 -34 79 -127 23 -14 -56 -27 47 41 127 -93 -91 79
0000f0 7f 34 90 9c bb a7 bd b5 17 01 29 3e 81 06 22 03
       127 52 -112 -100 -69 -89 -67 -75 23 1 41 62 -127 6 34 3

model_1/block_3_depthwise_BN/FusedBatchNormV3;model_1/block_3_depthwise/depthwise;model_1/block_6_expand/Conv2D i1 [1, 3, 3, 48]
000000 42 c9 ee 23 50 20 c7 c3 10 32 74 b4 d4 4a 5b 30
       66 -55 -18 35 80 32 -57 -61 16 50 116 -76 -44 74 91 48
000010 33 af 47 48 b5 c5 31 6c e0 ec 52 58 69 41 db 47
       51 -81 71 72 -75 -59 49 108 -32 -20 82 88 105 65 -37 71
000020 3b b3 b0 c4 57 c3 50 15 ae 35 44 a3 4e 64 3a b2
       59 -77 -80 -60 87 -61 80 21 -82 53 68 -93 78 100 58 -78
000030 52 b8 b4 41 7f 2a ad af 1f 3c 64 9c b5 5c 72 3d
       82 -72 -76 65 127 42 -83 -81 31 60 100 -100 -75 92 114 61
000040 37 ac 31 6c a8 8c 49 70 b7 b7 7f 5c 6c 7f bf 5a
       55 -84 49 108 -88 -116 73 112 -73 -73 127 92 108 127 -65 90
000050 40 8c 81 c2 67 b0 5f 2c 8c 50 3a a2 5e 7f 41 b1
       64 -116 -127 -62 103 -80 95 44 -116 80 58 -94 94 127 65 -79
000060 25 e8 c4 18 31 09 ec e0 0f 0a 1f e7 cb 26 39 1b
       37 -24 -60 24 49 9 -20 -32 15 10 31 -25 -53 38 57 27
000070 11 f2 1c 18 eb be 18 3b f2 ea 3e 24 28 2b f3 03
       17 -14 28 24 -21 -66 24 59 -14 -22 62 36 40 43 -13 3
000080 22 d4 c1 d6 25 e6 1c 22 d5 0d 0f da 21 1b 10 cf
       34 -44 -63 -42 37 -26 28 34 -43 13 15 -38 33 27 16 -49
000090 3c b0 c7 50 60 48 8b 9f 5e 51 77 95 b5 59 7f 5c
       60 -80 -57 80 96 72 -117 -97 94 81 119 -107 -75 89 127 92
0000a0 63 99 26 7b a5 84 5c 77 81 a9 64 6e 65 53 a7 66
       99 -103 38 123 -91 -124 92 119 -127 -87 100 110 101 83 -89 102
0000b0 61 83 ab 81 64 b1 77 5e 9e 63 7f 81 54 67 2a a0
       97 -125 -85 -127 100 -79 119 94 -98 99 127 -127 84 103 42 -96
0000c0 2d 81 81 7f 76 7f 81 81 7f 7f 7f 81 81 7f 70 7f
       45 -127 -127 127 118 127 -127 -127 127 127 127 -127 -127 127 112 127
0000d0 7f 81 2a 7f 81 81 7f 7f 8a 81 75 7f 7f 45 81 7f
       127 -127 42 127 -127 -127 127 127 -118 -127 117 127 127 69 -127 127
0000e0 7f 81 a6 96 7f 81 7f 7f 81 7f 7d 88 7f 77 30 81
       127 -127 -90 -106 127 -127 127 127 -127 127 125 -120 127 119 48 -127
0000f0 fc c8 9b 42 34 29 ca c6 30 1f 1b cd 95 26 30 44
       -4 -56 -101 66 52 41 -54 -58 48 31 27 -51 -107 38 48 68

model_1/block_3_project/Conv2D i1 [8, 1, 1, 48]
000000 eb e1 29 d2 3a 54 3e 57 64 d5 eb 34 e8 ef 0e eb
       -21 -31 41 -46 58 84 62 87 100 -43 -21 52 -24 -17 14 -21
000010 2b 27 08 cf e1 12 b1 d7 1e f3 10 b6 e3 15 28 17
       43 39 8 -49 -31 18 -79 -41 30 -13 16 -74 -29 21 40 23
000020 14 29 40 14 78 cc b2 09 c7 bb e0 fc bf a8 81 36
       20 41 64 20 120 -52 -78 9 -57 -69 -32 -4 -65 -88 -127 54
000030 f0 fc d3 31 04 0c d4 ee c1 1c 10 58 e2 05 e7 7f
       -16 -4 -45 49 4 12 -44 -18 -63 28 16 88 -30 5 -25 127
000040 26 39 09 e1 d0 ec bd 11 11 f7 eb a8 34 f2 c9 bb
       38 57 9 -31 -48 -20 -67 17 17 -9 -21 -88 52 -14 -55 -69
000050 3b df e1 cb 25 22 32 d4 04 47 33 d3 04 d7 c7 e7
       59 -33 -31 -53 37 34 50 -44 4 71 51 -45 4 -41 -57 -25
000060 03 b7 e6 fd e2 12 05 0c 6e 11 fa ed e3 b1 24 08
       3 -73 -26 -3 -30 18 5 12 110 17 -6 -19 -29 -79 36 8
000070 04 c5 e7 fb 9c 31 07 1e 07 2d dd e5 e9 d7 28 d3
       4 -59 -25 -5 -100 49 7 30 7 45 -35 -27 -23 -41 40 -45
000080 9f 1b cd 38 bd 3d e9 eb 7f eb fc 25 1d 2c c9 dc
       -97 27 -51 56 -67 61 -23 -21 127 -21 -4 37 29 44 -55 -36
000090 e2 91 5f 3a 14 91 f2 f0 86 7f 3b d0 38 0e e6 11
       -30 -111 95 58 20 -111 -14 -16 -122 127 59 -48 56 14 -26 17
0000a0 37 1e e6 2c 47 57 1c c2 12 5a 3d 24 e3 bd 0c 0a
       55 30 -26 44 71 87 28 -62 18 90 61 36 -29 -67 12 10
0000b0 e2 0b 38 08 f0 ae d7 27 e2 f6 12 bf b2 13 02 18
       -30 11 56 8 -16 -82 -41 39 -30 -10 18 -65 -78 19 2 24
0000c0 f8 39 f4 4a 1b 06 0e ff d0 4b 2e 4b 02 18 39 11
       -8 57 -12 74 27 6 14 -1 -48 75 46 75 2 24 57 17
0000d0 09 a0 fb f1 5b f3 9f 3e 46 e8 21 1f 2e 1e f4 cd
       9 -96 -5 -15 91 -13 -97 62 70 -24 33 31 46 30 -12 -51
0000e0 d2 7f 00 0a 3e e4 17 18 e7 28 ff ec fe d4 e5 17
       -46 127 0 10 62 -28 23 24 -25 40 -1 -20 -2 -44 -27 23
0000f0 eb 05 f4 c1 89 23 6e 1d 08 33 e0 e1 9a f6 3e df
       -21 5 -12 -63 -119 35 110 29 8 51 -32 -31 -102 -10 62 -33

model_1/block_4_expand/Conv2D i1 [48, 1, 1, 8]
000000 b0 81 df 19 df fa 2f cb f7 7f 2c ab 09 9d b1 6c
       -80 -127 -33 25 -33 -6 47 -53 -9 127 44 -85 9 -99 -79 108
000010 81 c3 2c 0e 44 07 26 ef ff d0 81 c7 22 c7 d6 41
       -127 -61 44 14 68 7 38 -17 -1 -48 -127 -57 34 -57 -42 65
000020 bc 94 5f de 7f b9 44 fa e7 39 2c a4 5d 20 c6 7f
       -68 -108 95 -34 127 -71 68 -6 -25 57 44 -92 93 32 -58 127
000030 81 5a 39 42 d5 08 23 8b 2b f6 34 20 36 81 fe 62
       -127 90 57 66 -43 8 35 -117 43 -10 52 32 54 -127 -2 98
000040 ff 42 f4 e2 1b 68 7f bc 55 7f ff c4 bc bb cd 64
       -1 66 -12 -30 27 104 127 -68 85 127 -1 -60 -68 -69 -51 100
000050 1b f3 22 fe e7 28 81 b4 b1 0a 97 ad 7f 1c 23 3a
       27 -13 34 -2 -25 40 -127 -76 -79 10 -105 -83 127 28 35 58
000060 57 29 e4 fc 7f 5b 0e 02 81 82 00 41 9b 2b 43 12
       87 41 -28 -4 127 91 14 2 -127 -126 0 65 -101 43 67 18
000070 ed 54 ae 6b c7 7f e9 2b f7 b0 da ac 7f 3e e2 3b
       -19 84 -82 107 -57 127 -23 43 -9 -80 -38 -84 127 62 -30 59
000080 4c b0 ff 31 22 eb 21 81 b8 ac 81 61 05 56 48 a1
       76 -80 -1 49 34 -21 33 -127 -72 -84 -127 97 5 86 72 -95
000090 4f f7 7f 09 e4 94 a6 dd e5 7f 21 19 5b 95 b9 e0
       79 -9 127 9 -28 -108 -90 -35 -27 127 33 25 91 -107 -71 -32
0000a0 b3 f0 81 d2 1e ff fe f5 87 ec 2c 49 ae 81 78 d6
       -77 -16 -127 -46 30 -1 -2 -11 -121 -20 44 73 -82 -127 120 -42
0000b0 35 f2 81 b1 e0 fd f3 3d e6 20 7f f3 b2 22 f3 a2
       53 -14 -127 -79 -32 -3 -13 61 -26 32 127 -13 -78 34 -13 -94
0000c0 b4 58 46 5d 7f 61 fb d4 ce 81 b3 24 b9 24 3b 01
       -76 88 70 93 127 97 -5 -44 -50 -127 -77 36 -71 36 59 1
0000d0 64 7f 85 c8 8a f0 b6 2e 38 34 c9 14 81 0e e8 f1
       100 127 -123 -56 -118 -16 -74 46 56 52 -55 20 -127 14 -24 -15
0000e0 eb 43 17 bb 52 59 81 90 28 04 03 b1 81 04 14 c6
       -21 67 23 -69 82 89 -127 -112 40 4 3 -79 -127 4 20 -58
0000f0 a4 fc 29 7f 36 18 de ec 0d 93 ff b6 81 37 c4 93
       -92 -4 41 127 54 24 -34 -20 13 -109 -1 -74 -127 55 -60 -109

model_1/block_4_depthwise_BN/FusedBatchNormV3;model_1/block_4_depthwise/depthwise;model_1/block_6_expand/Conv2D i1 [1, 3, 3, 48]
000000 d8 02 2e 0d 7f c0 0d 08 15 1a 48 e9 08 1e b9 ff
       -40 2 46 13 127 -64 13 8 21 26 72 -23 8 30 -71 -1
000010 5c d0 e9 35 e8 0a d1 f1 f0 00 21 cc e6 7f 10 a3
       92 -48 -23 53 -24 10 -47 -15 -16 0 33 -52 -26 127 16 -93
000020 cb 6a 6f bd 0c cb 85 e0 12 e3 ef c1 fa d6 92 0f
       -53 106 111 -67 12 -53 -123 -32 18 -29 -17 -63 -6 -42 -110 15
000030 bf 79 05 28 f9 ad 7f f2 4c 10 30 7f 3b 7f e3 16
       -65 121 5 40 -7 -83 127 -14 76 16 48 127 59 127 -29 22
000040 69 a0 03 5f e8 e9 73 87 fe 2d 87 10 e7 a9 63 81
       105 -96 3 95 -24 -23 115 -121 -2 45 -121 16 -25 -87 99 -127
000050 81 ae fe d9 c5 e5 81 0f d2 d9 12 81 15 ab 11 2b
       -127 -82 -2 -39 -59 -27 -127 15 -46 -39 18 -127 21 -85 17 43
000060 f6 0b 10 04 31 cc 16 fa 16 19 29 c9 ea f5 ae 14
       -10 11 16 4 49 -52 22 -6 22 25 41 -55 -22 -11 -82 20
000070 4d f2 f5 57 f5 04 c7 05 13 04 23 89 d8 2b e1 96
       77 -14 -11 87 -11 4 -57 5 19 4 35 -119 -40 43 -31 -106
000080 0a 00 5f cb 0f e8 a3 0b 17 f7 fb c8 f0 ca 81 e6
       10 0 95 -53 15 -24 -93 11 23 -9 -5 -56 -16 -54 -127 -26
000090 81 78 e9 bf 05 b2 05 f5 2a 0e 1f 35 4a 56 ab 20
       -127 120 -23 -65 5 -78 5 -11 42 14 31 53 74 86 -85 32
0000a0 7f 81 10 55 e3 c3 9d da 81 fa d1 06 f8 06 3d b9
       127 -127 16 85 -29 -61 -99 -38 -127 -6 -47 6 -8 6 61 -71
0000b0 b8 7f 99 bb 22 b9 34 3a 98 14 a8 3b f7 81 0e d0
       -72 127 -103 -69 34 -71 52 58 -104 20 -88 59 -9 -127 14 -48
0000c0 fa 7b 7f 7f dc 6c 82 7f 7f 81 b3 59 7f 4c 7f 8d
       -6 123 127 127 -36 108 -126 127 127 -127 -77 89 127 76 127 -115
0000d0 c0 99 7f 0a 81 7f 7f 02 6c 71 43 7f 7f b7 7f 16
       -64 -103 127 10 -127 127 127 2 108 113 67 127 127 -73 127 22
0000e0 c1 9b d2 81 7f 7f 60 3b ca 7f eb 40 7f 2e f1 81
       -63 -101 -46 -127 127 127 96 59 -54 127 -21 64 127 46 -15 -127
0000f0 bd 5f db c4 c6 81 0b e4 f6 06 7f 33 1f 4f bc 7b
       -67 95 -37 -60 -58 -127 11 -28 -10 6 127 51 31 79 -68 123

model_1/block_4_project/Conv2D i1 [8, 1, 1, 48]
000000 2c 36 ac 38 0d 1a a2 de 02 ee fc db ef 03 29 02
       44 54 -84 56 13 26 -94 -34 2 -18 -4 -37 -17 3 41 2
000010 34 ee 2e ec 10 d8 2d fd 09 e8 ed 0e ef 02 ec 03
       52 -18 46 -20 16 -40 45 -3 9 -24 -19 14 -17 2 -20 3
000020 2b 12 15 0a 7f 38 1d e2 02 ef f9 e6 54 1a 10 d2
       43 18 21 10 127 56 29 -30 2 -17 -7 -26 84 26 16 -46
000030 48 1e 0e 02 1c 5d ec e2 24 43 d3 b4 75 ed 0a 2e
       72 30 14 2 28 93 -20 -30 36 67 -45 -76 117 -19 10 46
000040 1c 25 17 aa 7f e1 30 3d 26 16 29 0f 25 c2 40 54
       28 37 23 -86 127 -31 48 61 38 22 41 15 37 -62 64 84
000050 3d 66 06 74 3f 18 20 21 5a 17 27 1e 21 2e 71 bf
       61 102 6 116 63 24 32 33 90 23 39 30 33 46 113 -65
000060 ef 09 4c 7f d4 12 f7 43 1a 44 18 aa d2 76 1f 2c
       -17 9 76 127 -44 18 -9 67 26 68 24 -86 -46 118 31 44
000070 a4 a4 56 fe 07 3f ca b1 e5 da 1c fe 8e 12 00 f5
       -92 -92 86 -2 7 63 -54 -79 -27 -38 28 -2 -114 18 0 -11
000080 d9 e4 a6 d6 18 21 aa ec df c8 dc 13 47 af ea 1a
       -39 -28 -90 -42 24 33 -86 -20 -33 -56 -36 19 71 -81 -22 26
000090 e5 34 b8 fa 18 b2 09 43 68 b4 d2 11 fa f0 07 3a
       -27 52 -72 -6 24 -78 9 67 104 -76 -46 17 -6 -16 7 58
0000a0 17 07 f0 e7 f8 10 b9 26 e4 e1 1f f2 3f e4 25 c6
       23 7 -16 -25 -8 16 -71 38 -28 -31 31 -14 63 -28 37 -58
0000b0 1f e9 e3 ce 81 f9 af 10 e2 c9 25 fe c9 0b f4 de
       31 -23 -29 -50 -127 -7 -81 16 -30 -55 37 -2 -55 11 -12 -34
0000c0 36 df 21 e0 c7 4e 1f 49 81 c8 44 2c 4f be bd c0
       54 -33 33 -32 -57 78 31 73 -127 -56 68 44 79 -66 -67 -64
0000d0 5b 3d 47 db 11 a2 ef 31 e7 07 d0 82 c4 bc 68 24
       91 61 71 -37 17 -94 -17 49 -25 7 -48 -126 -60 -68 104 36
0000e0 62 0a 7c 67 4d 4f 36 27 11 21 d0 e6 55 54 65 c2
       98 10 124 103 77 79 54 39 17 33 -48 -26 85 84 101 -62
0000f0 22 53 10 5d 17 17 cf 9a 98 19 f4 00 16 43 24 be
       34 83 16 93 23 23 -49 -102 -104 25 -12 0 22 67 36 -66

model_1/block_5_expand/Conv2D i1 [48, 1, 1, 8]
000000 81 27 e8 ef 3e 20 11 d5 f9 cc e4 ee c3 81 0f 17
       -127 39 -24 -17 62 32 17 -43 -7 -52 -28 -18 -61 -127 15 23
000010 c3 4a 01 c9 d2 30 be 7f 3c 29 2e f1 d2 81 30 ea
       -61 74 1 -55 -46 48 -66 127 60 41 46 -15 -46 -127 48 -22
000020 07 38 87 19 81 65 2f 2c df 2a 20 e5 ac 81 c6 f9
       7 56 -121 25 -127 101 47 44 -33 42 32 -27 -84 -127 -58 -7
000030 c5 7f 6d d5 bd e4 0f d8 f6 01 29 3c ff 81 fa 39
       -59 127 109 -43 -67 -28 15 -40 -10 1 41 60 -1 -127 -6 57
000040 7f 17 aa 59 a4 b2 96 f1 5e d5 bc b1 06 e2 da 7f
       127 23 -86 89 -92 -78 -106 -15 94 -43 -68 -79 6 -30 -38 127
000050 af 0a 00 7f 0c 48 23 98 13 0c 42 f6 03 76 7f 68
       -81 10 0 127 12 72 35 -104 19 12 66 -10 3 118 127 104
000060 bd 9d dc 98 7f e9 f6 31 dd f6 fe 2e 18 81 37 52
       -67 -99 -36 -104 127 -23 -10 49 -35 -10 -2 46 24 -127 55 82
000070 4a 48 73 11 4a 81 a1 ea ce 3e 7f 34 ed 1b 29 c4
       74 72 115 17 74 -127 -95 -22 -50 62 127 52 -19 27 41 -60
000080 a6 da 2a bf 7f 10 ca fd 26 cf d3 fc f5 7f e4 29
       -90 -38 42 -65 127 16 -54 -3 38 -49 -45 -4 -11 127 -28 41
000090 f0 7f 42 ca cb 2c 59 a5 10 6d 4c 7f ec 17 27 18
       -16 127 66 -54 -53 44 89 -91 16 109 76 127 -20 23 39 24
0000a0 07 06 40 81 bf fd 3e f2 9c 58 2b 8a 74 4c 7f 06
       7 6 64 -127 -65 -3 62 -14 -100 88 43 -118 116 76 127 6
0000b0 41 dd a7 3e 38 d3 c3 7f 24 b6 81 d6 44 f7 c1 57
       65 -35 -89 62 56 -45 -61 127 36 -74 -127 -42 68 -9 -63 87
0000c0 23 ea ac 0c ce 28 81 79 f2 e7 39 09 7f f4 ab d5
       35 -22 -84 12 -50 40 -127 121 -14 -25 57 9 127 -12 -85 -43
0000d0 0b 6a 7f db e8 e8 3a bd e1 2d 7c b1 15 0c 64 81
       11 106 127 -37 -24 -24 58 -67 -31 45 124 -79 21 12 100 -127
0000e0 39 f1 52 7f 42 ea 19 5b 48 49 79 1c bc 1b 81 6a
       57 -15 82 127 66 -22 25 91 72 73 121 28 -68 27 -127 106
0000f0 34 ff 9e 3a 81 de d8 44 14 7f 70 b8 b2 31 67 8a
       52 -1 -98 58 -127 -34 -40 68 20 127 112 -72 -78 49 103 -118

model_1/block_5_depthwise_BN/FusedBatchNormV3;model_1/block_5_depthwise/depthwise;model_1/block_6_expand/Conv2D i1 [1, 3, 3, 48]
000000 51 45 f1 2f 04 05 c3 13 29 be 24 02 0c 9e dd 27
       81 69 -15 47 4 5 -61 19 41 -66 36 2 12 -98 -35 39
000010 62 20 b4 fd 56 12 ee f2 43 16 0e fd b9 11 f0 cc
       98 32 -76 -3 86 18 -18 -14 67 22 14 -3 -71 17 -16 -52
000020 7f 07 68 1e d4 1e 7f 14 bb 3e 8c cc 24 9d d6 09
       127 7 104 30 -44 30 127 20 -69 62 -116 -52 36 -99 -42 9
000030 6d 7f b5 57 17 33 b2 81 2e 25 7f 2c f4 f6 e7 00
       109 127 -75 87 23 51 -78 -127 46 37 127 44 -12 -10 -25 0
000040 bc 7f a6 24 3c 7f 2a eb 17 07 0c 7f 81 55 e2 81
       -68 127 -90 36 60 127 42 -21 23 7 12 127 -127 85 -30 -127
000050 08 de 2a 58 a7 7f 6a 28 81 b2 51 01 07 0f 81 69
       8 -34 42 88 -89 127 106 40 -127 -78 81 1 7 15 -127 105
000060 3a 2f e2 25 08 ff de 1b 20 b9 22 11 07 c0 ec e6
       58 47 -30 37 8 -1 -34 27 32 -71 34 17 7 -64 -20 -26
000070 5d fc d8 f2 3d 20 ea 29 30 3b 0e fb e8 01 e9 e1
       93 -4 -40 -14 61 32 -22 41 48 59 14 -5 -24 1 -23 -31
000080 72 0d 5a 10 e5 2b 6b 00 d7 3d 32 4b 26 4e 12 fa
       114 13 90 16 -27 43 107 0 -41 61 50 75 38 78 18 -6
000090 ed c8 82 54 18 32 41 e2 26 35 d4 7f 7f 02 de b1
       -19 -56 -126 84 24 50 65 -30 38 53 -44 127 127 2 -34 -79
0000a0 d9 43 44 f1 96 1d 20 9e 19 2b 0e 12 02 76 1c 2f
       -39 67 68 -15 -106 29 32 -98 25 43 14 18 2 118 28 47
0000b0 46 7f 17 2d a0 fc ba 42 5b 05 4c 81 0f 94 f4 7f
       70 127 23 45 -96 -4 -70 66 91 5 76 -127 15 -108 -12 127
0000c0 2f 94 d0 81 78 07 7f a8 81 7f 03 3f a2 7f 7f ea
       47 -108 -48 -127 120 7 127 -88 -127 127 3 63 -94 127 127 -22
0000d0 81 44 15 7f 24 fa 7f ff 81 7f 25 b0 b9 3e 81 5c
       -127 68 21 127 36 -6 127 -1 -127 127 37 -80 -71 62 -127 92
0000e0 6f a0 18 7f 7f 46 e3 7f 77 c1 ee fc 69 ca fd 37
       111 -96 24 127 127 70 -29 127 119 -63 -18 -4 105 -54 -3 55
0000f0 f9 c7 81 2b f1 7f 38 f0 23 2a d9 3d f6 15 e2 e6
       -7 -57 -127 43 -15 127 56 -16 35 42 -39 61 -10 21 -30 -26

model_1/block_5_project/Conv2D i1 [8, 1, 1, 48]
000000 7f ec 17 e7 19 3d 05 22 76 a7 35 0b cf 3d 0e cc
       127 -20 23 -25 25 61 5 34 118 -89 53 11 -49 61 14 -52
000010 0e e8 ec eb 0c bf 0d e4 c7 db da d4 de 52 ea 21
       14 -24 -20 -21 12 -65 13 -28 -57 -37 -38 -44 -34 82 -22 33
000020 1a d3 0d dc 3f c0 cd 0b 17 ea b4 f8 38 df 35 d5
       26 -45 13 -36 63 -64 -51 11 23 -22 -76 -8 56 -33 53 -43
000030 2c 04 f8 40 34 3f 11 1f 48 ac f9 08 2a 12 d6 ef
       44 4 -8 64 52 63 17 31 72 -84 -7 8 42 18 -42 -17
000040 da d7 bd f7 07 ce 35 4a fb c2 fd 24 e5 39 cb 7f
       -38 -41 -67 -9 7 -50 53 74 -5 -62 -3 36 -27 57 -53 127
000050 e8 29 e8 e4 c3 f2 fa ea ca ea d9 25 12 f6 03 a8
       -24 41 -24 -28 -61 -14 -6 -22 -54 -22 -39 37 18 -10 3 -88
000060 e0 de 9f 1d a3 d9 f3 2a 88 af aa e9 e0 39 81 ff
       -32 -34 -97 29 -93 -39 -13 42 -120 -81 -86 -23 -32 57 -127 -1
000070 56 a6 1f f2 7c 59 e9 03 36 68 0a 96 c2 0d 3e 08
       86 -90 31 -14 124 89 -23 3 54 104 10 -106 -62 13 62 8
000080 da 2e 4f b9 4d f7 5a 5e d8 6f 2d f9 a5 4c db 53
       -38 46 79 -71 77 -9 90 94 -40 111 45 -7 -91 76 -37 83
000090 01 ef f4 28 e5 07 f3 2c 4f 60 81 e5 17 e7 e7 4c
       1 -17 -12 40 -27 7 -13 44 79 96 -127 -27 23 -25 -25 76
0000a0 c3 f3 f9 2e ea 01 4e 0e 09 0c cf 3a d9 1c dc e1
       -61 -13 -7 46 -22 1 78 14 9 12 -49 58 -39 28 -36 -31
0000b0 0e 19 21 0d 34 fb 2e 03 c6 54 48 10 19 f1 de d9
       14 25 33 13 52 -5 46 3 -58 84 72 16 25 -15 -34 -39
0000c0 ed b5 18 d0 07 53 c7 c3 fc d7 4d 21 c6 ef f6 1c
       -19 -75 24 -48 7 83 -57 -61 -4 -41 77 33 -58 -17 -10 28
0000d0 3f 08 e1 2f ba e9 71 f7 aa f1 fd 14 18 e5 f3 3f
       63 8 -31 47 -70 -23 113 -9 -86 -15 -3 20 24 -27 -13 63
0000e0 d4 31 e9 39 e1 22 f7 19 e3 2e e4 2f 7f 3b fa 0a
       -44 49 -23 57 -31 34 -9 25 -29 46 -28 47 127 59 -6 10
0000f0 b9 bf 34 81 e7 1a db c5 f9 43 ca 42 b4 15 2e 0c
       -71 -65 52 -127 -25 26 -37 -59 -7 67 -54 66 -76 21 46 12

model_1/block_6_expand/Conv2D i1 [48, 1, 1, 8]
000000 f4 0c 7f ea ff 31 01 ae 50 c0 44 bc eb c6 7f 1f
       -12 12 127 -22 -1 49 1 -82 80 -64 68 -68 -21 -58 127 31
000010 41 3c 47 bb c1 1d 7f e8 02 1b 01 f1 14 c4 7f 02
       65 60 71 -69 -63 29 127 -24 2 27 1 -15 20 -60 127 2
000020 7f d8 c6 e0 97 c6 e6 4e 1e 50 7f 00 18 d1 19 d0
       127 -40 -58 -32 -105 -58 -26 78 30 80 127 0 24 -47 25 -48
000030 67 67 f5 7f af 1c 14 5b e9 ff f9 2a 28 8f 81 d7
       103 103 -11 127 -81 28 20 91 -23 -1 -7 42 40 -113 -127 -41
000040 6c 42 d1 4d ca 1d 81 c4 7f ea dd 2b fe d6 19 b0
       108 66 -47 77 -54 29 -127 -60 127 -22 -35 43 -2 -42 25 -80
000050 48 1c f7 13 e0 7f 28 05 7f ec ef 87 6c b6 cc 43
       72 28 -9 19 -32 127 40 5 127 -20 -17 -121 108 -74 -52 67
000060 c8 6c 4d d9 08 3e af 7f 7f 04 9e 14 21 ae 1a 96
       -56 108 77 -39 8 62 -81 127 127 4 -98 20 33 -82 26 -106
000070 65 1a 04 ef 81 22 b3 f7 07 08 ac ec 81 d6 78 6d
       101 26 4 -17 -127 34 -77 -9 7 8 -84 -20 -127 -42 120 109
000080 03 ce 71 f8 7f d3 c1 dc 1a f3 51 fa 7f d0 b9 fe
       3 -50 113 -8 127 -45 -63 -36 26 -13 81 -6 127 -48 -71 -2
000090 71 d7 7f 3a e1 1e d5 f9 46 32 34 be d7 81 17 d2
       113 -41 127 58 -31 30 -43 -7 70 50 52 -66 -41 -127 23 -46
0000a0 31 e0 2f 7f 12 ba b5 47 62 f2 b2 81 3b c9 03 6f
       49 -32 47 127 18 -70 -75 71 98 -14 -78 -127 59 -55 3 111
0000b0 ce 81 d0 c0 2d e1 6e c2 f1 16 20 d1 94 81 04 e7
       -50 -127 -48 -64 45 -31 110 -62 -15 22 32 -47 -108 -127 4 -25
0000c0 7f 0c 3c 38 f5 e4 a0 47 52 2e fb bd df 00 ea 7f
       127 12 60 56 -11 -28 -96 71 82 46 -5 -67 -33 0 -22 127
0000d0 ae dc 18 81 63 05 d0 b6 63 7f f3 d2 0c 39 1a 01
       -82 -36 24 -127 99 5 -48 -74 99 127 -13 -46 12 57 26 1
0000e0 19 7f f7 03 ff c5 fa 76 70 0d 70 6e 28 e4 81 45
       25 127 -9 3 -1 -59 -6 118 112 13 112 110 40 -28 -127 69
0000f0 7f 81 b4 76 31 0f b6 6d 60 b1 17 3e a6 97 81 38
       127 -127 -76 118 49 15 -74 109 96 -79 23 62 -90 -105 -127 56

model_1/head/Conv2D i1 [32, 1, 1, 48]
000000 1c 27 27 bc c2 19 0c 53 00 ec 9c b3 92 7f d6 48
       28 39 39 -68 -62 25 12 83 0 -20 -100 -77 -110 127 -42 72
000010 2c 66 21 0f e7 a8 e3 22 6b 9a 06 7b 47 bc 53 0d
       44 102 33 15 -25 -88 -29 34 107 -102 6 123 71 -68 83 13
000020 b8 5f 25 cd f1 15 a5 fd a9 db 78 bf 52 fd bc 6d
       -72 95 37 -51 -15 21 -91 -3 -87 -37 120 -65 82 -3 -68 109
000030 3a 14 46 23 1a ab f6 67 12 30 a9 37 86 8b 0d c2
       58 20 70 35 26 -85 -10 103 18 48 -87 55 -122 -117 13 -62
000040 bc d0 fd d8 57 4a 9e bc 1f 04 d8 b4 51 1f db b2
       -68 -48 -3 -40 87 74 -98 -68 31 4 -40 -76 81 31 -37 -78
000050 a4 ac 98 a6 1a b4 c6 07 fb 7f ea 2a 1a f4 cc 1c
       -92 -84 -104 -90 26 -76 -58 7 -5 127 -22 42 26 -12 -52 28
000060 0d bd b2 81 e2 19 51 01 16 c7 b6 cc 48 4d bc 89
       13 -67 -78 -127 -30 25 81 1 22 -57 -74 -52 72 77 -68 -119
000070 96 29 e0 29 ad cd 20 2e b8 5e d1 c8 f9 e1 a3 2f
       -106 41 -32 41 -83 -51 32 46 -72 94 -47 -56 -7 -31 -93 47
000080 39 b7 47 06 ae 24 b8 45 4c ed 78 4e b7 e6 36 1e
       57 -73 71 6 -82 36 -72 69 76 -19 120 78 -73 -26 54 30
000090 c3 6a 51 bd 79 76 62 54 70 16 38 d3 7b 29 7e 7c
       -61 106 81 -67 121 118 98 84 112 22 56 -45 123 41 126 124
0000a0 81 59 de 72 cc 5e c2 12 7f 60 97 08 49 37 e7 7f
       -127 89 -34 114 -52 94 -62 18 127 96 -105 8 73 55 -25 127
0000b0 98 31 2c b7 b4 ee c3 b9 bb d6 d1 08 cc 9f f9 f1
       -104 49 44 -73 -76 -18 -61 -71 -69 -42 -47 8 -52 -97 -7 -15
0000c0 af 02 5b 02 41 14 f3 e1 20 4a a6 cf a8 69 26 a0
       -81 2 91 2 65 20 -13 -31 32 74 -90 -49 -88 105 38 -96
0000d0 40 32 e5 c1 b1 54 99 ed e7 81 58 33 16 9d 7b 28
       64 50 -27 -63 -79 84 -103 -19 -25 -127 88 51 22 -99 123 40
0000e0 92 35 d3 d9 64 f8 8c a9 6e 5b ab 95 fc 62 df d9
       -110 53 -45 -39 100 -8 -116 -87 110 91 -85 -107 -4 98 -33 -39
0000f0 aa 70 df d4 25 ee e0 44 fa b0 47 2e bc 28 77 74
       -86 112 -33 -44 37 -18 -32 68 -6 -80 71 46 -68 40 119 116

model_1/logits/Conv2D i1 [3, 1, 1, 32]
000000 bd 7a d0 01 61 bc a5 ae 54 f2 fd 99 72 56 c6 02
       -67 122 -48 1 97 -68 -91 -82 84 -14 -3 -103 114 86 -58 2
000010 bd ea 92 4d 15 9a 5f bc 0d 26 56 ec 1b 4c be 7f
       -67 -22 -110 77 21 -102 95 -68 13 38 86 -20 27 76 -66 127
000020 68 cd b3 0a 18 33 9d c5 c2 7f 49 0d 64 5b 05 c8
       104 -51 -77 10 24 51 -99 -59 -62 127 73 13 100 91 5 -56
000030 71 10 a8 ac 73 ff 10 36 b7 4e f3 e6 4c fb c4 e1
       113 16 -88 -84 115 -1 16 54 -73 78 -13 -26 76 -5 -60 -31
000040 f0 a2 75 72 ed 54 9a 2c e6 2c 81 71 17 be 72 36
       -16 -94 117 114 -19 84 -102 44 -26 44 -127 113 23 -66 114 54
000050 5b 95 9a 61 19 24 0e 40 8e cf 02 e9 20 63 cf 43
       91 -107 -102 97 25 36 14 64 -114 -49 2 -23 32 99 -49 67
