src/lib/libtf/models/coffee_box.tflite (tflite, 57096 bytes, 21 tensors)

model_1/Conv1/Conv2D i1 [16, 3, 3, 3]
0 0 0 0 0 0 0 0
0 0 0 0 0 0 0 0
0 0 0 0 0 0 0 0
0 0 0 38 -10 22 -11 -28
8 -127 -121 -68 -2 -10 -6 -24
-2 -10 1 -32 1 -7 12 -6
-7 2 -7 36 -21 7 27 -7
-5 76 112 5 38 -36 9 12
15 1 73 127 -22 17 -4 -4
50 -60 20 74 -38 -18 27 -54
14 0 29 -1 28 94 24 0
4 -4 20 34 8 65 127 27
-14 -19 2 4 0 6 31 33
13 -2 -3 2 52 61 -19 28
86 -13 -6 19 12 59 83 49
50 122 33 48 70 -1 73 77
40 70 127 14 -10 40 36 3
-3 -127 -8 -5 -111 -8 26 -28
2 -45 -127 -5 -48 -117 -3 12
-21 -4 9 -15 0 -3 -9 -1
12 -9 27 -62 35 49 -86 40
10 -19 8 37 -96 61 65 -127
72 9 -28 16 21 -35 12 15
-44 25 -10 9 -1 -29 16 2
-98 -36 -1 -22 22 1 -16 -9
-6 -127 -90 -17 -16 -9 -4 -26
23 -15 -16 6 -9 -23 24 -6
124 127 116 122 127 115 123 125
114 124 125 115 121 124 113 122
124 113 122 124 114 121 124 113
122 124 113 -20 -3 7 -15 -9
-3 1 0 -11 88 104 -11 78
00000000: 0000 0000 0000 0000 0000 0000 0000 0000
00000010: 0000 0000 0000 0000 0000 0026 f616 f5e4
00000020: 0881 87bc fef6 fae8 fef6 01e0 01f9 0cfa
00000030: f902 f924 eb07 1bf9 fb4c 7005 26dc 090c
00000040: 0f01 497f ea11 fcfc 32c4 144a daee 1bca
00000050: 0e00 1dff 1c5e 1800 04fc 1422 0841 7f1b
00000060: f2ed 0204 0006 1f21 0dfe fd02 343d ed1c
00000070: 56f3 fa13 0c3b 5331 327a 2130 46ff 494d
00000080: 2846 7f0e f628 2403 fd81 f8fb 91f8 1ae4
00000090: 02d3 81fb d08b fd0c ebfc 09f1 00fd f7ff
000000a0: 0cf7 1bc2 2331 aa28 0aed 0825 a03d 4181
000000b0: 4809 e410 15dd 0c0f d419 f609 ffe3 1002
000000c0: 9edc ffea 1601 f0f7 fa81 a6ef f0f7 fce6
000000d0: 17f1 f006 f7e9 18fa 7c7f 747a 7f73 7b7d
000000e0: 727c 7d73 797c 717a 7c71 7a7c 7279 7c71
000000f0: 7a7c 71ec fd07 f1f7 fd01 00f5 5868 f54e

model_1/expanded_conv_depthwise_BN/FusedBatchNormV3;model_1/expanded_conv_depthwise/depthwise;model_1/block_5_project/Conv2D i1 [1, 3, 3, 16]
-108 19 -82 -127 39 -67 80 -76
-90 -3 -8 29 -127 5 54 -73
51 25 -127 127 127 -127 127 -127
-85 127 -127 52 -105 5 127 -25
24 -24 92 -2 -72 66 -95 77
-95 -27 4 -16 61 1 -102 -29
-127 127 -22 13 -43 15 -29 14
-28 0 3 -109 -49 8 -30 -14
-78 -41 -57 -15 -7 -26 8 -28
-108 -89 21 -12 -104 -127 1 23
14 1 66 2 3 33 -26 33
-127 6 -2 1 -21 12 -4 43
-115 -72 69 2 -6 38 -40 52
-76 0 0 4 40 2 -27 23
23 -4 32 -2 -27 39 -35 21
-125 -13 0 84 -58 0 -29 -111
21 -7 19 0 4 14 9 22
-115 4 -1 -127 107 3 17 -127
00000000: 9413 ae81 27bd 50b4 a6fd f81d 8105 36b7
00000010: 3319 817f 7f81 7f81 ab7f 8134 9705 7fe7
00000020: 18e8 5cfe b842 a14d a1e5 04f0 3d01 9ae3
00000030: 817f ea0d d50f e30e e400 0393 cf08 e2f2
00000040: b2d7 c7f1 f9e6 08e4 94a7 15f4 9881 0117
00000050: 0e01 4202 0321 e621 8106 fe01 eb0c fc2b
00000060: 8db8 4502 fa26 d834 b400 0004 2802 e517
00000070: 17fc 20fe e527 dd15 83f3 0054 c600 e391
00000080: 15f9 1300 040e 0916 8d04 ff81 6b03 1181

model_1/expanded_conv_project/Conv2D i1 [8, 1, 1, 16]
0 -25 -3 2 127 3 2 4
-1 -126 -93 -8 0 123 -4 0
0 -30 1 88 73 15 23 3
1 -6 127 -44 0 33 -11 0
0 3 -2 -12 -57 3 11 1
1 5 -17 1 0 127 -7 0
0 -15 -23 -127 81 26 69 23
-1 58 -1 34 0 -3 22 0
0 51 -25 31 -50 29 127 9
-1 -55 12 -13 0 -3 17 0
0 -18 -11 -2 -21 -21 -16 18
1 10 -1 -42 0 -6 127 0
0 19 -2 1 50 -22 -29 -9
2 -113 120 61 0 127 61 0
0 11 -12 127 7 -1 17 10
1 64 -54 79 0 -8 46 0
00000000: 00e7 fd02 7f03 0204 ff82 a3f8 007b fc00
00000010: 00e2 0158 490f 1703 01fa 7fd4 0021 f500
00000020: 0003 fef4 c703 0b01 0105 ef01 007f f900
00000030: 00f1 e981 511a 4517 ff3a ff22 00fd 1600
00000040: 0033 e71f ce1d 7f09 ffc9 0cf3 00fd 1100
00000050: 00ee f5fe ebeb f012 010a ffd6 00fa 7f00
00000060: 0013 fe01 32ea e3f7 028f 783d 007f 3d00
00000070: 000b f47f 07ff 110a 0140 ca4f 00f8 2e00

model_1/block_1_expand/Conv2D i1 [48, 1, 1, 8]
18 -127 54 -50 31 -20 -53 27
80 69 -15 -100 17 -9 -89 127
27 5 -48 118 43 127 50 84
84 79 -82 127 -86 -11 -17 17
-46 -106 76 16 16 24 -42 -127
15 -1 -39 31 0 -29 37 127
58 -8 -127 -89 97 4 57 -34
127 18 22 -19 34 -2 80 -58
18 -104 6 99 4 26 -10 -127
103 -127 12 -2 -8 8 -125 82
-127 -26 -100 11 -16 -1 -91 42
-25 -44 -16 -97 -127 -34 49 -17
13 9 -45 74 -73 -22 57 127
0 0 0 0 0 0 0 0
-6 -32 -8 9 35 127 49 39
47 -4 13 -127 73 31 -53 83
0 0 0 0 0 0 0 0
21 23 127 22 -22 -2 26 25
93 -127 27 35 0 17 -127 1
-127 -19 16 74 -54 -52 -108 58
38 40 -36 127 -16 -125 -6 70
55 27 127 6 -17 -7 62 10
-73 -18 -127 5 3 14 -94 8
-103 125 -19 -24 11 -11 127 -76
11 -61 -52 80 -7 -64 96 127
4 46 35 32 122 127 -70 -52
-81 -28 -127 -1 7 16 -92 1
-3 -18 -34 8 -36 127 62 46
3 -15 -14 45 27 127 43 50
88 35 127 3 -12 -12 75 -9
-94 127 -31 -25 1 -11 111 -47
-54 -99 -21 4 37 -77 127 105
00000000: 1281 36ce 1fec cb1b 5045 f19c 11f7 a77f
00000010: 1b05 d076 2b7f 3254 544f ae7f aaf5 ef11
00000020: d296 4c10 1018 d681 0fff d91f 00e3 257f
00000030: 3af8 81a7 6104 39de 7f12 16ed 22fe 50c6
00000040: 1298 0663 041a f681 6781 0cfe f808 8352
00000050: 81e6 9c0b f0ff a52a e7d4 f09f 81de 31ef
00000060: 0d09 d34a b7ea 397f 0000 0000 0000 0000
00000070: fae0 f809 237f 3127 2ffc 0d81 491f cb53
00000080: 0000 0000 0000 0000 1517 7f16 eafe 1a19
00000090: 5d81 1b23 0011 8101 81ed 104a cacc 943a
000000a0: 2628 dc7f f083 fa46 371b 7f06 eff9 3e0a
000000b0: b7ee 8105 030e a208 997d ede8 0bf5 7fb4
000000c0: 0bc3 cc50 f9c0 607f 042e 2320 7a7f bacc
000000d0: afe4 81ff 0710 a401 fdee de08 dc7f 3e2e
000000e0: 03f1 f22d 1b7f 2b32 5823 7f03 f4f4 4bf7
000000f0: a27f e1e7 01f5 6fd1 ca9d eb04 25b3 7f69

model_1/block_1_depthwise_BN/FusedBatchNormV3;model_1/block_1_depthwise/depthwise;model_1/block_3_depthwise/depthwise i1 [1, 3, 3, 48]
-43 -22 -6 -17 8 -39 -79 -68
-27 -50 10 64 35 -71 114 -42
-113 -84 37 -6 -1 -72 -111 -78
-34 -126 -63 -21 71 15 96 26
-127 -88 -7 54 18 49 -127 79
-77 -15 105 -110 -3 -35 -87 106
75 13 -27 -28 58 -127 -127 -81
59 -76 -113 108 37 -82 -1 62
-52 -110 58 6 9 -111 -127 -69
-4 -127 -120 -41 -54 21 -57 54
28 -127 65 85 13 73 -92 127
-127 6 123 -127 1 -23 -127 94
-32 44 6 -5 -64 -110 -58 -17
87 -7 -127 37 8 -71 -101 -12
-127 -25 27 12 -15 -78 -35 -23
-10 -30 -58 -13 -9 17 -25 10
107 -85 71 31 15 36 -4 16
-79 3 6 -79 -17 5 -55 14
-86 -127 -45 -44 -9 55 99 -106
-26 -107 -21 111 90 -64 27 -97
-121 -93 88 -77 42 -88 -102 -127
42 -122 -78 -38 127 -60 127 83
-44 -84 -16 83 -34 -76 -108 91
41 59 104 -110 -91 -115 81 120
127 -84 -127 -127 127 41 94 -127
100 -127 -110 127 127 -14 -7 127
-60 -127 127 -127 127 -127 -119 -120
127 -101 -127 -127 -121 -127 -71 127
28 -111 127 127 -67 -127 -96 90
60 127 127 -119 -113 -127 124 127
-53 32 -62 -85 -119 -23 31 -38
127 -20 -77 35 55 -70 -25 -44
00000000: d5ea faef 08d9 b1bc e5ce 0a40 23b9 72d6
00000010: 8fac 25fa ffb8 91b2 de82 c1eb 470f 601a
00000020: 81a8 f936 1231 814f b3f1 6992 fddd a96a
00000030: 4b0d e5e4 3a81 81af 3bb4 8f6c 25ae ff3e
00000040: cc92 3a06 0991 81bb fc81 88d7 ca15 c736
00000050: 1c81 4155 0d49 a47f 8106 7b81 01e9 815e
00000060: e02c 06fb c092 c6ef 57f9 8125 08b9 9bf4
00000070: 81e7 1b0c f1b2 dde9 f6e2 c6f3 f711 e70a
00000080: 6bab 471f 0f24 fc10 b103 06b1 ef05 c90e
00000090: aa81 d3d4 f737 6396 e695 eb6f 5ac0 1b9f
000000a0: 87a3 58b3 2aa8 9a81 2a86 b2da 7fc4 7f53
000000b0: d4ac f053 deb4 945b 293b 6892 a58d 5178
000000c0: 7fac 8181 7f29 5e81 6481 927f 7ff2 f97f
000000d0: c481 7f81 7f81 8988 7f9b 8181 8781 b97f
000000e0: 1c91 7f7f bd81 a05a 3c7f 7f89 8f81 7c7f
000000f0: cb20 c2ab 89e9 1fda 7fec b323 37ba e7d4

model_1/block_1_project/Conv2D i1 [8, 1, 1, 48]
-13 -4 5 -98 12 28 4 4
6 3 6 -6 101 0 2 9
0 -11 -3 3 81 -6 -1 5
33 33 15 11 3 2 6 -127
7 7 1 1 -28 3 -18 34
11 -24 -10 1 3 -2 2 2
-36 -6 0 -4 41 28 -27 78
19 7 -32 -21 10 0 15 36
0 41 17 -47 0 22 127 18
-28 0 51 6 19 1 17 -11
14 -9 -6 -22 4 -58 8 4
-7 -10 -74 -12 -28 6 -46 -97
-64 15 2 13 49 -10 31 24
-4 54 8 -4 4 0 1 57
0 13 -127 23 -2 15 4 -18
-36 0 36 5 11 32 26 5
10 -10 -8 -11 15 6 6 0
39 -5 -27 1 26 -60 28 17
-2 -6 -4 6 -9 26 2 -4
63 24 -8 -3 26 0 -29 -13
0 -1 -15 4 -4 0 4 -19
-15 -7 -10 -6 -7 1 -5 -12
-53 50 -61 0 7 -3 3 -127
-3 7 3 -57 -4 2 3 8
0 -6 84 39 5 -20 -1 -6
7 -4 -1 -9 -80 0 -9 5
0 7 8 6 69 1 -3 -7
-11 28 -9 46 -3 -4 3 105
1 0 1 3 12 -7 -16 -15
1 -127 7 -1 4 -6 0 4
-7 43 2 -9 6 45 24 13
-20 31 6 53 27 0 -127 3
00000000: f3fc 059e 0c1c 0404 0603 06fa 6500 0209
00000010: 00f5 fd03 51fa ff05 2121 0f0b 0302 0681
00000020: 0707 0101 e403 ee22 0be8 f601 03fe 0202
00000030: dcfa 00fc 291c e54e 1307 e0eb 0a00 0f24
00000040: 0029 11d1 0016 7f12 e400 3306 1301 11f5
00000050: 0ef7 faea 04c6 0804 f9f6 b6f4 e406 d29f
00000060: c00f 020d 31f6 1f18 fc36 08fc 0400 0139
00000070: 000d 8117 fe0f 04ee dc00 2405 0b20 1a05
00000080: 0af6 f8f5 0f06 0600 27fb e501 1ac4 1c11
00000090: fefa fc06 f71a 02fc 3f18 f8fd 1a00 e3f3
000000a0: 00ff f104 fc00 04ed f1f9 f6fa f901 fbf4
000000b0: cb32 c300 07fd 0381 fd07 03c7 fc02 0308
000000c0: 00fa 5427 05ec fffa 07fc fff7 b000 f705
000000d0: 0007 0806 4501 fdf9 f51c f72e fdfc 0369
000000e0: 0100 0103 0cf9 f0f1 0181 07ff 04fa 0004
000000f0: f92b 02f7 062d 180d ec1f 0635 1b00 8103

model_1/block_2_expand/Conv2D i1 [48, 1, 1, 8]
74 31 -3 -11 127 18 -35 -20
-10 -7 1 127 5 -11 1 19
20 -127 -10 46 4 -72 84 5
127 -42 -7 22 -4 -49 24 11
11 -54 127 -15 -13 -54 18 -101
50 -12 5 2 127 24 -9 7
-21 94 -6 127 24 44 -77 -47
-2 127 -7 3 0 -12 13 -9
127 56 -6 5 -53 -22 -10 -45
-127 20 0 8 65 6 -1 -2
-69 -21 13 127 45 23 -26 -10
-127 6 11 -58 30 -1 -26 -54
127 23 0 23 -38 -13 0 -46
-8 86 -127 -2 9 106 -78 70
-41 -21 -7 127 12 18 -12 -29
-3 127 3 -3 0 -11 15 -59
-19 -119 -34 -15 -8 -111 127 -18
16 127 5 -10 12 86 -82 -16
-4 53 -127 4 4 61 -40 60
-75 16 2 4 -127 4 22 26
-127 -27 9 8 73 -34 31 8
-65 -6 0 0 -127 -1 10 0
-127 -25 -2 -1 97 -17 40 50
-18 -24 -7 -6 -5 88 -127 -97
-5 42 -127 4 9 52 -17 72
106 -21 -12 127 -88 -9 17 -55
6 -16 -3 -2 -12 126 127 -31
78 -11 -13 9 127 39 37 -24
4 122 -66 12 5 86 -23 127
-7 10 -5 -5 -2 91 -127 -86
4 -3 0 -127 -3 2 -3 -17
-68 5 6 11 -127 7 21 -6
00000000: 4a1f fdf5 7f12 ddec f6f9 017f 05f5 0113
00000010: 1481 f62e 04b8 5405 7fd6 f916 fccf 180b
00000020: 0bca 7ff1 f3ca 129b 32f4 0502 7f18 f707
00000030: eb5e fa7f 182c b3d1 fe7f f903 00f4 0df7
00000040: 7f38 fa05 cbea f6d3 8114 0008 4106 fffe
00000050: bbeb 0d7f 2d17 e6f6 8106 0bc6 1eff e6ca
00000060: 7f17 0017 daf3 00d2 f856 81fe 096a b246
00000070: d7eb f97f 0c12 f4e3 fd7f 03fd 00f5 0fc5
00000080: ed89 def1 f891 7fee 107f 05f6 0c56 aef0
00000090: fc35 8104 043d d83c b510 0204 8104 161a
000000a0: 81e5 0908 49de 1f08 bffa 0000 81ff 0a00
000000b0: 81e7 feff 61ef 2832 eee8 f9fa fb58 819f
000000c0: fb2a 8104 0934 ef48 6aeb f47f a8f7 11c9
000000d0: 06f0 fdfe f47e 7fe1 4ef5 f309 7f27 25e8
000000e0: 047a be0c 0556 e97f f90a fbfb fe5b 81aa
000000f0: 04fd 0081 fd02 fdef bc05 060b 8107 15fa

model_1/block_2_depthwise_BN/FusedBatchNormV3;model_1/block_2_depthwise/depthwise;model_1/block_3_depthwise/depthwise i1 [1, 3, 3, 48]
4 -3 20 108 4 82 -2 28
15 8 10 7 -9 -8 -44 9
-2 8 -24 -114 -6 -23 127 -10
-3 7 -5 8 -4 5 15 100
20 29 37 -28 1 34 -1 2
17 -67 -8 -8 16 3 -8 -10
127 9 15 -127 28 88 10 11
123 127 7 43 -52 -23 6 8
127 -56 -60 -56 -100 24 -108 14
17 71 -32 -84 23 21 10 -125
5 -62 127 9 -40 -46 -5 116
-79 -97 -29 3 -35 -7 -127 23
-32 -3 8 15 -1 65 3 18
27 8 -14 31 -15 -3 16 4
-103 29 -2 77 -31 -12 -17 -6
-4 -59 -3 29 -16 5 5 -22
8 -24 16 -19 0 48 42 -12
50 38 -14 11 -44 4 -2 -6
125 7 1 -98 13 -27 34 -16
8 8 -12 53 -7 -1 18 -33
0 -49 -61 -86 10 -74 -123 -18
5 99 -14 -127 -8 33 11 -108
17 -53 -3 127 -3 59 -40 41
-62 -127 39 -88 -45 -13 -13 -4
26 -127 -127 114 -127 -127 -127 -127
-127 -96 127 -127 127 127 35 -127
-83 127 127 -105 127 127 112 127
127 -127 -127 28 -127 -127 94 127
-127 127 -29 -42 127 -127 127 127
127 -80 127 127 127 -120 100 108
54 5 49 -13 5 -61 43 18
-24 14 -104 -8 0 -40 127 4
00000000: 04fd 146c 0452 fe1c 0f08 0a07 f7f8 d409
00000010: fe08 e88e fae9 7ff6 fd07 fb08 fc05 0f64
00000020: 141d 25e4 0122 ff02 11bd f8f8 1003 f8f6
00000030: 7f09 0f81 1c58 0a0b 7b7f 072b cce9 0608
00000040: 7fc8 c4c8 9c18 940e 1147 e0ac 1715 0a83
00000050: 05c2 7f09 d8d2 fb74 b19f e303 ddf9 8117
00000060: e0fd 080f ff41 0312 1b08 f21f f1fd 1004
00000070: 991d fe4d e1f4 effa fcc5 fd1d f005 05ea
00000080: 08e8 10ed 0030 2af4 3226 f20b d404 fefa
00000090: 7d07 019e 0de5 22f0 0808 f435 f9ff 12df
000000a0: 00cf c3aa 0ab6 85ee 0563 f281 f821 0b94
000000b0: 11cb fd7f fd3b d829 c281 27a8 d3f3 f3fc
000000c0: 1a81 8172 8181 8181 81a0 7f81 7f7f 2381
000000d0: ad7f 7f97 7f7f 707f 7f81 811c 8181 5e7f
000000e0: 817f e3d6 7f81 7f7f 7fb0 7f7f 7f88 646c
000000f0: 3605 31f3 05c3 2b12 e80e 98f8 00d8 7f04

model_1/block_2_project/Conv2D i1 [8, 1, 1, 48]
-57 -5 -29 23 11 -20 1 -4
-118 127 -31 106 118 5 66 -24
-2 -29 6 9 0 4 -20 -39
23 -87 12 62 -7 11 22 -32
4 -78 120 27 1 -11 -10 -25
118 -1 40 -16 -31 32 -13 -12
-2 34 127 2 -7 -21 0 -78
27 -3 23 5 -18 2 -7 -111
12 -51 13 1 -23 27 23 -37
-21 -3 12 5 17 -7 13 1
-6 16 10 10 -11 -29 62 -56
15 38 -13 27 -17 16 20 -1
9 -51 11 -42 36 28 -1 -32
4 5 -1 19 -6 63 6 -3
-36 127 -25 -33 -22 22 -39 -10
126 3 1 -11 -33 -8 5 -40
-5 -14 -1 5 -7 -8 -15 6
13 -20 -16 -4 5 20 -22 -37
1 -91 -7 6 0 -7 -11 1
-7 -8 16 24 12 -13 54 2
-10 -26 5 20 -8 17 -26 6
3 51 -3 7 -7 4 127 0
13 7 -4 -3 -24 -18 -9 14
-12 5 -6 25 -11 5 -7 33
-101 11 4 6 0 -34 -3 9
40 -38 25 -22 -30 0 -16 -5
0 3 -1 28 15 -21 9 2
-5 41 3 106 4 -2 -7 -29
2 -127 -28 9 -1 -2 4 5
-51 -12 -12 24 -56 8 0 6
-27 30 27 6 -53 14 -8 54
25 2 19 2 0 -54 3 37
00000000: c7fb e317 0bec 01fc 8a7f e16a 7605 42e8
00000010: fee3 0609 0004 ecd9 17a9 0c3e f90b 16e0
00000020: 04b2 781b 01f5 f6e7 76ff 28f0 e120 f3f4
00000030: fe22 7f02 f9eb 00b2 1bfd 1705 ee02 f991
00000040: 0ccd 0d01 e91b 17db ebfd 0c05 11f9 0d01
00000050: fa10 0a0a f5e3 3ec8 0f26 f31b ef10 14ff
00000060: 09cd 0bd6 241c ffe0 0405 ff13 fa3f 06fd
00000070: dc7f e7df ea16 d9f6 7e03 01f5 dff8 05d8
00000080: fbf2 ff05 f9f8 f106 0dec f0fc 0514 eadb
00000090: 01a5 f906 00f9 f501 f9f8 1018 0cf3 3602
000000a0: f6e6 0514 f811 e606 0333 fd07 f904 7f00
000000b0: 0d07 fcfd e8ee f70e f405 fa19 f505 f921
000000c0: 9b0b 0406 00de fd09 28da 19ea e200 f0fb
000000d0: 0003 ff1c 0feb 0902 fb29 036a 04fe f9e3
000000e0: 0281 e409 fffe 0405 cdf4 f418 c808 0006
000000f0: e51e 1b06 cb0e f836 1902 1302 00ca 0325

model_1/block_3_expand/Conv2D i1 [48, 1, 1, 8]
-127 1 -1 69 -36 44 22 -34
46 82 50 34 14 -43 122 127
-34 2 2 -10 -127 -7 16 -1
90 3 -5 -123 -127 11 38 -15
-127 34 -8 1 67 -3 50 15
-109 -29 24 -14 -127 3 11 90
-13 -127 17 -25 15 -2 2 34
-69 -12 -2 105 127 -30 -38 5
64 5 -4 -127 3 -27 -38 -28
-6 -127 -9 -9 -10 85 -57 69
-80 -7 -6 14 -127 67 53 -19
119 12 33 18 -53 -38 -30 -127
-2 13 39 1 11 -79 127 67
68 -29 -17 -16 127 124 113 -36
127 58 -16 23 -122 -27 -13 -14
-5 -127 13 -13 0 0 4 42
-66 -19 15 14 -127 -4 9 -1
-18 97 -107 -3 19 -127 93 -73
127 -25 -52 10 -55 23 15 103
127 -51 -14 2 41 0 21 2
124 22 -15 127 -3 39 5 -58
13 35 -56 -5 -24 85 -127 -91
-127 29 51 -12 -43 -5 -56 -22
-37 -55 0 21 -127 66 73 -17
127 2 0 -7 -87 -6 -9 10
20 -11 4 -26 127 50 54 -29
3 -102 7 -36 4 -127 88 -54
-14 -127 26 -13 -5 -54 33 -8
-101 49 -29 13 -26 -35 127 79
-11 47 11 11 -2 40 -100 -127
127 -18 -8 -5 -73 -13 -51 -7
-10 -13 64 -22 22 -127 118 64
00000000: 8101 ff45 dc2c 16de 2e52 3222 0ed5 7a7f
00000010: de02 02f6 81f9 10ff 5a03 fb85 810b 26f1
00000020: 8122 f801 43fd 320f 93e3 18f2 8103 0b5a
00000030: f381 11e7 0ffe 0222 bbf4 fe69 7fe2 da05
00000040: 4005 fc81 03e5 dae4 fa81 f7f7 f655 c745
00000050: b0f9 fa0e 8143 35ed 770c 2112 cbda e281
00000060: fe0d 2701 0bb1 7f43 44e3 eff0 7f7c 71dc
00000070: 7f3a f017 86e5 f3f2 fb81 0df3 0000 042a
00000080: beed 0f0e 81fc 09ff ee61 95fd 1381 5db7
00000090: 7fe7 cc0a c917 0f67 7fcd f202 2900 1502
000000a0: 7c16 f17f fd27 05c6 0d23 c8fb e855 81a5
000000b0: 811d 33f4 d5fb c8ea dbc9 0015 8142 49ef
000000c0: 7f02 00f9 a9fa f70a 14f5 04e6 7f32 36e3
000000d0: 039a 07dc 0481 58ca f281 1af3 fbca 21f8
000000e0: 9b31 e30d e6dd 7f4f f52f 0b0b fe28 9c81
000000f0: 7fee f8fb b7f3 cdf9 f6f3 40ea 1681 7640

model_1/block_3_depthwise_BN/FusedBatchNormV3;model_1/block_3_depthwise/depthwise i1 [1, 3, 3, 48]
69 -91 98 72 53 -33 107 -65
62 -90 -82 46 50 -43 -71 -90
103 79 50 78 66 -74 -82 51
-32 -39 -65 -64 -67 60 -63 -114
-12 39 70 65 -64 52 -50 -24
51 -73 57 62 -93 10 74 -34
84 -94 127 87 -77 -68 -57 -84
96 -102 -64 73 80 -106 -93 92
-38 95 82 127 86 -114 52 71
-52 -76 -69 -79 55 78 -31 -127
-86 78 81 84 -81 82 -81 -17
76 -96 82 90 -72 -127 92 -102
34 -46 71 37 17 -41 -47 -38
42 -30 5 34 28 -78 -55 -1
-53 38 35 70 33 -54 30 26
-27 -44 -44 -22 31 32 87 -88
-84 42 35 33 -30 40 -37 -11
41 -39 34 43 -6 -8 37 -74
91 -113 -43 95 54 -83 127 -88
87 -115 -73 83 83 -108 -13 -127
127 109 76 -38 81 107 -127 72
72 -76 -94 -98 -127 85 -69 -10
-90 70 106 95 -83 80 -79 89
86 -101 88 91 -90 105 95 -91
127 -127 -66 127 -127 -127 -91 -127
127 -127 -127 127 127 -127 -21 97
-66 127 127 -49 127 127 67 127
127 -127 -127 -127 54 127 -28 15
-127 127 127 127 -127 127 -127 127
127 -127 127 127 -127 -11 127 -127
64 -78 -32 65 36 -62 -49 -62
57 -43 -60 59 48 -52 -17 10
00000000: 45a5 6248 35df 6bbf 3ea6 ae2e 32d5 b9a6
00000010: 674f 324e 42b6 ae33 e0d9 bfc0 bd3c c18e
00000020: f427 4641 c034 cee8 33b7 393e a30a 4ade
00000030: 54a2 7f57 b3bc c7ac 609a c049 5096 a35c
00000040: da5f 527f 568e 3447 ccb4 bbb1 374e e181
00000050: aa4e 5154 af52 afef 4ca0 525a b881 5c9a
00000060: 22d2 4725 11d7 d1da 2ae2 0522 1cb2 c9ff
00000070: cb26 2346 21ca 1e1a e5d4 d4ea 1f20 57a8
00000080: ac2a 2321 e228 dbf5 29d9 222b faf8 25b6
00000090: 5b8f d55f 36ad 7fa8 578d b753 5394 f381
000000a0: 7f6d 4cda 516b 8148 48b4 a29e 8155 bbf6
000000b0: a646 6a5f ad50 b159 569b 585b a669 5fa5
000000c0: 7f81 be7f 8181 a581 7f81 817f 7f81 eb61
000000d0: be7f 7fcf 7f7f 437f 7f81 8181 367f e40f
000000e0: 817f 7f7f 817f 817f 7f81 7f7f 81f5 7f81
000000f0: 40b2 e041 24c2 cfc2 39d5 c43b 30cc ef0a

model_1/block_3_project/Conv2D i1 [16, 1, 1, 48]
-20 -4 -20 6 17 1 2 104
-53 12 42 -9 13 -20 -8 19
20 -17 -3 3 66 -8 16 127
-18 82 0 -14 26 -18 27 -26
-22 46 21 -48 17 40 23 -13
-100 -19 21 35 31 23 -116 -48
-39 -16 25 18 -26 10 2 52
-49 -39 12 -41 -18 -13 1 0
-28 120 -6 13 5 4 -27 -19
25 -36 18 19 -26 -84 -32 20
-24 -10 31 -8 -6 -40 -3 21
-22 -28 127 10 10 1 23 -16
-21 -10 -16 -37 -2 -68 8 -23
0 11 14 25 18 10 -10 10
-4 -21 -22 -11 -4 2 -4 -127
-13 72 -17 1 0 -22 -1 -7
-3 58 9 -1 22 13 25 0
-40 3 -19 -4 1 -14 16 10
-6 36 4 -29 -2 0 3 -2
-17 -1 2 40 -127 7 -7 -2
4 6 -18 -4 -29 9 7 17
-7 -14 4 26 -10 21 6 16
2 4 15 19 -12 26 39 8
13 1 25 -29 6 -4 6 20
38 -30 3 9 16 27 25 -19
-27 3 -15 -20 -3 15 2 16
19 -10 -78 3 -4 12 14 76
4 -25 8 47 7 -72 18 7
16 -31 34 -127 13 36 4 15
-16 18 12 -25 -11 -20 9 9
31 0 -17 62 3 -9 7 25
-3 -3 36 8 5 52 2 4
00000000: ecfc ec06 1101 0268 cb0c 2af7 0dec f813
00000010: 14ef fd03 42f8 107f ee52 00f2 1aee 1be6
00000020: ea2e 15d0 1128 17f3 9ced 1523 1f17 8cd0
00000030: d9f0 1912 e60a 0234 cfd9 0cd7 eef3 0100
00000040: e478 fa0d 0504 e5ed 19dc 1213 e6ac e014
00000050: e8f6 1ff8 fad8 fd15 eae4 7f0a 0a01 17f0
00000060: ebf6 f0db febc 08e9 000b 0e19 120a f60a
00000070: fceb eaf5 fc02 fc81 f348 ef01 00ea fff9
00000080: fd3a 09ff 160d 1900 d803 edfc 01f2 100a
00000090: fa24 04e3 fe00 03fe efff 0228 8107 f9fe
000000a0: 0406 eefc e309 0711 f9f2 041a f615 0610
000000b0: 0204 0f13 f41a 2708 0d01 19e3 06fc 0614
000000c0: 26e2 0309 101b 19ed e503 f1ec fd0f 0210
000000d0: 13f6 b203 fc0c 0e4c 04e7 082f 07b8 1207
000000e0: 10e1 2281 0d24 040f f012 0ce7 f5ec 0909
000000f0: 1f00 ef3e 03f7 0719 fdfd 2408 0534 0204

model_1/block_4_expand/Conv2D i1 [96, 1, 1, 16]
48 -31 107 127 102 -33 27 -30
103 -26 -59 -59 54 84 -42 -95
32 76 5 -8 90 -12 15 41
75 77 -39 127 -19 -3 95 -78
26 -25 10 -20 -60 39 -38 79
-63 -55 3 51 -23 -127 85 -88
120 110 -5 47 -127 8 -65 -22
-10 0 122 -62 -52 92 -48 -41
6 -9 29 4 -43 28 -6 56
-72 -24 -8 -8 -16 -127 31 9
127 -53 -28 -6 -2 -109 -37 9
-3 1 -103 3 32 6 -5 50
-125 -73 2 118 -60 2 -49 22
-127 -87 -29 -41 27 24 -3 86
-15 1 -75 64 59 -127 -39 57
8 -44 12 3 -2 20 -56 5
44 -57 -7 -5 15 32 -61 -54
-11 13 -93 13 -127 12 -7 27
14 -37 53 116 -2 24 6 -59
127 -75 1 -7 0 56 -52 33
-127 -79 13 -28 122 47 22 80
81 -89 -75 34 61 -84 -122 50
36 -20 -127 22 62 34 -26 39
-7 -38 -3 -7 -3 24 -45 5
89 -41 -2 -9 -9 -70 -37 -33
24 -7 -127 -22 -59 -15 6 66
31 -127 65 -110 64 56 -82 -103
93 -127 70 59 -26 18 71 29
-48 34 -102 -43 97 -127 59 -65
51 48 -10 -96 35 117 -21 18
23 -2 46 42 36 -49 -25 -3
28 -46 -58 -2 -127 -50 -2 47
00000000: 30e1 6b7f 66df 1be2 67e6 c5c5 3654 d6a1
00000010: 204c 05f8 5af4 0f29 4b4d d97f edfd 5fb2
00000020: 1ae7 0aec c427 da4f c1c9 0333 e981 55a8
00000030: 786e fb2f 8108 bfea f600 7ac2 cc5c d0d7
00000040: 06f7 1d04 d51c fa38 b8e8 f8f8 f081 1f09
00000050: 7fcb e4fa fe93 db09 fd01 9903 2006 fb32
00000060: 83b7 0276 c402 cf16 81a9 e3d7 1b18 fd56
00000070: f101 b540 3b81 d939 08d4 0c03 fe14 c805
00000080: 2cc7 f9fb 0f20 c3ca f50d a30d 810c f91b
00000090: 0edb 3574 fe18 06c5 7fb5 01f9 0038 cc21
000000a0: 81b1 0de4 7a2f 1650 51a7 b522 3dac 8632
000000b0: 24ec 8116 3e22 e627 f9da fdf9 fd18 d305
000000c0: 59d7 fef7 f7ba dbdf 18f9 81ea c5f1 0642
000000d0: 1f81 4192 4038 ae99 5d81 463b e612 471d
000000e0: d022 9ad5 6181 3bbf 3330 f6a0 2375 eb12
000000f0: 17fe 2e2a 24cf e7fd 1cd2 c6fe 81ce fe2f

model_1/block_4_depthwise_BN/FusedBatchNormV3;model_1/block_4_depthwise/depthwise;model_1/block_6_expand/Conv2D i1 [1, 3, 3, 96]
-18 6 -20 105 -16 24 -63 -54
17 -7 100 -9 4 -9 -5 54
5 17 -34 3 75 1 33 -34
2 17 42 48 20 12 24 48
-8 26 10 -15 6 50 -60 -26
21 8 26 17 -83 -54 25 -4
-11 -19 -9 -6 48 5 -9 1
-2 -36 29 -33 27 -1 127 26
-13 -11 10 -52 66 36 0 -9
80 -33 68 4 17 -127 30 67
2 17 127 -13 37 29 -28 -19
37 -7 -13 82 3 20 -2 11
-49 12 -8 11 51 -8 -11 -127
37 13 -127 -5 -16 -13 4 87
19 -29 -13 -16 80 -95 127 25
-61 -32 -103 -16 27 35 -49 19
122 12 -12 -1 -23 127 -59 -127
9 -19 -31 14 48 -127 127 -45
-77 51 48 8 38 -65 30 55
37 41 -98 83 127 34 4 -21
43 -38 -99 -1 38 -31 -19 47
-50 -49 104 -3 -29 -59 -34 66
-65 60 -16 9 -12 48 54 -40
-27 52 -12 72 -127 -30 23 -127
0 -5 -23 -73 8 19 37 21
-5 -4 4 62 -1 -12 -11 7
-12 17 -14 16 8 26 24 -33
2 -31 11 14 -7 4 46 -78
46 17 11 -23 13 5 -28 -21
8 3 -17 9 21 -31 22 1
6 -6 5 -5 6 5 -6 7
-7 44 8 -5 10 -19 1 -17
00000000: ee06 ec69 f018 c1ca 11f9 64f7 04f7 fb36
00000010: 0511 de03 4b01 21de 0211 2a30 140c 1830
00000020: f81a 0af1 0632 c4e6 1508 1a11 adca 19fc
00000030: f5ed f7fa 3005 f701 fedc 1ddf 1bff 7f1a
00000040: f3f5 0acc 4224 00f7 50df 4404 1181 1e43
00000050: 0211 7ff3 251d e4ed 25f9 f352 0314 fe0b
00000060: cf0c f80b 33f8 f581 250d 81fb f0f3 0457
00000070: 13e3 f3f0 50a1 7f19 c3e0 99f0 1b23 cf13
00000080: 7a0c f4ff e97f c581 09ed e10e 3081 7fd3
00000090: b333 3008 26bf 1e37 2529 9e53 7f22 04eb
000000a0: 2bda 9dff 26e1 ed2f cecf 68fd e3c5 de42
000000b0: bf3c f009 f430 36d8 e534 f448 81e2 1781
000000c0: 00fb e9b7 0813 2515 fbfc 043e fff4 f507
000000d0: f411 f210 081a 18df 02e1 0b0e f904 2eb2
000000e0: 2e11 0be9 0d05 e4eb 0803 ef09 15e1 1601
000000f0: 06fa 05fb 0605 fa07 f92c 08fb 0aed 01ef

model_1/block_4_project/Conv2D i1 [16, 1, 1, 96]
-5 25 -17 13 34 85 -22 -30
34 11 16 -8 -1 3 21 69
-3 -6 -16 -4 89 -56 5 -27
-25 -21 -46 -108 -5 -14 53 39
116 -13 8 -12 1 -24 -22 13
-40 1 12 -27 9 -35 -14 22
-24 25 -2 -12 -38 -13 1 7
43 32 -29 -24 -48 22 1 -12
6 1 64 7 8 -3 -16 -23
-67 -8 0 15 4 -94 2 -15
32 -19 -71 -40 26 -20 2 17
-5 4 33 -26 27 21 -14 127
59 -90 50 74 -2 -61 -3 -51
-24 -71 -11 41 24 -70 -46 -62
-91 -15 5 23 -19 -123 -28 21
127 -71 -70 16 -28 100 -18 47
14 -5 -65 14 -28 -10 44 -29
-17 -75 74 -18 -64 2 66 7
19 21 -4 -74 70 -60 43 -22
25 31 -18 -111 24 -78 17 -64
-5 -82 41 45 54 41 -55 -14
-98 28 -19 83 39 82 30 -16
41 -7 -69 47 -74 75 -7 59
-56 39 29 21 18 -54 38 -2
25 23 12 -26 11 5 -2 49
69 -10 10 63 1 -4 51 11
-14 -7 10 -3 -17 -58 14 -52
-11 -6 -23 16 -11 19 118 -55
21 -66 -15 56 16 127 -37 -21
2 -19 -6 34 -40 -56 -59 15
26 26 -37 -28 24 4 4 -35
-30 0 1 24 7 -1 83 94
00000000: fb19 ef0d 2255 eae2 220b 10f8 ff03 1545
00000010: fdfa f0fc 59c8 05e5 e7eb d294 fbf2 3527
00000020: 74f3 08f4 01e8 ea0d d801 0ce5 09dd f216
00000030: e819 fef4 daf3 0107 2b20 e3e8 d016 01f4
00000040: 0601 4007 08fd f0e9 bdf8 000f 04a2 02f1
00000050: 20ed b9d8 1aec 0211 fb04 21e6 1b15 f27f
00000060: 3ba6 324a fec3 fdcd e8b9 f529 18ba d2c2
00000070: a5f1 0517 ed85 e415 7fb9 ba10 e464 ee2f
00000080: 0efb bf0e e4f6 2ce3 efb5 4aee c002 4207
00000090: 1315 fcb6 46c4 2bea 191f ee91 18b2 11c0
000000a0: fbae 292d 3629 c9f2 9e1c ed53 2752 1ef0
000000b0: 29f9 bb2f b64b f93b c827 1d15 12ca 26fe
000000c0: 1917 0ce6 0b05 fe31 45f6 0a3f 01fc 330b
000000d0: f2f9 0afd efc6 0ecc f5fa e910 f513 76c9
000000e0: 15be f138 107f dbeb 02ed fa22 d8c8 c50f
000000f0: 1a1a dbe4 1804 04dd e200 0118 07ff 535e

model_1/block_5_expand/Conv2D i1 [96, 1, 1, 16]
-8 84 0 94 34 19 19 8
54 51 -69 127 14 -114 48 -127
20 43 -13 -29 27 -33 127 -99
-10 90 -8 -22 3 -41 39 7
-127 26 -22 -29 -1 -21 55 84
-43 45 87 3 -52 27 21 -57
-41 69 33 77 -58 62 61 127
13 55 -92 -17 25 -72 -94 -73
18 13 35 49 -27 68 -7 37
13 -18 -9 6 13 0 -127 -22
-1 -35 65 -26 16 -3 -14 26
-76 96 -40 -127 -16 18 -58 -47
6 -5 40 -20 44 50 -70 -61
-15 -12 33 -9 127 -15 -25 -29
9 -2 127 -4 -10 -33 1 -8
-81 18 -88 -22 -1 1 23 -1
-1 9 67 48 -28 88 1 31
24 -18 6 -85 -10 -4 -127 -53
43 -127 44 59 26 -31 3 32
103 -6 74 4 -30 4 -94 -19
-44 -74 17 -9 -79 20 -19 54
96 127 23 -30 -23 57 56 -8
51 -6 12 -111 16 -18 -123 -127
-44 40 -13 -53 62 -43 41 -51
-25 -7 21 -17 -23 -44 -78 -18
-40 -65 -33 44 25 127 77 38
-17 -59 -66 29 -25 -47 21 -8
44 32 -35 -12 8 6 127 19
9 -42 71 37 21 41 8 127
33 66 17 -41 6 38 -75 107
17 -40 2 65 14 -13 111 2
11 -127 20 -40 12 -23 -7 -30
00000000: f854 005e 2213 1308 3633 bb7f 0e8e 3081
00000010: 142b f3e3 1bdf 7f9d f65a f8ea 03d7 2707
00000020: 811a eae3 ffeb 3754 d52d 5703 cc1b 15c7
00000030: d745 214d c63e 3d7f 0d37 a4ef 19b8 a2b7
00000040: 120d 2331 e544 f925 0dee f706 0d00 81ea
00000050: ffdd 41e6 10fd f21a b460 d881 f012 c6d1
00000060: 06fb 28ec 2c32 bac3 f1f4 21f7 7ff1 e7e3
00000070: 09fe 7ffc f6df 01f8 af12 a8ea ff01 17ff
00000080: ff09 4330 e458 011f 18ee 06ab f6fc 81cb
00000090: 2b81 2c3b 1ae1 0320 67fa 4a04 e204 a2ed
000000a0: d4b6 11f7 b114 ed36 607f 17e2 e939 38f8
000000b0: 33fa 0c91 10ee 8581 d428 f3cb 3ed5 29cd
000000c0: e7f9 15ef e9d4 b2ee d8bf df2c 197f 4d26
000000d0: efc5 be1d e7d1 15f8 2c20 ddf4 0806 7f13
000000e0: 09d6 4725 1529 087f 2142 11d7 0626 b56b
000000f0: 11d8 0241 0ef3 6f02 0b81 14d8 0ce9 f9e2

model_1/block_5_depthwise_BN/FusedBatchNormV3;model_1/block_5_depthwise/depthwise;model_1/block_6_expand/Conv2D i1 [1, 3, 3, 96]
-46 -73 -9 127 22 73 72 -57
-15 -17 -15 -4 -29 0 37 3
-10 -43 27 21 18 -127 127 6
-83 8 49 -29 -124 -127 39 24
10 25 59 -16 -29 -11 31 -5
-12 28 -105 69 25 -66 36 46
-18 51 -25 19 2 -6 16 48
-89 -50 -61 -19 -11 1 11 38
68 -25 76 15 -9 16 20 127
23 23 24 -1 -10 19 127 -6
-15 13 -30 18 127 22 -76 -17
0 -32 -16 -38 2 -24 -15 26
127 -127 76 106 -43 127 37 -119
68 5 -18 127 127 -98 -13 13
11 127 127 -113 127 -73 81 68
-127 -116 -66 -35 -54 45 -59 -20
-89 50 -127 -84 -42 -14 -53 62
0 127 127 80 -53 -113 -111 -50
-15 -127 43 85 66 -32 46 82
-45 43 -81 -116 -44 -41 -61 66
73 -61 28 30 -82 32 -16 90
116 127 12 19 1 59 -33 52
64 127 127 -23 -8 77 -110 127
-122 -99 4 -127 -90 -127 -37 106
-72 -12 31 -83 15 -29 61 -9
79 -34 -28 17 -19 -6 -8 -10
-9 -16 8 -5 -24 -96 30 -2
-122 99 9 -55 118 49 -15 9
1 16 13 -29 -7 33 19 12
24 13 -116 66 17 -18 35 14
-15 10 -16 5 -10 2 -3 22
-67 5 -31 52 2 41 33 -1
00000000: d2b7 f77f 1649 48c7 f1ef f1fc e300 2503
00000010: f6d5 1b15 1281 7f06 ad08 31e3 8481 2718
00000020: 0a19 3bf0 e3f5 1ffb f41c 9745 19be 242e
00000030: ee33 e713 02fa 1030 a7ce c3ed f501 0b26
00000040: 44e7 4c0f f710 147f 1717 18ff f613 7ffa
00000050: f10d e212 7f16 b4ef 00e0 f0da 02e8 f11a
00000060: 7f81 4c6a d57f 2589 4405 ee7f 7f9e f30d
00000070: 0b7f 7f8f 7fb7 5144 818c bedd ca2d c5ec
00000080: a732 81ac d6f2 cb3e 007f 7f50 cb8f 91ce
00000090: f181 2b55 42e0 2e52 d32b af8c d4d7 c342
000000a0: 49c3 1c1e ae20 f05a 747f 0c13 013b df34
000000b0: 407f 7fe9 f84d 927f 869d 0481 a681 db6a
000000c0: b8f4 1fad 0fe3 3df7 4fde e411 edfa f8f6
000000d0: f7f0 08fb e8a0 1efe 8663 09c9 7631 f109
000000e0: 0110 0de3 f921 130c 180d 8c42 11ee 230e
000000f0: f10a f005 f602 fd16 bd05 e134 0229 21ff

model_1/block_5_project/Conv2D i1 [16, 1, 1, 96]
-14 -15 4 -26 17 -9 -38 1
25 4 -10 0 -14 -17 -24 9
5 5 2 0 12 -28 8 8
9 17 -5 127 38 -38 45 -6
4 10 9 8 -12 17 -43 -3
-15 -1 -2 36 1 18 17 6
22 6 -3 2 15 -14 -8 72
11 2 -27 -41 -13 14 7 -28
-41 -66 -24 38 9 12 16 -9
-2 -35 -2 -23 -20 19 11 7
-10 -38 18 26 -5 -14 -18 -93
-1 -18 5 3 44 -27 -30 -13
33 -83 -78 -71 127 2 74 34
-32 -87 -50 -12 -2 -21 -63 41
-73 -1 56 51 22 40 -3 -55
6 2 -4 -84 45 -20 -75 32
-19 38 -9 4 -6 -13 8 28
-17 43 -42 -23 -45 93 12 4
24 -74 12 -50 -20 32 48 19
-69 -35 -39 -47 21 -10 -11 -35
-93 104 -12 -17 -7 -30 -30 25
55 -110 -30 6 41 -53 47 10
9 -35 26 8 -57 29 -33 34
39 -50 -7 10 35 -1 22 105
6 45 -79 -15 78 75 39 82
9 -104 9 -10 -22 -21 35 28
17 -30 -41 54 29 -10 73 16
42 37 -10 -33 47 -13 54 -53
39 30 -31 43 -127 -82 33 31
7 -55 22 -13 25 -19 9 72
-35 29 -16 -23 87 -6 -8 60
47 9 22 7 8 2 39 -18
00000000: f2f1 04e6 11f7 da01 1904 f600 f2ef e809
00000010: 0505 0200 0ce4 0808 0911 fb7f 26da 2dfa
00000020: 040a 0908 f411 d5fd f1ff fe24 0112 1106
00000030: 1606 fd02 0ff2 f848 0b02 e5d7 f30e 07e4
00000040: d7be e826 090c 10f7 fedd fee9 ec13 0b07
00000050: f6da 121a fbf2 eea3 ffee 0503 2ce5 e2f3
00000060: 21ad b2b9 7f02 4a22 e0a9 cef4 feeb c129
00000070: b7ff 3833 1628 fdc9 0602 fcac 2dec b520
00000080: ed26 f704 faf3 081c ef2b d6e9 d35d 0c04
00000090: 18b6 0cce ec20 3013 bbdd d9d1 15f6 f5dd
000000a0: a368 f4ef f9e2 e219 3792 e206 29cb 2f0a
000000b0: 09dd 1a08 c71d df22 27ce f90a 23ff 1669
000000c0: 062d b1f1 4e4b 2752 0998 09f6 eaeb 231c
000000d0: 11e2 d736 1df6 4910 2a25 f6df 2ff3 36cb
000000e0: 271e e12b 81ae 211f 07c9 16f3 19ed 0948
000000f0: dd1d f0e9 57fa f83c 2f09 1607 0802 27ee

model_1/block_6_expand/Conv2D i1 [96, 1, 1, 16]
-29 83 4 -127 -30 -26 -49 -66
-29 10 8 75 11 -55 -17 48
-34 9 -72 3 -32 -41 36 -78
50 48 -45 9 3 3 33 -127
-12 2 -57 46 46 18 -39 -69
127 -43 6 9 1 101 -80 21
29 -76 -3 -114 -2 -23 -4 -6
120 -3 78 46 12 45 11 127
-71 47 4 56 0 -14 4 55
-8 13 37 -40 -127 -23 -8 27
16 76 127 17 32 90 -88 82
-53 80 -25 -63 42 -59 -125 16
31 -67 124 -127 54 3 -25 117
-72 -111 72 -50 -1 105 -35 97
43 120 -15 -49 98 19 6 -41
127 93 -23 14 21 -26 48 51
0 -99 2 -79 20 -62 27 -80
20 57 77 -9 25 127 90 59
1 -27 -10 127 34 -13 47 -55
-64 113 28 -13 -12 -54 -6 -3
5 16 -47 -127 19 -11 -11 33
41 -51 27 -44 -25 -55 -3 23
8 30 32 -24 84 -33 82 -62
-83 39 1 31 -11 127 -64 -36
51 -32 -127 11 23 -42 21 17
-11 27 -42 -53 -33 110 -15 17
-21 9 -25 13 7 -127 3 19
10 -12 9 -4 11 -14 4 10
27 -32 110 -26 81 11 -127 -98
-32 -54 46 9 6 -79 -28 -40
-89 1 -31 -63 -5 -8 127 50
-65 31 70 -16 29 96 81 3
00000000: e353 0481 e2e6 cfbe e30a 084b 0bc9 ef30
00000010: de09 b803 e0d7 24b2 3230 d309 0303 2181
00000020: f402 c72e 2e12 d9bb 7fd5 0609 0165 b015
00000030: 1db4 fd8e fee9 fcfa 78fd 4e2e 0c2d 0b7f
00000040: b92f 0438 00f2 0437 f80d 25d8 81e9 f81b
00000050: 104c 7f11 205a a852 cb50 e7c1 2ac5 8310
00000060: 1fbd 7c81 3603 e775 b891 48ce ff69 dd61
00000070: 2b78 f1cf 6213 06d7 7f5d e90e 15e6 3033
00000080: 009d 02b1 14c2 1bb0 1439 4df7 197f 5a3b
00000090: 01e5 f67f 22f3 2fc9 c071 1cf3 f4ca fafd
000000a0: 0510 d181 13f5 f521 29cd 1bd4 e7c9 fd17
000000b0: 081e 20e8 54df 52c2 ad27 011f f57f c0dc
000000c0: 33e0 810b 17d6 1511 f51b d6cb df6e f111
000000d0: eb09 e70d 0781 0313 0af4 09fc 0bf2 040a
000000e0: 1be0 6ee6 510b 819e e0ca 2e09 06b1 e4d8
000000f0: a701 e1c1 fbf8 7f32 bf1f 46f0 1d60 5103

model_1/head/Conv2D i1 [32, 1, 1, 96]
19 51 28 -61 -81 8 0 69
-4 -37 -107 -75 -82 105 -50 49
31 71 10 7 -28 -90 -40 25
75 -89 1 101 51 -90 63 -2
-89 74 37 -59 -31 8 -84 -14
-96 -41 98 -69 63 -19 -79 96
-103 87 -71 11 -27 69 0 58
-71 -79 -14 21 -6 75 17 -127
51 -106 -92 58 52 -76 -10 113
-69 40 -57 102 -54 -58 -26 -21
-98 41 73 26 -41 -67 -52 -46
33 33 29 38 -75 -66 -36 40
93 24 86 49 7 -69 20 117
37 46 -47 76 -115 -89 46 -49
-29 -21 19 -40 93 94 -57 -43
48 1 -10 -45 86 20 -2 -68
-66 -65 -86 -50 53 -31 -33 37
30 109 -2 52 62 12 2 52
38 -106 -25 -47 6 -99 -33 -82
43 50 85 27 44 -73 -35 -15
86 7 17 101 42 80 53 100
7 43 52 52 46 -45 127 3
-50 99 -69 94 51 47 -83 37
-46 -34 74 -22 -43 3 40 7
-3 -78 -79 -114 -24 23 80 -15
27 -37 -63 -43 63 87 -76 -108
-91 41 -57 23 -100 -46 37 32
-74 69 -38 -40 -16 -10 -82 20
66 -72 65 -11 -71 5 -90 60
44 -28 116 83 -78 -22 38 29
-9 -55 -21 104 -82 -95 -3 -91
-40 30 108 123 105 95 -65 109
00000000: 1333 1cc3 af08 0045 fcdb 95b5 ae69 ce31
00000010: 1f47 0a07 e4a6 d819 4ba7 0165 33a6 3ffe
00000020: a74a 25c5 e108 acf2 a0d7 62bb 3fed b160
00000030: 9957 b90b e545 003a b9b1 f215 fa4b 1181
00000040: 3396 a43a 34b4 f671 bb28 c766 cac6 e6eb
00000050: 9e29 491a d7bd ccd2 2121 1d26 b5be dc28
00000060: 5d18 5631 07bb 1475 252e d14c 8da7 2ecf
00000070: e3eb 13d8 5d5e c7d5 3001 f6d3 5614 febc
00000080: bebf aace 35e1 df25 1e6d fe34 3e0c 0234
00000090: 2696 e7d1 069d dfae 2b32 551b 2cb7 ddf1
000000a0: 5607 1165 2a50 3564 072b 3434 2ed3 7f03
000000b0: ce63 bb5e 332f ad25 d2de 4aea d503 2807
000000c0: fdb2 b18e e817 50f1 1bdb c1d5 3f57 b494
000000d0: a529 c717 9cd2 2520 b645 dad8 f0f6 ae14
000000e0: 42b8 41f5 b905 a63c 2ce4 7453 b2ea 261d
000000f0: f7c9 eb68 aea1 fda5 d81e 6c7b 695f bf6d

model_1/logits/Conv2D i1 [3, 1, 1, 32]
-56 127 -68 -6 105 -73 -99 -89
90 -20 -41 -111 88 49 -40 -24
-61 -31 -100 41 9 -100 78 -76
0 42 69 -25 13 69 -68 108
99 -78 -82 6 15 49 -117 -60
-93 127 91 17 105 89 -1 -59
108 10 -95 -92 122 -5 12 50
-78 69 -22 -29 75 8 -73 -35
-15 -124 122 115 2 77 -109 61
-42 36 -112 111 12 -80 103 58
100 -103 -83 100 14 34 13 60
-127 -57 -9 -17 21 89 -54 60
00000000: c87f bcfa 69b7 9da7 5aec d791 5831 d8e8
00000010: c3e1 9c29 099c 4eb4 002a 45e7 0d45 bc6c
00000020: 63b2 ae06 0f31 8bc4 a37f 5b11 6959 ffc5
00000030: 6c0a a1a4 7afb 0c32 b245 eae3 4b08 b7dd
00000040: f184 7a73 024d 933d d624 906f 0cb0 673a
00000050: 6499 ad64 0e22 0d3c 81c7 f7ef 1559 ca3c
