src/lib/libtf/models/duis_mug.tflite (tflite, 40824 bytes, 21 tensors)

model_1/Conv1/Conv2D i1 [8, 3, 3, 1]
000000 c8 33 09 81 7a 00 d6 2f 00 3a 7f 24 bd b2 d5 08
       -56 51 9 -127 122 0 -42 47 0 58 127 36 -67 -78 -43 8
000010 d8 06 20 1d d2 36 47 81 16 22 c6 2b 35 14 36 4b
       -40 6 32 29 -46 54 71 -127 22 34 -58 43 53 20 54 75
000020 1a b0 81 c7 04 cb 2f 10 81 70 04 db 1f 02 c7 00
       26 -80 -127 -57 4 -53 47 16 -127 112 4 -37 31 2 -57 0
000030 ff 7f 01 01 b4 ff f5 b3 07 e7 81 01 eb c5 05 28
       -1 127 1 1 -76 -1 -11 -77 7 -25 -127 1 -21 -59 5 40
000040 81 1a ed fe f5 e8 47 f5
       -127 26 -19 -2 -11 -24 71 -11

model_1/expanded_conv_depthwise_BN/FusedBatchNormV3;model_1/expanded_conv_depthwise/depthwise;model_1/block_5_project/Conv2D i1 [1, 3, 3, 8]
000000 fd 04 0d 17 09 03 09 20 03 04 de 7f ec 05 fc 1f
       -3 4 13 23 9 3 9 32 3 4 -34 127 -20 5 -4 31
000010 fd 01 fd 11 02 00 fa 16 fa 01 7f eb 7f 01 91 2a
       -3 1 -3 17 2 0 -6 22 -6 1 127 -21 127 1 -111 42
000020 7f 81 a0 08 a9 7f f2 81 e3 02 14 ea 04 01 7f 27
       127 -127 -96 8 -87 127 -14 -127 -29 2 20 -22 4 1 127 39
000030 00 00 0d 01 0f ff 10 22 03 01 db fb f3 02 f6 99
       0 0 13 1 15 -1 16 34 3 1 -37 -5 -13 2 -10 -103
000040 fb fa f9 fc 06 fd fa 26
       -5 -6 -7 -4 6 -3 -6 38

model_1/expanded_conv_project/Conv2D i1 [8, 1, 1, 8]
000000 e7 fa cb de ef 21 81 f7 12 5b 01 7f 03 f6 f8 d6
       -25 -6 -53 -34 -17 33 -127 -9 18 91 1 127 3 -10 -8 -42
000010 7f fd dd c8 be 2f 5c be 0c 81 28 ad 0e a8 1c 3c
       127 -3 -35 -56 -66 47 92 -66 12 -127 40 -83 14 -88 28 60
000020 7d fd ce f7 18 ff 81 d2 02 de 01 24 05 81 ff 0b
       125 -3 -50 -9 24 -1 -127 -46 2 -34 1 36 5 -127 -1 11
000030 7f ed 6d fc 68 e5 fd 05 81 fc 9f f9 9d 05 26 05
       127 -19 109 -4 104 -27 -3 5 -127 -4 -97 -7 -99 5 38 5

model_1/block_1_expand/Conv2D i1 [48, 1, 1, 8]
000000 96 a1 18 81 c1 fe fa fc 81 f5 67 01 cc 1a 04 0f
       -106 -95 24 -127 -63 -2 -6 -4 -127 -11 103 1 -52 26 4 15
000010 24 eb 17 7f 23 ec ea fa 91 b9 e5 f2 27 7f cf d9
       36 -21 23 127 35 -20 -22 -6 -111 -71 -27 -14 39 127 -49 -39
000020 f9 e4 f3 00 f5 0a 81 c4 fe d9 f0 fa f5 0d 81 bd
       -7 -28 -13 0 -11 10 -127 -60 -2 -39 -16 -6 -11 13 -127 -67
000030 7f 07 11 f5 bc 13 02 fc 81 e1 f2 09 42 10 ff 0a
       127 7 17 -11 -68 19 2 -4 -127 -31 -14 9 66 16 -1 10
000040 14 27 f5 f0 e2 81 23 13 46 14 f4 fc e8 00 fa 7f
       20 39 -11 -16 -30 -127 35 19 70 20 -12 -4 -24 0 -6 127
000050 78 f0 85 0e a6 f3 2f 7f 82 7f 15 c9 72 b6 05 1e
       120 -16 -123 14 -90 -13 47 127 -126 127 21 -55 114 -74 5 30
000060 7f dc 95 0d 33 ff f6 ed 7f 08 0c ed e2 1e 0a f1
       127 -36 -107 13 51 -1 -10 -19 127 8 12 -19 -30 30 10 -15
000070 87 ae 60 ed 44 ea d8 81 1e 4a 02 f9 f7 81 f1 05
       -121 -82 96 -19 68 -22 -40 -127 30 74 2 -7 -9 -127 -15 5
000080 f5 bc 0b 03 0a 7f 0d 06 25 81 bf 03 e8 78 ce ee
       -11 -68 11 3 10 127 13 6 37 -127 -65 3 -24 120 -50 -18
000090 2a f3 ed f4 ee 20 7f f6 fe 16 fe 81 f8 23 fc f6
       42 -13 -19 -12 -18 32 127 -10 -2 22 -2 -127 -8 35 -4 -10
0000a0 b7 e6 3f 0a 37 5e fc 81 ef f8 26 ea f0 10 81 a7
       -73 -26 63 10 55 94 -4 -127 -17 -8 38 -22 -16 16 -127 -89
0000b0 57 fd 14 7f f8 f7 3f 26 7f fb 84 fa 1f ed 07 08
       87 -3 20 127 -8 -9 63 38 127 -5 -124 -6 31 -19 7 8
0000c0 e5 12 17 1e 09 05 81 b2 7f 0c a7 0b 0e fd 08 1a
       -27 18 23 30 9 5 -127 -78 127 12 -89 11 14 -3 8 26
0000d0 fc 34 df 81 e1 1b 03 02 7f 19 95 03 85 2a 12 5f
       -4 52 -33 -127 -31 27 3 2 127 25 -107 3 -123 42 18 95
0000e0 81 e6 e9 0f 32 0a fd 23 f4 81 f4 86 f4 1a f0 e8
       -127 -26 -23 15 50 10 -3 35 -12 -127 -12 -122 -12 26 -16 -24
0000f0 f3 5a 7f 23 20 9d 7b 1c b7 fc 81 27 02 e7 60 67
       -13 90 127 35 32 -99 123 28 -73 -4 -127 39 2 -25 96 103

model_1/block_1_depthwise_BN/FusedBatchNormV3;model_1/block_1_depthwise/depthwise;model_1/block_6_expand/Conv2D i1 [1, 3, 3, 48]
000000 f0 b4 97 40 a8 00 c4 b6 43 34 6c df fa 0f 99 ca
       -16 -76 -105 64 -88 0 -60 -74 67 52 108 -33 -6 15 -103 -54
000010 74 a5 14 e0 05 96 d6 b2 52 5d 05 84 fd c7 39 57
       116 -91 20 -32 5 -106 -42 -78 82 93 5 -124 -3 -57 57 87
000020 3e 3d 3a 0a 55 61 43 0e 87 ec 1f 29 dd 3b e7 a6
       62 61 58 10 85 97 67 14 -121 -20 31 41 -35 59 -25 -90
000030 5e f7 23 4a 81 26 b8 06 63 68 75 3d fc b4 81 af
       94 -9 35 74 -127 38 -72 6 99 104 117 61 -4 -76 -127 -81
000040 7f d6 5d bc a3 7f 7f 20 7f 69 30 81 b5 a7 9a 65
       127 -42 93 -68 -93 127 127 32 127 105 48 -127 -75 -89 -102 101
000050 62 7f 67 57 f0 7f 36 bf a4 b6 10 c9 cf 6c e3 67
       98 127 103 87 -16 127 54 -65 -92 -74 16 -55 -49 108 -29 103
000060 6b 04 39 41 b3 09 f3 f8 25 4d ff e0 c8 fd d5 bf
       107 4 57 65 -77 9 -13 -8 37 77 -1 -32 -56 -3 -43 -65
000070 21 4b 2f f7 c0 e9 ae 3f 2c 20 27 d8 ee d1 1a 44
       33 75 47 -9 -64 -23 -82 63 44 32 39 -40 -18 -47 26 68
000080 2c 55 04 3f 01 1a 3e fd d2 ff 01 0e f1 5a 0e fc
       44 85 4 63 1 26 62 -3 -46 -1 1 14 -15 90 14 -4
000090 35 81 6b 54 54 b5 81 81 75 44 68 d6 ff f9 81 b2
       53 -127 107 84 84 -75 -127 -127 117 68 104 -42 -1 -7 -127 -78
0000a0 4b 7f 34 85 e5 6f 1e 81 62 6c 6f 96 f8 a2 b7 62
       75 127 52 -123 -27 111 30 -127 98 108 111 -106 -8 -94 -73 98
0000b0 6f f8 57 25 1c 79 54 03 ee da 59 65 91 44 ae 6f
       111 -8 87 37 28 121 84 3 -18 -38 89 101 -111 68 -82 111
0000c0 7f f5 03 7f 75 81 ac 00 7f 7f 7f 34 e5 81 86 81
       127 -11 3 127 117 -127 -84 0 127 127 127 52 -27 -127 -122 -127
0000d0 6b 40 7f 81 81 88 8d 2b 7c 7f 7f 8f 81 98 7f 7f
       107 64 127 -127 -127 -120 -115 43 124 127 127 -113 -127 -104 127 127
0000e0 7f 01 7f 7f fb 70 7f 81 03 81 7c af 81 7f 8f 81
       127 1 127 127 -5 112 127 -127 3 -127 124 -81 -127 127 -113 -127
0000f0 4e f6 81 31 55 c3 e3 02 23 2c 21 f1 81 fe d5 d3
       78 -10 -127 49 85 -61 -29 2 35 44 33 -15 -127 -2 -43 -45

model_1/block_1_project/Conv2D i1 [8, 1, 1, 48]
000000 32 66 de 46 f8 ff e6 07 3d bf 00 e5 06 05 de c9
       50 102 -34 70 -8 -1 -26 7 61 -65 0 -27 6 5 -34 -55
000010 00 eb 1a 07 c4 e6 db 09 17 0c 1a f9 17 0a ec 1a
       0 -21 26 7 -60 -26 -37 9 23 12 26 -7 23 10 -20 26
000020 be 08 6e 81 e7 1a f8 6e e5 13 09 01 f2 2a 1d cf
       -66 8 110 -127 -25 26 -8 110 -27 19 9 1 -14 42 29 -49
000030 06 ca 25 31 ef f3 e8 e7 37 cd 5d 34 1d 09 ca a3
       6 -54 37 49 -17 -13 -24 -25 55 -51 93 52 29 9 -54 -93
000040 7f 2a 10 04 b0 29 25 ee cf 9f e4 cc f7 c1 33 d2
       127 42 16 4 -80 41 37 -18 -49 -97 -28 -52 -9 -63 51 -46
000050 fa ec e0 11 0b eb 5c c2 f1 2b bf 2f 50 42 14 3b
       -6 -20 -32 17 11 -21 92 -62 -15 43 -65 47 80 66 20 59
000060 46 e4 f0 f0 65 72 42 42 e3 fe 04 e2 f6 31 40 1b
       70 -28 -16 -16 101 114 66 66 -29 -2 4 -30 -10 49 64 27
000070 e6 e3 3d b8 de cc cc 3c a9 a1 73 11 35 c1 c5 16
       -26 -29 61 -72 -34 -52 -52 60 -87 -95 115 17 53 -63 -59 22
000080 81 55 66 0f fa fd f5 18 17 3f 0d c1 eb 0d 35 d4
       -127 85 102 15 -6 -3 -11 24 23 63 13 -63 -21 13 53 -44
000090 50 e8 0e f7 74 78 19 32 db ec 1f 37 81 21 45 12
       80 -24 14 -9 116 120 25 50 -37 -20 31 55 -127 33 69 18
0000a0 06 11 48 98 a9 12 23 5b 09 e7 37 1a 37 cd 00 f4
       6 17 72 -104 -87 18 35 91 9 -25 55 26 55 -51 0 -12
0000b0 8e 36 c1 91 11 df 46 d7 30 9f 98 dd c8 22 ef 39
       -114 54 -63 -111 17 -33 70 -41 48 -97 -104 -35 -56 34 -17 57
0000c0 2a 30 df db f2 f0 ee e9 ff fb f6 f9 e0 ed 40 36
       42 48 -33 -37 -14 -16 -18 -23 -1 -5 -10 -7 -32 -19 64 54
0000d0 d8 eb dd 2e 1f ee f1 06 cd d6 fb 37 f0 0c e7 1b
       -40 -21 -35 46 31 -18 -15 6 -51 -42 -5 55 -16 12 -25 27
0000e0 e2 ec 1d 81 fa 18 0c 3b 05 f2 f7 e2 2f 01 5b eb
       -30 -20 29 -127 -6 24 12 59 5 -14 -9 -30 47 1 91 -21
0000f0 3e 35 a8 2d ff 0e f3 21 ae c3 c4 ec 21 12 27 15
       62 53 -88 45 -1 14 -13 33 -82 -61 -60 -20 33 18 39 21

model_1/block_2_expand/Conv2D i1 [48, 1, 1, 8]
000000 e9 2b 12 81 a4 f5 24 76 59 0b f7 f9 ab 30 7f 20
       -23 43 18 -127 -92 -11 36 118 89 11 -9 -7 -85 48 127 32
000010 f6 76 c9 da df 55 c4 81 35 ca bd 6b 81 cc 02 f4
       -10 118 -55 -38 -33 85 -60 -127 53 -54 -67 107 -127 -52 2 -12
000020 2c c3 2d f4 81 f8 2d 17 ef 39 fa ad 81 fb e8 07
       44 -61 45 -12 -127 -8 45 23 -17 57 -6 -83 -127 -5 -24 7
000030 32 f2 21 27 7f e8 00 89 0a 1a 10 7f 1b fb 00 14
       50 -14 33 39 127 -24 0 -119 10 26 16 127 27 -5 0 20
000040 14 10 04 d2 26 7f 15 ed 7f 13 e6 2a d2 c5 7d 50
       20 16 4 -46 38 127 21 -19 127 19 -26 42 -46 -59 125 80
000050 02 40 b2 e3 0a 7f 57 c5 f3 e4 81 62 bb 13 f1 48
       2 64 -78 -29 10 127 87 -59 -13 -28 -127 98 -69 19 -15 72
000060 95 a1 35 2d 23 81 cc 0d 26 1a 1c 28 cc 7f 0b dd
       -107 -95 53 45 35 -127 -52 13 38 26 28 40 -52 127 11 -35
000070 ed 93 16 f4 cd a2 81 74 a7 2a 02 fd 4c fc 81 da
       -19 -109 22 -12 -51 -94 -127 116 -89 42 2 -3 76 -4 -127 -38
000080 68 5f 9e 81 31 77 77 17 97 71 81 1e f7 ee 10 93
       104 95 -98 -127 49 119 119 23 -105 113 -127 30 -9 -18 16 -109
000090 29 f0 97 7f 02 de c7 bd 7f 06 15 13 d1 fe 7c 37
       41 -16 -105 127 2 -34 -57 -67 127 6 21 19 -47 -2 124 55
0000a0 22 b0 ac 7f 38 e5 ed bc 13 3a 7f 8a 34 ec 25 8f
       34 -80 -84 127 56 -27 -19 -68 19 58 127 -118 52 -20 37 -113
0000b0 b2 d4 81 2f ee 2a 08 68 48 11 21 2b 81 61 39 e2
       -78 -44 -127 47 -18 42 8 104 72 17 33 43 -127 97 57 -30
0000c0 fa f9 81 53 e1 17 28 3f 32 da b1 7f 38 04 da ea
       -6 -7 -127 83 -31 23 40 63 50 -38 -79 127 56 4 -38 -22
0000d0 a8 17 7f 99 f6 1b 42 ee b0 4f 7f fd 0c fa 4e 15
       -88 23 127 -103 -10 27 66 -18 -80 79 127 -3 12 -6 78 21
0000e0 d0 9d 2b 81 f5 0d 04 e2 bb a3 e9 55 04 81 f9 3f
       -48 -99 43 -127 -11 13 4 -30 -69 -93 -23 85 4 -127 -7 63
0000f0 81 2e 6c db 2a 1a 47 21 c3 35 56 81 d3 13 25 40
       -127 46 108 -37 42 26 71 33 -61 53 86 -127 -45 19 37 64

model_1/block_2_depthwise_BN/FusedBatchNormV3;model_1/block_2_depthwise/depthwise;model_1/block_6_expand/Conv2D i1 [1, 3, 3, 48]
000000 ff d5 22 d1 7f 01 f7 f8 d8 2d f9 01 37 19 7f dc
       -1 -43 34 -47 127 1 -9 -8 -40 45 -7 1 55 25 127 -36
000010 05 ec d7 e7 df f4 c2 18 89 31 22 c3 f6 15 f6 ff
       5 -20 -41 -25 -33 -12 -62 24 -119 49 34 -61 -10 21 -10 -1
000020 de 2a 11 fc 54 2a 15 f7 3a 0a f0 f5 9f f7 de df
       -34 42 17 -4 84 42 21 -9 58 10 -16 -11 -97 -9 -34 -33
000030 07 9d b5 d2 d3 ff 24 13 0b fc 3d 7f f4 33 b0 7f
       7 -99 -75 -46 -45 -1 36 19 11 -4 61 127 -12 51 -80 127
000040 f3 a1 1e c7 b8 81 b1 47 81 a9 1c 5b 08 27 7f 0a
       -13 -95 30 -57 -72 -127 -79 71 -127 -87 28 91 8 39 127 10
000050 81 88 ce 22 7f a1 69 07 3b f7 e6 f1 c7 ed 46 03
       -127 -120 -50 34 127 -95 105 7 59 -9 -26 -15 -57 -19 70 3
000060 0f f2 ec 7f 27 09 af f8 de e0 e7 ed 41 fc bc d6
       15 -14 -20 127 39 9 -81 -8 -34 -32 -25 -19 65 -4 -68 -42
000070 17 03 06 f2 04 07 e7 09 c4 b5 ea 16 f6 22 b2 f6
       23 3 6 -14 4 7 -25 9 -60 -75 -22 22 -10 34 -78 -10
000080 14 4c 11 10 f9 58 81 02 18 00 f7 1e 81 fe ce 2b
       20 76 17 16 -7 88 -127 2 24 0 -9 30 -127 -2 -50 43
000090 93 c3 7f f0 de da 52 15 0c 72 0a 0b 31 1b 64 20
       -109 -61 127 -16 -34 -38 82 21 12 114 10 11 49 27 100 32
0000a0 14 8c 63 23 53 ff 35 dc 01 ed 1d d2 16 32 1e 36
       20 -116 99 35 83 -1 53 -36 1 -19 29 -46 22 50 30 54
0000b0 23 b2 00 7f 06 28 ce 8e 18 5d ea b1 19 93 cc 1b
       35 -78 0 127 6 40 -50 -114 24 93 -22 -79 25 -109 -52 27
0000c0 7f b8 bb a5 0e 81 7f 7f 7f 1c 7f d7 81 18 d2 d8
       127 -72 -69 -91 14 -127 127 127 127 28 127 -41 -127 24 -46 -40
0000d0 7f 81 7f 7f 7f 5e 7f 81 07 e0 7b df 7f 7f 8f 7f
       127 -127 127 127 127 94 127 -127 7 -32 123 -33 127 127 -113 127
0000e0 20 a3 7f 90 b5 7f 9a 75 81 81 7f 81 5b 81 7f 8e
       32 -93 127 -112 -75 127 -102 117 -127 -127 127 -127 91 -127 127 -114
0000f0 f9 99 0e 4c e8 fb cf 04 f2 81 e3 31 62 05 cb 30
       -7 -103 14 76 -24 -5 -49 4 -14 -127 -29 49 98 5 -53 48

model_1/block_2_project/Conv2D i1 [8, 1, 1, 48]
000000 21 da 62 3f 14 dc 10 04 05 35 e2 0c cc b1 2c 07
       33 -38 98 63 20 -36 16 4 5 53 -30 12 -52 -79 44 7
000010 93 3c dc 40 d8 3d fc e1 04 d9 47 ec e5 16 e8 67
       -109 60 -36 64 -40 61 -4 -31 4 -39 71 -20 -27 22 -24 103
000020 c0 ef db af bb d2 d7 f3 f4 3f 81 0b 34 18 1e 35
       -64 -17 -37 -81 -69 -46 -41 -13 -12 63 -127 11 52 24 30 53
000030 c5 dd 45 fe e7 1d d5 df 2f f9 fc e1 ec 0b fd 0d
       -59 -35 69 -2 -25 29 -43 -33 47 -7 -4 -31 -20 11 -3 13
000040 ff 19 0e f8 c2 ea ba e3 1e d9 e4 e0 19 bb f9 81
       -1 25 14 -8 -62 -22 -70 -29 30 -39 -28 -32 25 -69 -7 -127
000050 ff cc bd b2 d4 a7 ee 0b 26 eb 5a 93 d2 f0 ea f9
       -1 -52 -67 -78 -44 -89 -18 11 38 -21 90 -109 -46 -16 -22 -7
000060 cb 56 fb 1d 11 10 16 d9 49 dd 44 4b 62 0c 1e cd
       -53 86 -5 29 17 16 22 -39 73 -35 68 75 98 12 30 -51
000070 5b 02 10 1f f6 19 08 7f 9d d8 0e e9 f9 4a ec ad
       91 2 16 31 -10 25 8 127 -99 -40 14 -23 -7 74 -20 -83
000080 f5 ff 04 bb ed 08 de ef 53 bb 14 fa 1a 89 ff fa
       -11 -1 4 -69 -19 8 -34 -17 83 -69 20 -6 26 -119 -1 -6
000090 3c ec c7 20 57 af ff 8f e4 f8 cb a8 ee 7f fd 1b
       60 -20 -57 32 87 -81 -1 -113 -28 -8 -53 -88 -18 127 -3 27
0000a0 da f6 bb d7 1e 4e f6 cd 70 30 39 b9 17 a8 34 c2
       -38 -10 -69 -41 30 78 -10 -51 112 48 57 -71 23 -88 52 -62
0000b0 30 39 76 b6 d3 18 e7 23 20 5b b3 18 f9 13 01 2e
       48 57 118 -74 -45 24 -25 35 32 91 -77 24 -7 19 1 46
0000c0 cd 21 d5 45 60 e0 20 d8 d5 fd c3 27 d5 ef 00 bc
       -51 33 -43 69 96 -32 32 -40 -43 -3 -61 39 -43 -17 0 -68
0000d0 0c 3d e5 dd d3 21 bf bd 13 ef 11 dc 1d df de 3d
       12 61 -27 -35 -45 33 -65 -67 19 -17 17 -36 29 -33 -34 61
0000e0 fc 51 bd c0 c6 c6 de fe 3d ca 7f 13 02 55 d0 c2
       -4 81 -67 -64 -58 -58 -34 -2 61 -54 127 19 2 85 -48 -62
0000f0 37 05 55 fb fa 0f 32 22 7f fe 4b 04 4a 39 18 c2
       55 5 85 -5 -6 15 50 34 127 -2 75 4 74 57 24 -62

model_1/block_3_expand/Conv2D i1 [48, 1, 1, 8]
000000 20 1e c0 14 df 33 81 21 08 c4 81 05 ef ed 7c 88
       32 30 -64 20 -33 51 -127 33 8 -60 -127 5 -17 -19 124 -120
000010 85 c7 b9 d5 d2 35 81 ed cf da 14 ef e8 81 9a f1
       -123 -57 -71 -43 -46 53 -127 -19 -49 -38 20 -17 -24 -127 -102 -15
000020 ca 81 c9 11 43 20 d3 d7 4c dd 60 2b 81 3d bb 9b
       -54 -127 -55 17 67 32 -45 -41 76 -35 96 43 -127 61 -69 -101
000030 25 81 b5 e3 ec 4a d8 ab de 9c ba b0 50 81 03 27
       37 -127 -75 -29 -20 74 -40 -85 -34 -100 -70 -80 80 -127 3 39
000040 2f 39 26 49 19 d4 0a 7f ea c8 d2 09 28 ee 7f f1
       47 57 38 73 25 -44 10 127 -22 -56 -46 9 40 -18 127 -15
000050 da 0d 81 08 1c 0d 5e aa 07 e3 e5 08 81 0e 01 2c
       -38 13 -127 8 28 13 94 -86 7 -29 -27 8 -127 14 1 44
000060 5e 3d ea 25 ba 7f 46 f9 d3 ff 16 f1 2a 81 f9 45
       94 61 -22 37 -70 127 70 -7 -45 -1 22 -15 42 -127 -7 69
000070 9b c8 16 1f 14 36 8b 81 3b 52 31 01 81 2d 79 c8
       -101 -56 22 31 20 54 -117 -127 59 82 49 1 -127 45 121 -56
000080 f8 d6 f9 42 f2 cc 0e 81 b3 7f 21 f0 bd c7 b3 aa
       -8 -42 -7 66 -14 -52 14 -127 -77 127 33 -16 -67 -57 -77 -86
000090 63 7c 8f 85 79 7f ac 9d ea 5e f0 17 81 12 bc 92
       99 124 -113 -123 121 127 -84 -99 -22 94 -16 23 -127 18 -68 -110
0000a0 81 fa 01 0a 19 15 62 33 dc f5 37 05 a8 94 81 24
       -127 -6 1 10 25 21 98 51 -36 -11 55 5 -88 -108 -127 36
0000b0 f6 d8 ca f9 81 05 03 3f 3b 06 f3 ed 7f 35 b3 4a
       -10 -40 -54 -7 -127 5 3 63 59 6 -13 -19 127 53 -77 74
0000c0 7f 0e b8 1f 9d 12 12 02 1f b9 31 70 d0 81 2a 76
       127 14 -72 31 -99 18 18 2 31 -71 49 112 -48 -127 42 118
0000d0 12 7f 01 3d 44 f4 0e f6 81 6e 41 e9 79 bc fd 62
       18 127 1 61 68 -12 14 -10 -127 110 65 -23 121 -68 -3 98
0000e0 bf b6 c8 da 54 81 1d ef d2 e7 30 29 7f a1 bc 51
       -65 -74 -56 -38 84 -127 29 -17 -46 -25 48 41 127 -95 -68 81
0000f0 7a 33 81 91 b2 a4 b8 bd 1a 01 25 46 81 09 21 02
       122 51 -127 -111 -78 -92 -72 -67 26 1 37 70 -127 9 33 2

model_1/block_3_depthwise_BN/FusedBatchNormV3;model_1/block_3_depthwise/depthwise;model_1/block_6_expand/Conv2D i1 [1, 3, 3, 48]
000000 29 ab de 25 6f 17 b1 a4 1b 37 5c b1 bc 66 5b 2e
       41 -85 -34 37 111 23 -79 -92 27 55 92 -79 -68 102 91 46
000010 35 b5 38 36 ac ca 2a 3c b2 e8 6d 36 41 40 e7 4b
       53 -75 56 54 -84 -54 42 60 -78 -24 109 54 65 64 -25 75
000020 43 a2 b6 89 4b c6 4b 1a 91 4a 3c a1 5c 70 45 9b
       67 -94 -74 -119 75 -58 75 26 -111 74 60 -95 92 112 69 -101
000030 43 a3 d0 3d 7f 30 a5 81 26 53 3e 8a 87 70 56 5a
       67 -93 -48 61 127 48 -91 -127 38 83 62 -118 -121 112 86 90
000040 33 9f 24 6f aa 90 3e 42 d3 af 7f 59 43 7f d0 5f
       51 -97 36 111 -86 -112 62 66 -45 -81 127 89 67 127 -48 95
000050 69 a6 81 c2 4a b4 4b 31 88 41 3c 9f 3e 5c 4b 8c
       105 -90 -127 -62 74 -76 75 49 -120 65 60 -97 62 92 75 -116
000060 3e cf be 1a 1f 02 e6 cb 23 2e 14 d8 c5 28 39 08
       62 -49 -66 26 31 2 -26 -53 35 46 20 -40 -59 40 57 8
000070 09 ed 03 19 db ae 17 2e da f7 4d 1d 19 41 f1 16
       9 -19 3 25 -37 -82 23 46 -38 -9 77 29 25 65 -15 22
000080 23 a8 ce 8b 18 cd 16 13 cd 25 25 d9 1e 00 17 c5
       35 -88 -50 -117 24 -51 22 19 -51 37 37 -39 30 0 23 -59
000090 1f 83 cc 52 5f 42 8c 88 5f 65 4d 97 af 65 58 62
       31 -125 -52 82 95 66 -116 -120 95 101 77 -105 -81 101 88 98
0000a0 7f a8 0f 7f a3 81 5a 5d 81 b1 5e 55 7f 3e b2 5d
       127 -88 15 127 -93 -127 90 93 -127 -79 94 85 127 62 -78 93
0000b0 62 af 9e a6 76 a6 67 58 92 7f 65 81 4d 7f 48 98
       98 -81 -98 -90 118 -90 103 88 -110 127 101 -127 77 127 72 -104
0000c0 25 81 91 7f 7c 7f 81 94 7f 7f 7f 81 88 7f 7f 7f
       37 -127 -111 127 124 127 -127 -108 127 127 127 -127 -120 127 127 127
0000d0 63 81 28 71 81 aa 7f 7f 85 81 70 7f 6a 4b 81 7f
       99 -127 40 113 -127 -86 127 127 -123 -127 112 127 106 75 -127 127
0000e0 7f b2 af 81 7f 81 7f 7f 81 40 7f a3 7f 6d 4e 81
       127 -78 -81 -127 127 -127 127 127 -127 64 127 -93 127 109 78 -127
0000f0 04 cb 8f 33 4a 18 c2 f2 3d 39 29 ab b3 20 49 2a
       4 -53 -113 51 74 24 -62 -14 61 57 41 -85 -77 32 73 42

model_1/block_3_project/Conv2D i1 [8, 1, 1, 48]
000000 eb e3 2b cb 34 53 43 58 64 d1 ed 39 e5 ee 13 ee
       -21 -29 43 -53 52 83 67 88 100 -47 -19 57 -27 -18 19 -18
000010 28 27 09 d2 e2 19 ad d9 20 f9 11 bb d9 14 28 16
       40 39 9 -46 -30 25 -83 -39 32 -7 17 -69 -39 20 40 22
000020 14 32 3f 0f 6f d0 b3 02 ca bc e3 04 ba a9 81 3c
       20 50 63 15 111 -48 -77 2 -54 -68 -29 4 -70 -87 -127 60
000030 f0 fd d0 31 03 0d d0 ed c4 19 0e 59 e1 ff ed 7f
       -16 -3 -48 49 3 13 -48 -19 -60 25 14 89 -31 -1 -19 127
000040 2a 3c 07 df d2 ed ba 17 11 fb e8 a3 30 ef c6 ba
       42 60 7 -33 -46 -19 -70 23 17 -5 -24 -93 48 -17 -58 -70
000050 3a e1 e0 c8 1e 26 36 d6 04 43 35 d9 00 d8 c9 e3
       58 -31 -32 -56 30 38 54 -42 4 67 53 -39 0 -40 -55 -29
000060 00 aa e7 fa e2 09 02 06 7a 1a fa ea e0 a8 21 09
       0 -86 -25 -6 -30 9 2 6 122 26 -6 -22 -32 -88 33 9
000070 04 c7 e6 f5 92 33 09 21 04 33 da e6 ee d6 2b ce
       4 -57 -26 -11 -110 51 9 33 4 51 -38 -26 -18 -42 43 -50
000080 9a 1b c9 3a bf 43 e7 e4 7f ee fc 2a 23 29 ca d9
       -102 27 -55 58 -65 67 -25 -28 127 -18 -4 42 35 41 -54 -39
000090 ee 97 64 3e 14 9a f7 f9 8c 7f 42 cf 39 0e e3 1b
       -18 -105 100 62 20 -102 -9 -7 -116 127 66 -49 57 14 -29 27
0000a0 3b 1e e5 35 4b 52 22 c5 0a 5c 43 1b eb b7 0f 11
       59 30 -27 53 75 82 34 -59 10 92 67 27 -21 -73 15 17
0000b0 eb 00 2f 0c f2 af df 29 ee fc 14 ba b5 18 05 18
       -21 0 47 12 -14 -81 -33 41 -18 -4 20 -70 -75 24 5 24
0000c0 f2 3a f4 4c 1c 02 0b fd ce 52 31 4f 05 18 36 10
       -14 58 -12 76 28 2 11 -3 -50 82 49 79 5 24 54 16
0000d0 05 9d fa ed 57 f1 a2 38 47 e7 1d 1e 37 1e f5 cc
       5 -99 -6 -19 87 -15 -94 56 71 -25 29 30 55 30 -11 -52
0000e0 d1 7f 03 0b 3f e4 14 12 e2 30 fd e5 ff cc e4 17
       -47 127 3 11 63 -28 20 18 -30 48 -3 -27 -1 -52 -28 23
0000f0 e3 04 f2 bc 81 2b 74 1e 0c 37 e6 e9 96 fc 45 de
       -29 4 -14 -68 -127 43 116 30 12 55 -26 -23 -106 -4 69 -34

model_1/block_4_expand/Conv2D i1 [48, 1, 1, 8]
000000 a5 81 e2 13 db f8 34 c7 f6 7f 34 b0 06 a4 ae 6b
       -91 -127 -30 19 -37 -8 52 -57 -10 127 52 -80 6 -92 -82 107
000010 81 c0 16 05 37 ff 14 f4 01 d1 81 cd 29 cd e3 39
       -127 -64 22 5 55 -1 20 -12 1 -47 -127 -51 41 -51 -29 57
000020 d6 b3 56 f4 7f d9 38 ea f8 39 31 aa 68 21 d2 7f
       -42 -77 86 -12 127 -39 56 -22 -8 57 49 -86 104 33 -46 127
000030 83 6d 33 38 d0 0c 2d 81 2e f8 4d 33 2f 82 fe 7f
       -125 109 51 56 -48 12 45 -127 46 -8 77 51 47 -126 -2 127
000040 01 47 f4 e1 1f 7f 7e b6 50 7f 0f c4 b3 b9 c2 6f
       1 71 -12 -31 31 127 126 -74 80 127 15 -60 -77 -71 -62 111
000050 1c fd 20 fc ef 2f 81 a8 b0 12 8a af 7f 14 27 37
       28 -3 32 -4 -17 47 -127 -88 -80 18 -118 -81 127 20 39 55
000060 62 2c e8 01 7f 65 0f 0c 87 81 fb 41 a0 2d 39 0d
       98 44 -24 1 127 101 15 12 -121 -127 -5 65 -96 45 57 13
000070 f9 61 b7 67 ce 7f f5 17 fc b7 da b5 7f 32 ea 39
       -7 97 -73 103 -50 127 -11 23 -4 -73 -38 -75 127 50 -22 57
000080 49 b2 fc 34 25 ee 23 81 ae aa 81 6c 0d 66 42 99
       73 -78 -4 52 37 -18 35 -127 -82 -86 -127 108 13 102 66 -103
000090 41 e9 7f fb d0 95 aa e5 e7 7f 23 1c 54 9a c3 db
       65 -23 127 -5 -48 -107 -86 -27 -25 127 35 28 84 -102 -61 -37
0000a0 c8 f8 81 da 25 f5 03 f8 81 e7 27 2f b4 a7 5d d6
       -56 -8 -127 -38 37 -11 3 -8 -127 -25 39 47 -76 -89 93 -42
0000b0 2e ff 81 a5 cf fe f3 46 f1 2a 7f fb b0 2b 03 84
       46 -1 -127 -91 -49 -2 -13 70 -15 42 127 -5 -80 43 3 -124
0000c0 b5 67 48 5d 7f 55 04 ce d5 81 b9 13 d0 22 23 06
       -75 103 72 93 127 85 4 -50 -43 -127 -71 19 -48 34 35 6
0000d0 5a 67 8f be 81 f3 b3 34 31 2a ca 0e 81 19 e0 ef
       90 103 -113 -66 -127 -13 -77 52 49 42 -54 14 -127 25 -32 -17
0000e0 df 34 0c b0 4f 48 81 93 20 12 09 b0 81 03 11 cf
       -33 52 12 -80 79 72 -127 -109 32 18 9 -80 -127 3 17 -49
0000f0 a6 04 28 7f 31 0f df f0 13 81 fe a2 85 3e c1 89
       -90 4 40 127 49 15 -33 -16 19 -127 -2 -94 -123 62 -63 -119

model_1/block_4_depthwise_BN/FusedBatchNormV3;model_1/block_4_depthwise/depthwise;model_1/block_6_expand/Conv2D i1 [1, 3, 3, 48]
000000 e8 f9 41 0c 7f c2 09 0e 04 18 22 e6 29 22 c9 18
       -24 -7 65 12 127 -62 9 14 4 24 34 -26 41 34 -55 24
000010 77 e1 eb 45 ed fc db ea f6 f5 1f db de 7f 21 9c
       119 -31 -21 69 -19 -4 -37 -22 -10 -11 31 -37 -34 127 33 -100
000020 b4 62 4d 8c 0a b9 81 e9 02 df fb b5 f4 ce 81 28
       -76 98 77 -116 10 -71 -127 -23 2 -33 -5 -75 -12 -50 -127 40
000030 dc 4f fc 21 ef b2 73 ee 57 11 56 7f 27 7f e9 3b
       -36 79 -4 33 -17 -78 115 -18 87 17 86 127 39 127 -23 59
000040 5c a2 fe 5a da d9 67 8a 0d 2a 99 1d db aa 7b 81
       92 -94 -2 90 -38 -39 103 -118 13 42 -103 29 -37 -86 123 -127
000050 81 b6 02 03 c3 cf 91 14 c2 d2 1c 81 13 c6 2c 34
       -127 -74 2 3 -61 -49 -111 20 -62 -46 28 -127 19 -58 44 52
000060 fc 0d 03 02 49 c4 0f f9 0d 1c 3c c9 e1 f8 a2 0c
       -4 13 3 2 73 -60 15 -7 13 28 60 -55 -31 -8 -94 12
000070 56 e8 e3 2b f6 fc d0 f2 1e 01 2a 89 ce 27 d3 c4
       86 -24 -29 43 -10 -4 -48 -14 30 1 42 -119 -50 39 -45 -60
000080 1d ff 5a 9b 0d cc a6 08 2d ee 0f cc f5 a4 9f e7
       29 -1 90 -101 13 -52 -90 8 45 -18 15 -52 -11 -92 -97 -25
000090 81 53 d4 c2 ff a6 13 fb 2c 12 0b 2f 3b 5c d3 3d
       -127 83 -44 -62 -1 -90 19 -5 44 18 11 47 59 92 -45 61
0000a0 7f 81 0d 5e dd ba b3 d5 81 f9 dd 0c fc 00 45 a5
       127 -127 13 94 -35 -70 -77 -43 -127 -7 -35 12 -4 0 69 -91
0000b0 b8 7f 82 c0 25 ba 1c 43 88 15 c3 2d ed ad f9 d9
       -72 127 -126 -64 37 -70 28 67 -120 21 -61 45 -19 -83 -7 -39
0000c0 0a 56 7f 7f cc 7f 81 7f 7f 81 9e 55 7f 56 7f 9d
       10 86 127 127 -52 127 -127 127 127 -127 -98 85 127 86 127 -99
0000d0 c9 9f 7f 10 81 7f 7f 02 6e 77 3d 7f 7f b7 7f 0a
       -55 -97 127 16 -127 127 127 2 110 119 61 127 127 -73 127 10
0000e0 e1 af f1 81 7f 7f 54 44 c8 7f e9 40 7f 34 f9 81
       -31 -81 -15 -127 127 127 84 68 -56 127 -23 64 127 52 -7 -127
0000f0 b1 4c be d3 c1 a8 16 e5 e3 08 6b 30 48 42 aa 7f
       -79 76 -66 -45 -63 -88 22 -27 -29 8 107 48 72 66 -86 127

model_1/block_4_project/Conv2D i1 [8, 1, 1, 48]
000000 30 34 a8 38 08 16 a0 dd 02 ed ff de f3 04 29 07
       48 52 -88 56 8 22 -96 -35 2 -19 -1 -34 -13 4 41 7
000010 35 ec 2e e7 12 d9 26 fc 0a e3 ec 0e ef fe f3 ff
       53 -20 46 -25 18 -39 38 -4 10 -29 -20 14 -17 -2 -13 -1
000020 31 14 1a 10 7f 39 1d e2 02 ec 01 e5 53 1b 17 cc
       49 20 26 16 127 57 29 -30 2 -20 1 -27 83 27 23 -52
000030 44 21 12 fb 15 53 ed e2 1a 42 dd b9 7c f6 05 3d
       68 33 18 -5 21 83 -19 -30 26 66 -35 -71 124 -10 5 61
000040 19 27 17 97 7f e3 1e 35 29 1c 25 0e 23 b8 3a 4e
       25 39 23 -105 127 -29 30 53 41 28 37 14 35 -72 58 78
000050 35 69 15 79 42 18 0d 10 5d 14 31 1c 19 26 7c ae
       53 105 21 121 66 24 13 16 93 20 49 28 25 38 124 -82
000060 e4 0f 40 7f e1 1e fa 42 25 4a 14 aa d1 5f 26 27
       -28 15 64 127 -31 30 -6 66 37 74 20 -86 -47 95 38 39
000070 ae a2 51 0a fb 43 d0 bb e6 e1 23 ff 89 1c 01 fb
       -82 -94 81 10 -5 67 -48 -69 -26 -31 35 -1 -119 28 1 -5
000080 ec f1 a1 d5 18 21 b5 e5 dc bb d3 2d 47 b2 e8 13
       -20 -15 -95 -43 24 33 -75 -27 -36 -69 -45 45 71 -78 -24 19
000090 e9 2f bc f7 11 b6 08 41 68 b7 d8 11 fc ea 05 3a
       -23 47 -68 -9 17 -74 8 65 104 -73 -40 17 -4 -22 5 58
0000a0 20 07 f1 e8 fd 14 aa 2a df e1 2b f2 3e e5 29 d4
       32 7 -15 -24 -3 20 -86 42 -33 -31 43 -14 62 -27 41 -44
0000b0 28 f5 e7 d2 81 f7 b0 1c e3 d0 28 f7 c6 0e f1 e6
       40 -11 -25 -46 -127 -9 -80 28 -29 -48 40 -9 -58 14 -15 -26
0000c0 3a e3 18 e4 cd 53 28 52 85 bd 37 26 4a bd bd b7
       58 -29 24 -28 -51 83 40 82 -123 -67 55 38 74 -67 -67 -73
0000d0 65 41 48 e6 0d 9f 00 33 e6 0b d1 81 bb bb 63 28
       101 65 72 -26 13 -97 0 51 -26 11 -47 -127 -69 -69 99 40
0000e0 5f 08 70 5e 4b 4d 4e 2e 00 20 b8 ee 61 5b 5c c0
       95 8 112 94 75 77 78 46 0 32 -72 -18 97 91 92 -64
0000f0 1e 51 18 5c 1a 19 cf a7 95 25 f5 fe 13 3b 31 bc
       30 81 24 92 26 25 -49 -89 -107 37 -11 -2 19 59 49 -68

model_1/block_5_expand/Conv2D i1 [48, 1, 1, 8]
000000 81 2a e2 f2 40 22 09 d5 01 c1 d9 e7 b7 81 08 1b
       -127 42 -30 -14 64 34 9 -43 1 -63 -39 -25 -73 -127 8 27
000010 cb 45 fd c3 da 31 ce 7f 45 36 35 ef d2 81 36 e8
       -53 69 -3 -61 -38 49 -50 127 69 54 53 -17 -46 -127 54 -24
000020 06 37 81 17 8a 5b 23 32 da 29 2a e3 9d 81 bb fc
       6 55 -127 23 -118 91 35 50 -38 41 42 -29 -99 -127 -69 -4
000030 c5 7f 65 d0 b1 eb 0a dc 00 05 24 3d 04 81 01 2e
       -59 127 101 -48 -79 -21 10 -36 0 5 36 61 4 -127 1 46
000040 7d 14 a4 62 b2 c3 81 fa 6b d9 c0 b0 03 e8 d8 7f
       125 20 -92 98 -78 -61 -127 -6 107 -39 -64 -80 3 -24 -40 127
000050 ab 08 02 7f 0e 50 16 98 16 0e 3c ed 0e 7f 7e 69
       -85 8 2 127 14 80 22 -104 22 14 60 -19 14 127 126 105
000060 b7 90 e6 95 7f e7 e1 3c eb 03 fb 25 0f 81 33 34
       -73 -112 -26 -107 127 -25 -31 60 -21 3 -5 37 15 -127 51 52
000070 57 5a 7f 19 43 89 b1 db c9 5c 7f 46 f2 10 3a b1
       87 90 127 25 67 -119 -79 -37 -55 92 127 70 -14 16 58 -79
000080 92 de 35 af 7f 02 cb 06 23 d8 d2 08 f8 7f e4 1e
       -110 -34 53 -81 127 2 -53 6 35 -40 -46 8 -8 127 -28 30
000090 e8 7f 51 c7 ae 21 52 a7 09 7c 4c 7f f1 1b 2b 1c
       -24 127 81 -57 -82 33 82 -89 9 124 76 127 -15 27 43 28
0000a0 fc 18 51 81 b6 00 5e e1 a8 4b 27 81 70 45 77 07
       -4 24 81 -127 -74 0 94 -31 -88 75 39 -127 112 69 119 7
0000b0 3d e7 a2 34 3c d2 ca 7f 18 a1 81 cb 39 fa b6 79
       61 -25 -94 52 60 -46 -54 127 24 -95 -127 -53 57 -6 -74 121
0000c0 1b fa b3 0c c3 18 81 73 f8 e7 35 04 7f f0 a9 d3
       27 -6 -77 12 -61 24 -127 115 -8 -25 53 4 127 -16 -87 -45
0000d0 10 61 7f de dd de 3e ce de 33 7f c5 0e 24 31 98
       16 97 127 -34 -35 -34 62 -50 -34 51 127 -59 14 36 49 -104
0000e0 36 f0 56 7f 4e e4 21 6f 42 3e 63 1e c9 20 81 5f
       54 -16 86 127 78 -28 33 111 66 62 99 30 -55 32 -127 95
0000f0 2d e9 97 32 81 c3 d5 4a 20 7b 7f 98 b1 30 74 82
       45 -23 -105 50 -127 -61 -43 74 32 123 127 -104 -79 48 116 -126

model_1/block_5_depthwise_BN/FusedBatchNormV3;model_1/block_5_depthwise/depthwise;model_1/block_6_expand/Conv2D i1 [1, 3, 3, 48]
000000 52 39 18 21 0a 08 d3 fe 17 9d 25 04 0f 8b d9 21
       82 57 24 33 10 8 -45 -2 23 -99 37 4 15 -117 -39 33
000010 4f 1a c3 06 71 01 f5 f9 4d 16 0e 09 d1 13 fd c4
       79 26 -61 6 113 1 -11 -7 77 22 14 9 -47 19 -3 -60
000020 7f 0b 5a 1f dc 0c 67 00 cd 4f 91 cf 1a b2 d9 f7
       127 11 90 31 -36 12 103 0 -51 79 -111 -49 26 -78 -39 -9
000030 6b 7f c4 4c 18 4d ba 81 2f 23 7f 2c fb f2 e8 f5
       107 127 -60 76 24 77 -70 -127 47 35 127 44 -5 -14 -24 -11
000040 b8 7f b4 1e 42 7f 2b eb 1f 03 ff 7f 81 5b e1 81
       -72 127 -76 30 66 127 43 -21 31 3 -1 127 -127 91 -31 -127
000050 0c e2 1f 3f aa 7f 7f 28 81 a5 39 fc 0a 1b 81 67
       12 -30 31 63 -86 127 127 40 -127 -91 57 -4 10 27 -127 103
000060 3a 29 d9 12 04 f6 d3 1f 22 91 23 0b 06 c2 f1 eb
       58 41 -39 18 4 -10 -45 31 34 -111 35 11 6 -62 -15 -21
000070 5b f5 e7 01 60 23 ed 2c 39 24 08 06 ea 0e e7 d6
       91 -11 -25 1 96 35 -19 44 57 36 8 6 -22 14 -25 -42
000080 74 0d 47 09 e7 25 70 11 cd 45 1e 46 1a 53 29 ee
       116 13 71 9 -25 37 112 17 -51 69 30 70 26 83 41 -18
000090 ed b8 a6 44 18 4a 44 d5 23 25 d6 7f 7f f3 dd ab
       -19 -72 -90 68 24 74 68 -43 35 37 -42 127 127 -13 -35 -85
0000a0 e2 50 50 f6 97 26 24 a7 24 2d 0f 12 13 59 08 27
       -30 80 80 -10 -105 38 36 -89 36 45 15 18 19 89 8 39
0000b0 37 7f 1c 2d a1 ff b9 4d 54 0c 65 9f 05 a4 f1 7f
       55 127 28 45 -95 -1 -71 77 84 12 101 -97 5 -92 -15 127
0000c0 39 83 af 81 77 11 7f a5 81 7f 05 4c 9b 7f 7f e8
       57 -125 -81 -127 119 17 127 -91 -127 127 5 76 -101 127 127 -24
0000d0 81 53 12 7f 26 05 7f ff 81 7f 21 bc c1 1c 81 58
       -127 83 18 127 38 5 127 -1 -127 127 33 -68 -63 28 -127 88
0000e0 77 ab 1f 64 7f 31 e9 7f 70 ba ff 02 6c ea fd 24
       119 -85 31 100 127 49 -23 127 112 -70 -1 2 108 -22 -3 36
0000f0 00 af 81 28 de 7f 33 e0 1c 2a dc 43 f5 fd e5 e5
       0 -81 -127 40 -34 127 51 -32 28 42 -36 67 -11 -3 -27 -27

model_1/block_5_project/Conv2D i1 [8, 1, 1, 48]
000000 7f ed 18 dd 22 34 03 24 76 a9 34 05 d2 3e 10 d0
       127 -19 24 -35 34 52 3 36 118 -87 52 5 -46 62 16 -48
000010 0e ea e0 ed 10 c8 04 e5 ce d5 d2 d8 dc 54 df 1f
       14 -22 -32 -19 16 -56 4 -27 -50 -43 -46 -40 -36 84 -33 31
000020 20 d2 0e e3 42 bc ce 07 16 ec b0 ff 37 d8 37 d6
       32 -46 14 -29 66 -68 -50 7 22 -20 -80 -1 55 -40 55 -42
000030 37 04 f6 37 3d 37 0f 23 4b ae fb 08 25 15 d9 ef
       55 4 -10 55 61 55 15 35 75 -82 -5 8 37 21 -39 -17
000040 d6 d8 b4 f6 0a ce 2e 49 02 b8 f8 26 e4 3d c1 7f
       -42 -40 -76 -10 10 -50 46 73 2 -72 -8 38 -28 61 -63 127
000050 eb 26 e7 e6 cd ef fb e8 cb e7 d4 29 1e f1 06 a8
       -21 38 -25 -26 -51 -17 -5 -24 -53 -25 -44 41 30 -15 6 -88
000060 e5 d9 a3 2a a1 ea f2 28 84 b9 b2 ec e6 31 81 fd
       -27 -39 -93 42 -95 -22 -14 40 -124 -71 -78 -20 -26 49 -127 -3
000070 45 a1 20 f2 76 5b ed 0b 33 6d 1f a2 ce fc 52 f9
       69 -95 32 -14 118 91 -19 11 51 109 31 -94 -50 -4 82 -7
000080 d6 3e 4e c1 33 05 4e 5e e3 73 39 fc bd 58 d9 58
       -42 62 78 -63 51 5 78 94 -29 115 57 -4 -67 88 -39 88
000090 07 e6 f4 22 f1 01 f3 27 50 67 81 e5 16 f4 e7 56
       7 -26 -12 34 -15 1 -13 39 80 103 -127 -27 22 -12 -25 86
0000a0 c9 eb f2 35 eb 0d 4c 0e 0a 06 d3 40 d8 1e cd df
       -55 -21 -14 53 -21 13 76 14 10 6 -45 64 -40 30 -51 -33
0000b0 0b 14 27 14 35 f5 2f ff c7 51 46 11 24 e3 e8 de
       11 20 39 20 53 -11 47 -1 -57 81 70 17 36 -29 -24 -34
0000c0 ea b7 17 d7 f7 5a cc c0 fa d5 50 2b be eb f3 1c
       -22 -73 23 -41 -9 90 -52 -64 -6 -43 80 43 -66 -21 -13 28
0000d0 3e 06 e9 29 ad e4 7f ed 98 f9 fd 13 13 df f5 48
       62 6 -23 41 -83 -28 127 -19 -104 -7 -3 19 19 -33 -11 72
0000e0 d3 30 e6 31 dd 25 f9 10 e0 27 e5 30 7d 48 f0 09
       -45 48 -26 49 -35 37 -7 16 -32 39 -27 48 125 72 -16 9
0000f0 bb b8 36 81 f5 1b d5 c0 fc 45 ca 40 b5 12 31 0b
       -69 -72 54 -127 -11 27 -43 -64 -4 69 -54 64 -75 18 49 11

model_1/block_6_expand/Conv2D i1 [48, 1, 1, 8]
000000 fc 12 7f ec ff 39 00 95 58 bc 40 ac ee b2 7f 25
       -4 18 127 -20 -1 57 0 -107 88 -68 64 -84 -18 -78 127 37
000010 38 2d 4d b0 c3 1e 7f ed 08 1e fd f0 17 b8 7f 00
       56 45 77 -80 -61 30 127 -19 8 30 -3 -16 23 -72 127 0
000020 7f db bf e3 9a ca de 47 1a 56 7f fa 15 d0 13 d5
       127 -37 -65 -29 -102 -54 -34 71 26 86 127 -6 21 -48 19 -43
000030 7a 6b de 7f ab 1e 12 60 ea fd f6 25 29 8f 81 d8
       122 107 -34 127 -85 30 18 96 -22 -3 -10 37 41 -113 -127 -40
000040 7c 4c ca 4e c8 15 81 cc 7f ed dd 2f ff d2 1e aa
       124 76 -54 78 -56 21 -127 -52 127 -19 -35 47 -1 -46 30 -86
000050 53 21 ed 16 dd 7f 22 0f 7f ee f0 83 73 b2 ce 45
       83 33 -19 22 -35 127 34 15 127 -18 -16 -125 115 -78 -50 69
000060 cf 6d 48 dc 06 43 a4 7f 7f 06 97 13 1b b1 0e 9e
       -49 109 72 -36 6 67 -92 127 127 6 -105 19 27 -79 14 -98
000070 66 19 02 f1 81 20 b1 f8 16 1e 8b e6 81 cd 60 5d
       102 25 2 -15 -127 32 -79 -8 22 30 -117 -26 -127 -51 96 93
000080 08 d4 62 06 7f d9 c2 df 1d f4 47 fb 7f cf ba fd
       8 -44 98 6 127 -39 -62 -33 29 -12 71 -5 127 -49 -70 -3
000090 70 d6 7f 3a e2 22 df fa 50 39 31 bd db 81 11 cc
       112 -42 127 58 -30 34 -33 -6 80 57 49 -67 -37 -127 17 -52
0000a0 2c dd 32 7f 12 b8 bb 49 62 f0 ac 81 42 c1 09 6c
       44 -35 50 127 18 -72 -69 73 98 -16 -84 -127 66 -63 9 108
0000b0 ca 91 ce c1 2e d7 7f b3 f6 1e 1e d4 93 81 00 e2
       -54 -111 -50 -63 46 -41 127 -77 -10 30 30 -44 -109 -127 0 -30
0000c0 7f 03 3c 35 ed e8 9f 4c 51 27 fd c2 e1 00 de 7f
       127 3 60 53 -19 -24 -97 76 81 39 -3 -62 -31 0 -34 127
0000d0 b4 e4 0e 81 78 03 d2 a7 6a 7f f1 d5 02 3a 14 06
       -76 -28 14 -127 120 3 -46 -89 106 127 -15 -43 2 58 20 6
0000e0 19 7f f8 02 02 cb f2 69 65 07 68 60 25 e5 81 42
       25 127 -8 2 2 -53 -14 105 101 7 104 96 37 -27 -127 66
0000f0 7f 93 b4 6f 2b 0f a8 65 65 b6 0b 3c b2 9e 81 2c
       127 -109 -76 111 43 15 -88 101 101 -74 11 60 -78 -98 -127 44

model_1/head/Conv2D i1 [32, 1, 1, 48]
000000 0c 2a 20 bd cc 16 0e 4f 0b f3 a7 b8 94 7c d6 52
       12 42 32 -67 -52 22 14 79 11 -13 -89 -72 -108 124 -42 82
000010 06 5e 17 0f e3 aa e3 26 55 a6 f3 7f 48 bd 50 0a
       6 94 23 15 -29 -86 -29 38 85 -90 -13 127 72 -67 80 10
000020 ad 55 1d c9 f3 13 a7 09 b0 f3 71 af 4f 00 bf 66
       -83 85 29 -55 -13 19 -89 9 -80 -13 113 -81 79 0 -65 102
000030 68 31 72 48 1c e7 f5 7f f6 20 a3 53 ba b2 28 bd
       104 49 114 72 28 -25 -11 127 -10 32 -93 83 -70 -78 40 -67
000040 00 04 19 07 6d 6a dd ea 1c 07 1d bb 54 2c f4 dc
       0 4 25 7 109 106 -35 -22 28 7 29 -69 84 44 -12 -36
000050 ec dd d8 de 3d d0 f1 f4 07 69 13 50 14 0c d6 4b
       -20 -35 -40 -34 61 -48 -15 -12 7 105 19 80 20 12 -42 75
000060 07 d1 a6 81 dc fa 4c fd 27 c8 d4 c8 3b 43 c1 98
       7 -47 -90 -127 -36 -6 76 -3 39 -56 -44 -56 59 67 -63 -104
000070 94 1d dc 17 a5 c9 13 1c c9 4b d1 ea e4 de ae 22
       -108 29 -36 23 -91 -55 19 28 -55 75 -47 -22 -28 -34 -82 34
000080 2f b2 35 06 ae 1f b8 3d 43 f0 6e 46 d1 e5 2d 13
       47 -78 53 6 -82 31 -72 61 67 -16 110 70 -47 -27 45 19
000090 c7 32 2e b2 63 3f 4f 41 65 11 31 d6 61 19 64 65
       -57 50 46 -78 99 63 79 65 101 17 49 -42 97 25 100 101
0000a0 81 42 e1 4c d2 46 c3 00 6d 4d a3 18 36 2d ea 65
       -127 66 -31 76 -46 70 -61 0 109 77 -93 24 54 45 -22 101
0000b0 a3 13 1d bf bb ee cb d3 c7 da d6 06 d5 b0 fc e8
       -93 19 29 -65 -69 -18 -53 -45 -57 -38 -42 6 -43 -80 -4 -24
0000c0 aa 07 56 ff 4b 0f f6 e3 29 4f b0 d2 a6 6b 29 b2
       -86 7 86 -1 75 15 -10 -29 41 79 -80 -46 -90 107 41 -78
0000d0 38 32 e5 c1 b1 55 98 f5 cf 8b 49 37 1b 9f 7f 2b
       56 50 -27 -63 -79 85 -104 -11 -49 -117 73 55 27 -97 127 43
0000e0 8b 2d ce d7 66 fa 8a b3 78 73 ab 91 01 65 e9 da
       -117 45 -50 -41 102 -6 -118 -77 120 115 -85 -111 1 101 -23 -38
0000f0 b0 44 d3 d0 20 dd e5 36 03 c1 3c 23 c2 21 61 61
       -80 68 -45 -48 32 -35 -27 54 3 -63 60 35 -62 33 97 97

model_1/logits/Conv2D i1 [3, 1, 1, 32]
000000 d9 7b f0 ea 3b bc cf aa 59 d8 cf 87 26 60 b9 06
       -39 123 -16 -22 59 -68 -49 -86 89 -40 -49 -121 38 96 -71 6
000010 b0 d7 d0 17 f6 ac 48 dd 28 22 2f f7 05 67 d3 7f
       -80 -41 -48 23 -10 -84 72 -35 40 34 47 -9 5 103 -45 127
000020 66 a9 ad 06 1c 30 9a 9b c2 7f 53 0a 6d 58 03 c1
       102 -87 -83 6 28 48 -102 -101 -62 127 83 10 109 88 3 -63
000030 72 14 89 ac 73 ff 0f 31 b3 4f f2 e9 48 fb c3 d9
       114 20 -119 -84 115 -1 15 49 -77 79 -14 -23 72 -5 -61 -39
000040 e7 85 5f 65 e7 49 a1 27 e5 24 86 64 09 c1 64 2f
       -25 -123 95 101 -25 73 -95 39 -27 36 -122 100 9 -63 100 47
000050 58 93 81 5c 13 1b fe 37 8c c9 02 f3 1a 4d d3 3a
       88 -109 -127 92 19 27 -2 55 -116 -55 2 -13 26 77 -45 58
