src/lib/libtf/models/duis_mug.tflite (tflite, 40968 bytes, 21 tensors)

model_1/Conv1/Conv2D i1 [8, 3, 3, 3]
10 -3 13 9 -23 31 13 -23
22 41 30 28 67 19 60 25
-32 39 -20 -92 -12 -29 -127 0
-7 -55 18 30 76 23 5 9
-3 -32 -69 -27 53 123 38 2
1 -4 -55 -127 -40 29 46 11
4 0 0 -33 -52 -4 43 92
10 54 127 12 17 43 -2 -47
-83 -29 -80 -93 -39 -30 -6 -21
1 11 6 5 17 0 1 12
-7 46 -28 -14 79 -33 -37 33
-13 -10 80 -52 -34 127 -51 -71
61 -25 -26 20 -18 -3 42 -25
-14 17 -8 0 -11 -22 -3 28
46 11 -15 -28 -3 -27 -58 -8
64 127 20 -33 -60 -6 -8 -12
4 22 25 -2 -11 -12 -1 -39
-64 -34 -55 -87 -51 -44 -30 -23
-60 -106 -49 -83 -127 -63 -49 -37
-29 -5 0 -17 -7 -5 -13 -6
7 -5 -99 -6 36 1 19 -13
64 17 -19 -127 -35 45 12 19
-26 106 15 -31 -51 -14 18 14
-9 -1 33 -14 30 -6 16 -2
-16 22 -7 -7 21 -8 17 84
-6 22 127 -23 -3 60 -27 -29
-51 -21 -43 -53 -33 -21 3 -20
00000000: 0afd 0d09 e91f 0de9 1629 1e1c 4313 3c19
00000010: e027 eca4 f4e3 8100 f9c9 121e 4c17 0509
00000020: fde0 bbe5 357b 2602 01fc c981 d81d 2e0b
00000030: 0400 00df ccfc 2b5c 0a36 7f0c 112b fed1
00000040: ade3 b0a3 d9e2 faeb 010b 0605 1100 010c
00000050: f92e e4f2 4fdf db21 f3f6 50cc de7f cdb9
00000060: 3de7 e614 eefd 2ae7 f211 f800 f5ea fd1c
00000070: 2e0b f1e4 fde5 c6f8 407f 14df c4fa f8f4
00000080: 0416 19fe f5f4 ffd9 c0de c9a9 cdd4 e2e9
00000090: c496 cfad 81c1 cfdb e3fb 00ef f9fb f3fa
000000a0: 07fb 9dfa 2401 13f3 4011 ed81 dd2d 0c13
000000b0: e66a 0fe1 cdf2 120e f7ff 21f2 1efa 10fe
000000c0: f016 f9f9 15f8 1154 fa16 7fe9 fd3c e5e3
000000d0: cdeb d5cb dfeb 03ec

model_1/expanded_conv_depthwise_BN/FusedBatchNormV3;model_1/expanded_conv_depthwise/depthwise;model_1/block_5_project/Conv2D i1 [1, 3, 3, 8]
-20 -4 6 -1 0 27 -9 -1
9 0 5 -7 12 127 5 127
1 1 7 -8 0 16 -3 8
5 -127 -4 4 -14 -7 -113 -1
-127 101 -80 127 -127 -7 127 -35
8 0 -2 -64 -9 1 47 -20
15 -2 4 -3 1 -23 -1 0
52 1 127 -21 14 -112 -4 12
5 1 -4 -7 -1 -20 -9 0
00000000: ecfc 06ff 001b f7ff 0900 05f9 0c7f 057f
00000010: 0101 07f8 0010 fd08 0581 fc04 f2f9 8fff
00000020: 8165 b07f 81f9 7fdd 0800 fec0 f701 2fec
00000030: 0ffe 04fd 01e9 ff00 3401 7feb 0e90 fc0c
00000040: 0501 fcf9 ffec f700

model_1/expanded_conv_project/Conv2D i1 [8, 1, 1, 8]
-10 -13 -20 14 -9 -127 8 37
-59 26 -127 127 7 60 -23 44
10 -10 27 -3 -12 -127 9 28
23 50 49 127 13 -36 -44 -13
17 60 19 -17 -127 -5 28 -9
62 -24 127 -97 19 -58 -6 -42
31 127 49 -37 41 -14 -68 -19
-24 -28 -45 -19 -12 -127 24 41
00000000: f6f3 ec0e f781 0825 c51a 817f 073c e92c
00000010: 0af6 1bfd f481 091c 1732 317f 0ddc d4f3
00000020: 113c 13ef 81fb 1cf7 3ee8 7f9f 13c6 fad6
00000030: 1f7f 31db 29f2 bced e8e4 d3ed f481 1829

model_1/block_1_expand/Conv2D i1 [48, 1, 1, 8]
8 50 7 -16 92 -24 127 -1
127 96 69 24 -5 -52 -2 123
-61 12 -2 127 10 -17 -33 55
54 -38 -127 -5 -5 -43 19 127
-126 86 -127 -10 21 24 -35 -43
126 -19 -5 -48 -1 -33 7 -127
7 -10 -1 2 -127 -25 55 7
-2 -62 -4 0 -24 3 -127 -3
-9 20 41 -13 127 21 -71 -16
127 -36 30 3 -4 -31 41 106
127 4 -4 -37 0 11 3 -127
-55 4 -5 127 -1 -47 -38 32
-127 2 -73 -17 14 105 -59 -119
110 3 127 10 -8 22 22 48
-127 -7 14 13 1 -13 8 124
-124 8 -3 127 3 -4 -21 120
72 -76 127 78 -10 -115 41 64
13 -52 -88 127 -3 19 -13 120
15 -28 -124 48 -22 -2 33 127
21 16 -11 127 -6 2 -68 -47
19 49 104 -116 12 -68 14 -127
4 -5 -4 1 -127 -11 56 4
0 54 -1 -9 2 127 -12 2
115 26 -10 98 -4 -1 -44 -127
-127 33 -100 -45 29 -53 -48 -70
-52 -9 -57 -48 4 -127 9 -40
-108 -25 -127 8 8 6 -20 -31
98 5 127 20 -6 46 19 45
7 -60 -22 38 26 -127 2 13
-5 -9 26 -127 -15 -7 20 -1
-45 8 127 -2 1 4 -7 -117
-2 9 6 2 127 27 -48 0
00000000: 0832 07f0 5ce8 7fff 7f60 4518 fbcc fe7b
00000010: c30c fe7f 0aef df37 36da 81fb fbd5 137f
00000020: 8256 81f6 1518 ddd5 7eed fbd0 ffdf 0781
00000030: 07f6 ff02 81e7 3707 fec2 fc00 e803 81fd
00000040: f714 29f3 7f15 b9f0 7fdc 1e03 fce1 296a
00000050: 7f04 fcdb 000b 0381 c904 fb7f ffd1 da20
00000060: 8102 b7ef 0e69 c589 6e03 7f0a f816 1630
00000070: 81f9 0e0d 01f3 087c 8408 fd7f 03fc eb78
00000080: 48b4 7f4e f68d 2940 0dcc a87f fd13 f378
00000090: 0fe4 8430 eafe 217f 1510 f57f fa02 bcd1
000000a0: 1331 688c 0cbc 0e81 04fb fc01 81f5 3804
000000b0: 0036 fff7 027f f402 731a f662 fcff d481
000000c0: 8121 9cd3 1dcb d0ba ccf7 c7d0 0481 09d8
000000d0: 94e7 8108 0806 ece1 6205 7f14 fa2e 132d
000000e0: 07c4 ea26 1a81 020d fbf7 1a81 f1f9 14ff
000000f0: d308 7ffe 0104 f98b fe09 0602 7f1b d000

model_1/block_1_depthwise_BN/FusedBatchNormV3;model_1/block_1_depthwise/depthwise;model_1/block_6_expand/Conv2D i1 [1, 3, 3, 48]
105 -33 -71 -99 18 -103 68 -69
83 23 93 53 -94 60 57 -119
65 -87 6 -40 -127 -60 36 109
-13 73 -11 59 -127 -26 84 -76
-47 -59 50 80 -127 49 112 80
-53 -127 -59 36 -64 -32 5 -82
84 -48 79 127 79 39 121 -127
-76 96 60 74 1 57 62 118
66 -84 -103 -59 80 -92 51 1
116 127 -35 76 8 63 79 -57
45 112 127 127 -95 41 82 -27
85 25 -39 97 127 114 -5 -11
24 -17 3 -37 32 57 19 -90
-4 44 -76 39 89 -13 -61 -1
23 -26 105 -15 33 3 -84 -93
19 10 -6 26 36 75 36 13
-6 -43 30 31 -23 12 18 -59
-64 106 10 79 -56 -77 -2 75
121 70 -127 12 -83 -127 74 -74
109 -72 127 -94 88 97 127 124
-49 112 -15 -86 107 -85 49 127
0 -10 -35 13 -54 85 68 -127
-127 -68 -16 35 -20 111 127 127
-61 -79 -127 56 0 -28 -127 -127
127 127 118 -25 -127 17 127 -120
-127 -127 88 -127 36 127 104 -127
-42 127 127 -127 -69 -127 73 -36
80 4 -127 64 14 127 127 -120
113 127 -24 12 -27 127 108 -42
127 -7 -64 127 -7 127 121 43
24 55 3 10 -35 84 24 -82
-9 -96 -77 -68 -127 -4 -70 1
00000000: 69df b99d 1299 44bb 5317 5d35 a23c 3989
00000010: 41a9 06d8 81c4 246d f349 f53b 81e6 54b4
00000020: d1c5 3250 8131 7050 cb81 c524 c0e0 05ae
00000030: 54d0 4f7f 4f27 7981 b460 3c4a 0139 3e76
00000040: 42ac 99c5 50a4 3301 747f dd4c 083f 4fc7
00000050: 2d70 7f7f a129 52e5 5519 d961 7f72 fbf5
00000060: 18ef 03db 2039 13a6 fc2c b427 59f3 c3ff
00000070: 17e6 69f1 2103 aca3 130a fa1a 244b 240d
00000080: fad5 1e1f e90c 12c5 c06a 0a4f c8b3 fe4b
00000090: 7946 810c ad81 4ab6 6db8 7fa2 5861 7f7c
000000a0: cf70 f1aa 6bab 317f 00f6 dd0d ca55 4481
000000b0: 81bc f023 ec6f 7f7f c3b1 8138 00e4 8181
000000c0: 7f7f 76e7 8111 7f88 8181 5881 247f 6881
000000d0: d67f 7f81 bb81 49dc 5004 8140 0e7f 7f88
000000e0: 717f e80c e57f 6cd6 7ff9 c07f f97f 792b
000000f0: 1837 030a dd54 18ae f7a0 b3bc 81fc ba01

model_1/block_1_project/Conv2D i1 [8, 1, 1, 48]
-26 39 -29 0 -47 -23 -81 24
10 21 39 37 38 5 -42 13
-46 44 11 -62 32 42 -127 4
-5 13 -35 45 -6 -10 24 19
17 -23 37 18 1 112 -66 -15
-10 22 -26 28 7 5 21 -2
-76 -102 -58 6 85 -30 -127 58
-23 -36 -8 -75 -21 77 3 -8
117 -125 -9 -15 -61 3 2 -20
21 -7 -27 -53 24 -12 -119 -25
23 -59 -83 -97 42 5 -94 -4
5 37 7 83 -12 10 3 42
6 -69 8 60 118 18 101 -6
-36 -31 -14 -51 3 -28 20 34
-33 -95 46 -59 5 -71 -61 9
-70 60 71 -98 -39 -6 -57 -45
20 3 -70 -53 -7 127 76 -41
-12 12 -29 -74 46 35 49 -26
10 4 20 -16 31 23 23 -94
28 23 -9 10 5 -115 -20 0
-25 13 -16 -3 -6 49 -127 8
17 -99 36 30 49 -15 -34 54
-1 11 -2 -30 -103 -47 11 -13
-4 -5 39 2 -16 4 -2 -56
33 -56 7 76 58 10 -26 -7
-37 -13 22 -33 77 38 -23 29
-46 -67 68 36 37 -57 127 26
-36 9 -54 -13 -9 18 -83 -41
86 -30 -45 -70 -48 -49 -25 -1
-67 100 -4 -7 59 86 45 23
-66 -21 -39 51 -3 9 -2 -48
-64 -39 -7 -25 16 37 -73 13
00000000: e627 e300 d1e9 af18 0a15 2725 2605 d60d
00000010: d22c 0bc2 202a 8104 fb0d dd2d faf6 1813
00000020: 11e9 2512 0170 bef1 f616 e61c 0705 15fe
00000030: b49a c606 55e2 813a e9dc f8b5 eb4d 03f8
00000040: 7583 f7f1 c303 02ec 15f9 e5cb 18f4 89e7
00000050: 17c5 ad9f 2a05 a2fc 0525 0753 f40a 032a
00000060: 06bb 083c 7612 65fa dce1 f2cd 03e4 1422
00000070: dfa1 2ec5 05b9 c309 ba3c 479e d9fa c7d3
00000080: 1403 bacb f97f 4cd7 f40c e3b6 2e23 31e6
00000090: 0a04 14f0 1f17 17a2 1c17 f70a 058d ec00
000000a0: e70d f0fd fa31 8108 119d 241e 31f1 de36
000000b0: ff0b fee2 99d1 0bf3 fcfb 2702 f004 fec8
000000c0: 21c8 074c 3a0a e6f9 dbf3 16df 4d26 e91d
000000d0: d2bd 4424 25c7 7f1a dc09 caf3 f712 add7
000000e0: 56e2 d3ba d0cf e7ff bd64 fcf9 3b56 2d17
000000f0: beeb d933 fd09 fed0 c0d9 f9e7 1025 b70d

model_1/block_2_expand/Conv2D i1 [48, 1, 1, 8]
-121 -17 28 -116 -127 118 5 -65
74 7 16 -20 2 58 -127 44
-51 51 -99 90 -54 127 15 56
97 -26 -27 71 2 -72 9 127
-81 -7 -6 14 -20 -35 127 2
54 120 25 43 -127 -51 10 -38
-5 -63 38 127 13 -90 -17 38
123 -5 101 2 -74 30 70 127
-39 -127 43 51 82 -31 -32 9
-76 -104 21 -28 -27 3 -47 127
-36 -127 28 99 54 108 3 -17
-126 -125 25 -74 64 61 -40 127
88 -15 90 -76 22 -127 91 -6
39 15 21 127 -15 19 40 -66
-42 -12 36 5 127 -13 3 127
-94 127 47 91 72 113 -60 104
7 -31 -69 -127 -67 62 24 51
18 127 6 57 -26 -41 -4 17
25 42 -11 -127 -54 -85 31 -25
29 -65 -127 -109 -78 98 16 0
24 5 14 -2 127 25 29 -36
-127 -84 -69 -79 39 35 48 -10
-72 -47 85 127 52 -45 -45 126
19 32 -52 127 118 24 30 102
125 -2 -127 -17 -6 -19 43 -48
2 -9 -46 -20 73 -24 -127 -59
127 10 104 -33 -87 51 65 123
12 -57 -38 127 39 -4 -31 -107
-59 127 79 71 59 -19 -28 0
-1 1 48 6 -68 5 127 61
-62 -77 49 -66 -74 127 57 49
111 21 94 -27 -99 79 87 127
00000000: 87ef 1c8c 8176 05bf 4a07 10ec 023a 812c
00000010: cd33 9d5a ca7f 0f38 61e6 e547 02b8 097f
00000020: aff9 fa0e ecdd 7f02 3678 192b 81cd 0ada
00000030: fbc1 267f 0da6 ef26 7bfb 6502 b61e 467f
00000040: d981 2b33 52e1 e009 b498 15e4 e503 d17f
00000050: dc81 1c63 366c 03ef 8283 19b6 403d d87f
00000060: 58f1 5ab4 1681 5bfa 270f 157f f113 28be
00000070: d6f4 2405 7ff3 037f a27f 2f5b 4871 c468
00000080: 07e1 bb81 bd3e 1833 127f 0639 e6d7 fc11
00000090: 192a f581 caab 1fe7 1dbf 8193 b262 1000
000000a0: 1805 0efe 7f19 1ddc 81ac bbb1 2723 30f6
000000b0: b8d1 557f 34d3 d37e 1320 cc7f 7618 1e66
000000c0: 7dfe 81ef faed 2bd0 02f7 d2ec 49e8 81c5
000000d0: 7f0a 68df a933 417b 0cc7 da7f 27fc e195
000000e0: c57f 4f47 3bed e400 ff01 3006 bc05 7f3d
000000f0: c2b3 31be b67f 3931 6f15 5ee5 9d4f 577f

model_1/block_2_depthwise_BN/FusedBatchNormV3;model_1/block_2_depthwise/depthwise;model_1/block_6_expand/Conv2D i1 [1, 3, 3, 48]
-76 52 -40 -50 -10 -21 18 -11
-1 -14 4 41 0 -99 -92 20
127 -6 53 38 -90 -65 102 -91
-12 -53 -7 98 -8 10 23 127
-16 -16 -12 2 -14 -49 -9 18
117 -87 -49 46 68 -112 -37 0
-20 -127 38 -127 -4 -20 -66 127
71 -79 20 42 20 -127 -125 5
-38 8 -39 -78 -71 8 72 127
9 -9 10 127 27 -8 1 -101
-103 17 -5 -22 127 -122 54 -9
0 -111 -64 31 92 72 37 -29
-33 -5 21 -28 -5 35 18 64
-8 12 -1 31 28 32 -96 23
61 7 -39 16 -118 46 63 27
-12 70 3 -48 -16 0 2 -39
-50 -3 1 9 -29 127 -16 11
85 -53 11 -35 51 37 -47 -8
-34 -22 -114 -14 -32 19 -1 5
33 -60 -5 -108 -25 -57 -127 120
103 0 127 77 -10 127 127 104
10 -62 -38 8 47 -41 27 -103
12 -30 -50 -6 1 -101 44 19
89 127 -34 -14 -68 127 49 -29
-127 50 127 111 127 -120 -127 -8
-15 -127 -127 -127 127 -26 -22 33
3 -127 -112 -127 127 -5 -78 -84
127 -41 127 -55 127 127 -38 73
-127 -127 127 -127 88 -82 -127 -127
27 114 -115 17 -127 -71 127 127
-19 0 13 17 39 127 -18 53
67 9 48 -51 -10 -19 -79 -21
00000000: b434 d8ce f6eb 12f5 fff2 0429 009d a414
00000010: 7ffa 3526 a6bf 66a5 f4cb f962 f80a 177f
00000020: f0f0 f402 f2cf f712 75a9 cf2e 4490 db00
00000030: ec81 2681 fcec be7f 47b1 142a 1481 8305
00000040: da08 d9b2 b908 487f 09f7 0a7f 1bf8 019b
00000050: 9911 fbea 7f86 36f7 0091 c01f 5c48 25e3
00000060: dffb 15e4 fb23 1240 f80c ff1f 1c20 a017
00000070: 3d07 d910 8a2e 3f1b f446 03d0 f000 02d9
00000080: cefd 0109 e37f f00b 55cb 0bdd 3325 d1f8
00000090: deea 8ef2 e013 ff05 21c4 fb94 e7c7 8178
000000a0: 6700 7f4d f67f 7f68 0ac2 da08 2fd7 1b99
000000b0: 0ce2 cefa 019b 2c13 597f def2 bc7f 31e3
000000c0: 8132 7f6f 7f88 81f8 f181 8181 7fe6 ea21
000000d0: 0381 9081 7ffb b2ac 7fd7 7fc9 7f7f da49
000000e0: 8181 7f81 58ae 8181 1b72 8d11 81b9 7f7f
000000f0: ed00 0d11 277f ee35 4309 30cd f6ed b1eb

model_1/block_2_project/Conv2D i1 [8, 1, 1, 48]
-22 -5 -10 -29 -63 -15 -2 -18
65 7 11 -5 12 18 -18 7
-28 13 -17 -19 3 12 -22 5
20 -5 84 8 -19 -78 -14 14
-2 30 127 -7 -20 -44 28 -40
23 8 -7 -16 -16 -2 -18 -82
24 -34 -9 69 2 -6 17 37
73 81 43 -54 -57 79 3 5
-8 -28 19 -26 -62 42 -45 30
91 17 -30 32 28 -4 127 25
-14 -40 -30 2 -11 12 -25 -13
3 -18 9 23 -8 36 32 28
-72 3 -84 105 -64 -76 30 -66
-86 45 53 -91 -19 -16 -40 -3
118 29 -76 -48 -73 -29 -48 12
86 -36 118 -4 81 -17 -67 20
-2 -24 43 -10 -56 22 2 -101
55 -78 -63 -127 -17 -72 -72 93
29 -55 13 -37 32 -24 -10 -72
45 -65 2 -27 -88 -74 -15 8
15 -11 36 -37 -6 29 -83 -1
79 -41 53 14 8 -7 -4 -30
-33 33 26 -29 -51 30 -4 -11
127 23 -45 33 -52 48 -7 -47
18 3 12 11 4 31 -11 -11
45 18 9 -44 -2 3 -63 19
-1 16 22 -16 -28 27 4 40
34 1 -30 10 47 -14 -13 22
-6 -3 29 16 -127 1 48 10
14 -10 -2 17 -30 51 -24 -97
-42 -90 28 111 -31 -10 -52 99
-99 84 48 34 -79 17 67 -36
00000000: eafb f6e3 c1f1 feee 4107 0bfb 0c12 ee07
00000010: e40d efed 030c ea05 14fb 5408 edb2 f20e
00000020: fe1e 7ff9 ecd4 1cd8 1708 f9f0 f0fe eeae
00000030: 18de f745 02fa 1125 4951 2bca c74f 0305
00000040: f8e4 13e6 c22a d31e 5b11 e220 1cfc 7f19
00000050: f2d8 e202 f50c e7f3 03ee 0917 f824 201c
00000060: b803 ac69 c0b4 1ebe aa2d 35a5 edf0 d8fd
00000070: 761d b4d0 b7e3 d00c 56dc 76fc 51ef bd14
00000080: fee8 2bf6 c816 029b 37b2 c181 efb8 b85d
00000090: 1dc9 0ddb 20e8 f6b8 2dbf 02e5 a8b6 f108
000000a0: 0ff5 24db fa1d adff 4fd7 350e 08f9 fce2
000000b0: df21 1ae3 cd1e fcf5 7f17 d321 cc30 f9d1
000000c0: 1203 0c0b 041f f5f5 2d12 09d4 fe03 c113
000000d0: ff10 16f0 e41b 0428 2201 e20a 2ff2 f316
000000e0: fafd 1d10 8101 300a 0ef6 fe11 e233 e89f
000000f0: d6a6 1c6f e1f6 cc63 9d54 3022 b111 43dc

model_1/block_3_expand/Conv2D i1 [48, 1, 1, 8]
-25 66 -48 58 32 127 29 27
46 -127 -89 -35 -39 60 57 -29
-42 46 -42 -120 -42 -127 -35 -71
-17 127 63 24 -4 -74 -32 31
-110 44 -127 92 5 -17 -57 -66
99 -105 -127 33 7 -16 84 -42
-15 -90 -64 10 -127 -51 -50 87
-23 -38 -10 -36 44 8 -31 127
21 21 -94 -91 47 -30 -127 -81
-127 53 -9 97 -8 63 97 4
-31 -9 83 -127 -22 56 19 32
105 -20 100 33 -47 44 85 127
63 41 31 -56 76 118 100 -127
37 54 -36 65 -13 -127 -43 60
10 -127 -24 -31 11 68 33 -29
-94 -7 -3 -62 55 127 -70 -25
5 -31 105 7 -20 22 127 69
69 20 53 29 -15 -83 -42 -127
-121 18 -83 -23 -12 -127 22 -88
61 32 116 -14 -57 52 127 126
19 127 48 -12 18 40 44 6
-31 35 31 -100 -59 127 3 -18
25 5 76 -6 -44 25 127 90
-73 123 52 39 -111 -87 -126 127
-9 -15 96 25 -115 127 -13 -83
-45 21 76 23 -127 41 -75 20
-37 -127 30 -41 15 37 -4 -18
-26 70 40 57 -24 127 -33 -16
20 -126 55 29 60 127 44 31
16 127 -26 25 -73 -59 -20 22
-47 71 110 93 -127 -68 -50 -109
18 67 24 56 -54 -10 14 -127
00000000: e742 d03a 207f 1d1b 2e81 a7dd d93c 39e3
00000010: d62e d688 d681 ddb9 ef7f 3f18 fcb6 e01f
00000020: 922c 815c 05ef c7be 6397 8121 07f0 54d6
00000030: f1a6 c00a 81cd ce57 e9da f6dc 2c08 e17f
00000040: 1515 a2a5 2fe2 81af 8135 f761 f83f 6104
00000050: e1f7 5381 ea38 1320 69ec 6421 d12c 557f
00000060: 3f29 1fc8 4c76 6481 2536 dc41 f381 d53c
00000070: 0a81 e8e1 0b44 21e3 a2f9 fdc2 377f bae7
00000080: 05e1 6907 ec16 7f45 4514 351d f1ad d681
00000090: 8712 ade9 f481 16a8 3d20 74f2 c734 7f7e
000000a0: 137f 30f4 1228 2c06 e123 1f9c c57f 03ee
000000b0: 1905 4cfa d419 7f5a b77b 3427 91a9 827f
000000c0: f7f1 6019 8d7f f3ad d315 4c17 8129 b514
000000d0: db81 1ed7 0f25 fcee e646 2839 e87f dff0
000000e0: 1482 371d 3c7f 2c1f 107f e619 b7c5 ec16
000000f0: d147 6e5d 81bc ce93 1243 1838 caf6 0e81

model_1/block_3_depthwise_BN/FusedBatchNormV3;model_1/block_3_depthwise/depthwise;model_1/block_6_expand/Conv2D i1 [1, 3, 3, 48]
-52 -62 -62 -86 -57 30 -33 -71
-54 49 31 -101 -24 17 -89 78
86 -83 -69 105 55 66 -46 107
-86 -57 70 58 61 -76 79 53
47 -53 -50 -33 -110 -62 127 71
-35 -6 21 82 115 78 -36 -44
-78 -98 -87 -127 -127 17 -84 -106
-66 84 71 -113 -70 82 -118 108
103 -108 -112 -12 92 90 94 122
-75 -88 105 91 95 -94 97 83
74 -94 -78 -64 -116 -82 120 91
-93 -55 62 96 111 118 -93 -94
-19 -41 -53 -65 -73 21 -42 -50
-47 50 45 -52 -26 68 -70 45
62 -31 -38 -54 65 -127 -43 42
-28 -32 59 27 55 -37 45 41
40 -44 -33 -33 -91 -33 25 42
-42 -43 31 47 47 50 -27 -27
-79 -85 -85 -88 -103 -16 -61 -84
-88 91 61 -97 -53 50 -127 93
108 -99 -87 118 83 94 -52 111
-126 -79 81 101 91 -93 94 69
77 -89 -93 -64 -111 -84 105 100
-95 -54 53 85 127 116 -60 -72
-127 -127 -127 -117 -120 -127 -127 -127
-127 127 127 -127 -127 127 -103 127
127 -127 -127 -61 127 100 127 127
-127 -127 127 127 127 -127 127 127
127 -127 -127 -127 -127 -127 115 127
-127 -127 127 127 119 127 -127 -127
-55 -49 -81 -78 -100 -112 -73 -75
-62 79 67 -69 -54 84 -76 62
00000000: ccc2 c2aa c71e dfb9 ca31 1f9b e811 a74e
00000010: 56ad bb69 3742 d26b aac7 463a 3db4 4f35
00000020: 2fcb cedf 92c2 7f47 ddfa 1552 734e dcd4
00000030: b29e a981 8111 ac96 be54 478f ba52 8a6c
00000040: 6794 90f4 5c5a 5e7a b5a8 695b 5fa2 6153
00000050: 4aa2 b2c0 8cae 785b a3c9 3e60 6f76 a3a2
00000060: edd7 cbbf b715 d6ce d132 2dcc e644 ba2d
00000070: 3ee1 daca 4181 d52a e4e0 3b1b 37db 2d29
00000080: 28d4 dfdf a5df 192a d6d5 1f2f 2f32 e5e5
00000090: b1ab aba8 99f0 c3ac a85b 3d9f cb32 815d
000000a0: 6c9d a976 535e cc6f 82b1 5165 5ba3 5e45
000000b0: 4da7 a3c0 91ac 6964 a1ca 3555 7f74 c4b8
000000c0: 8181 818b 8881 8181 817f 7f81 817f 997f
000000d0: 7f81 81c3 7f64 7f7f 8181 7f7f 7f81 7f7f
000000e0: 7f81 8181 8181 737f 8181 7f7f 777f 8181
000000f0: c9cf afb2 9c90 b7b5 c24f 43bb ca54 b43e

model_1/block_3_project/Conv2D i1 [8, 1, 1, 48]
-27 20 6 29 -22 12 -1 30
-45 -8 -41 -4 -19 16 38 0
-51 -23 33 -19 -26 127 -21 -22
-25 -39 2 34 -33 35 12 -23
-9 19 35 41 17 3 32 -27
1 -33 -18 -10 -22 20 22 15
9 52 0 48 30 33 44 112
-49 -46 75 -33 -39 -31 25 -25
-17 -2 34 3 29 -127 -6 -69
12 15 -17 10 -9 9 -36 -56
-40 3 18 -13 17 63 65 -19
26 19 36 -31 -33 39 7 45
0 25 0 29 28 16 -27 35
19 14 62 21 4 -12 32 -54
24 24 -12 9 -13 127 7 -13
23 -40 -6 -2 -26 32 -21 -58
-18 12 17 -41 31 -11 -41 -28
27 -17 -11 -48 -34 32 15 18
-42 55 -3 1 -22 40 65 0
4 5 9 19 -13 36 49 22
-19 3 9 1 43 -78 -12 25
-20 -1 -127 33 -35 -31 -7 11
-40 -15 16 33 35 -14 -37 -32
-2 -16 15 22 24 -6 40 17
18 -1 -41 5 16 -8 18 -11
-49 8 -4 20 2 -11 -19 12
-28 34 -13 -6 2 -127 -8 -7
33 31 30 -42 46 -7 2 10
-14 45 28 -7 -23 16 -6 4
-12 -59 -83 21 31 31 -1 -10
-13 55 93 4 -3 34 26 -103
77 -37 -21 3 94 -71 1 15
00000000: e514 061d ea0c ff1e d3f8 d7fc ed10 2600
00000010: cde9 21ed e67f ebea e7d9 0222 df23 0ce9
00000020: f713 2329 1103 20e5 01df eef6 ea14 160f
00000030: 0934 0030 1e21 2c70 cfd2 4bdf d9e1 19e7
00000040: effe 2203 1d81 fabb 0c0f ef0a f709 dcc8
00000050: d803 12f3 113f 41ed 1a13 24e1 df27 072d
00000060: 0019 001d 1c10 e523 130e 3e15 04f4 20ca
00000070: 1818 f409 f37f 07f3 17d8 fafe e620 ebc6
00000080: ee0c 11d7 1ff5 d7e4 1bef f5d0 de20 0f12
00000090: d637 fd01 ea28 4100 0405 0913 f324 3116
000000a0: ed03 0901 2bb2 f419 ecff 8121 dde1 f90b
000000b0: d8f1 1021 23f2 dbe0 fef0 0f16 18fa 2811
000000c0: 12ff d705 10f8 12f5 cf08 fc14 02f5 ed0c
000000d0: e422 f3fa 0281 f8f9 211f 1ed6 2ef9 020a
000000e0: f22d 1cf9 e910 fa04 f4c5 ad15 1f1f fff6
000000f0: f337 5d04 fd22 1a99 4ddb eb03 5eb9 010f

model_1/block_4_expand/Conv2D i1 [48, 1, 1, 8]
69 -98 43 -6 46 -127 -11 -84
-40 -51 -70 55 -127 56 -33 14
59 -49 60 -24 127 -31 2 77
-14 127 -10 104 16 3 -47 -35
-28 127 72 -38 41 20 -64 16
-92 30 6 10 127 -27 78 -14
127 -67 124 2 36 117 92 -30
-29 -52 47 54 85 21 -60 127
25 -21 -29 -96 -13 127 -84 13
-127 28 -84 -6 101 -45 -57 7
-17 -74 50 24 -35 -84 -127 -84
45 89 -25 -8 -30 -80 32 127
51 -46 -105 53 -88 127 62 91
-39 -27 -127 20 -83 76 22 41
-64 127 -89 82 87 42 -17 82
-81 -12 -11 -5 83 77 -67 -127
78 -127 -89 -30 -52 100 -44 -22
13 127 -111 -50 -71 24 66 -112
-68 -113 32 28 127 -65 -34 77
-73 106 -22 48 11 -106 -127 53
88 -22 44 -73 -8 -63 25 127
74 -48 127 124 -43 122 103 -16
-37 111 2 1 127 -74 -110 -64
30 -47 23 127 1 -53 69 -26
-35 54 127 -62 -18 -30 13 -27
-50 -116 98 66 33 -5 -31 127
65 -18 -127 -86 -98 43 30 105
34 127 -104 -52 -37 15 36 -113
-31 57 -61 -89 -12 -45 -127 -35
-103 52 -127 -53 115 42 -41 -5
84 -51 9 -19 -115 100 127 63
-57 75 -38 83 127 -64 -10 4
00000000: 459e 2bfa 2e81 f5ac d8cd ba37 8138 df0e
00000010: 3bcf 3ce8 7fe1 024d f27f f668 1003 d1dd
00000020: e47f 48da 2914 c010 a41e 060a 7fe5 4ef2
00000030: 7fbd 7c02 2475 5ce2 e3cc 2f36 5515 c47f
00000040: 19eb e3a0 f37f ac0d 811c acfa 65d3 c707
00000050: efb6 3218 ddac 81ac 2d59 e7f8 e2b0 207f
00000060: 33d2 9735 a87f 3e5b d9e5 8114 ad4c 1629
00000070: c07f a752 572a ef52 aff4 f5fb 534d bd81
00000080: 4e81 a7e2 cc64 d4ea 0d7f 91ce b918 4290
00000090: bc8f 201c 7fbf de4d b76a ea30 0b96 8135
000000a0: 58ea 2cb7 f8c1 197f 4ad0 7f7c d57a 67f0
000000b0: db6f 0201 7fb6 92c0 1ed1 177f 01cb 45e6
000000c0: dd36 7fc2 eee2 0de5 ce8c 6242 21fb e17f
000000d0: 41ee 81aa 9e2b 1e69 227f 98cc db0f 248f
000000e0: e139 c3a7 f4d3 81dd 9934 81cb 732a d7fb
000000f0: 54cd 09ed 8d64 7f3f c74b da53 7fc0 f604

model_1/block_4_depthwise_BN/FusedBatchNormV3;model_1/block_4_depthwise/depthwise;model_1/block_6_expand/Conv2D i1 [1, 3, 3, 48]
-104 -5 56 -17 -127 16 -127 -4
-15 127 65 7 -37 68 14 38
24 23 26 8 -116 -15 6 47
-36 4 -13 -69 22 -114 81 38
-12 21 47 -34 14 -127 -31 114
-66 40 -13 -9 -15 4 11 -14
16 -124 -5 16 -62 21 -115 -11
34 44 127 70 -98 -73 -103 -44
5 -46 121 118 22 58 -85 13
-78 -11 1 -127 8 -73 -30 -127
-9 12 -49 -127 -23 -4 10 86
127 -14 -18 127 3 -127 9 -36
-127 18 52 -4 -105 19 -73 -5
-10 107 -8 -16 -51 68 15 69
-47 -11 18 -19 -109 -27 32 19
3 -23 8 -46 -43 -127 46 -10
5 9 -51 -31 12 -88 13 88
-61 31 -15 5 -2 10 12 41
57 -47 43 -7 -83 10 44 -22
-70 64 44 32 -74 -46 -70 113
-31 -1 58 127 0 53 -94 -14
-42 -104 -23 -62 127 25 35 122
-127 -4 108 7 -7 38 -118 -127
49 -21 15 10 -127 41 4 -50
114 -70 -127 -127 60 127 -4 127
-127 -82 -28 127 -78 -127 -127 -127
-9 -127 -74 65 127 127 -98 80
-127 68 -114 87 -58 -48 -127 -95
13 127 -127 113 -127 -48 127 -48
-58 127 -127 -68 95 76 -127 -74
52 -36 98 -4 -46 -26 16 -31
-43 29 0 -23 -46 -73 -67 113
00000000: 98fb 38ef 8110 81fc f17f 4107 db44 0e26
00000010: 1817 1a08 8cf1 062f dc04 f3bb 168e 5126
00000020: f415 2fde 0e81 e172 be28 f3f7 f104 0bf2
00000030: 1084 fb10 c215 8df5 222c 7f46 9eb7 99d4
00000040: 05d2 7976 163a ab0d b2f5 0181 08b7 e281
00000050: f70c cf81 e9fc 0a56 7ff2 ee7f 0381 09dc
00000060: 8112 34fc 9713 b7fb f66b f8f0 cd44 0f45
00000070: d1f5 12ed 93e5 2013 03e9 08d2 d581 2ef6
00000080: 0509 cde1 0ca8 0d58 c31f f105 fe0a 0c29
00000090: 39d1 2bf9 ad0a 2cea ba40 2c20 b6d2 ba71
000000a0: e1ff 3a7f 0035 a2f2 d698 e9c2 7f19 237a
000000b0: 81fc 6c07 f926 8a81 31eb 0f0a 8129 04ce
000000c0: 72ba 8181 3c7f fc7f 81ae e47f b281 8181
000000d0: f781 b641 7f7f 9e50 8144 8e57 c6d0 81a1
000000e0: 0d7f 8171 81d0 7fd0 c67f 81bc 5f4c 81b6
000000f0: 34dc 62fc d2e6 10e1 d51d 00e9 d2b7 bd71

model_1/block_4_project/Conv2D i1 [8, 1, 1, 48]
127 -23 -16 -17 -23 -94 -37 -16
50 -38 -61 -31 -31 75 -58 8
5 -12 3 7 34 -36 11 9
49 7 4 34 11 56 -40 -99
19 -58 2 -35 30 -47 -7 30
-66 -29 -32 -42 -81 -90 3 -27
-81 1 91 -59 51 43 44 24
-21 24 -10 100 25 -25 -127 -46
-90 -81 35 -12 -1 80 -53 -1
14 -102 30 92 30 -30 40 36
38 44 3 31 -68 -30 14 11
4 -25 -95 20 -23 -56 -91 25
93 48 -20 -65 -52 3 -44 -80
35 30 -86 -44 -12 62 -65 44
-5 81 9 17 52 49 -3 1
-127 14 28 -63 -1 33 37 -88
12 -35 27 21 -52 -51 12 29
-119 -112 -28 -57 -45 -95 42 7
22 0 19 28 -95 -24 -4 46
-28 -63 -6 74 10 -22 -74 -50
-30 25 4 -61 -39 127 20 -48
28 46 49 -44 21 19 7 27
33 19 12 -6 42 59 23 -2
35 -26 22 -46 -11 14 20 36
-55 9 -127 6 -9 92 17 33
-28 126 34 58 14 -79 -25 33
-23 -8 -15 25 -10 37 -73 21
11 -2 56 -8 45 -71 122 85
54 57 1 -57 -90 10 2 -19
47 16 29 41 47 33 18 63
-34 -5 36 -15 56 -75 -34 -29
-34 -59 7 -32 36 -1 -18 5
00000000: 7fe9 f0ef e9a2 dbf0 32da c3e1 e14b c608
00000010: 05f4 0307 22dc 0b09 3107 0422 0b38 d89d
00000020: 13c6 02dd 1ed1 f91e bee3 e0d6 afa6 03e5
00000030: af01 5bc5 332b 2c18 eb18 f664 19e7 81d2
00000040: a6af 23f4 ff50 cbff 0e9a 1e5c 1ee2 2824
00000050: 262c 031f bce2 0e0b 04e7 a114 e9c8 a519
00000060: 5d30 ecbf cc03 d4b0 231e aad4 f43e bf2c
00000070: fb51 0911 3431 fd01 810e 1cc1 ff21 25a8
00000080: 0cdd 1b15 cccd 0c1d 8990 e4c7 d3a1 2a07
00000090: 1600 131c a1e8 fc2e e4c1 fa4a 0aea b6ce
000000a0: e219 04c3 d97f 14d0 1c2e 31d4 1513 071b
000000b0: 2113 0cfa 2a3b 17fe 23e6 16d2 f50e 1424
000000c0: c909 8106 f75c 1121 e47e 223a 0eb1 e721
000000d0: e9f8 f119 f625 b715 0bfe 38f8 2db9 7a55
000000e0: 3639 01c7 a60a 02ed 2f10 1d29 2f21 123f
000000f0: defb 24f1 38b5 dee3 dec5 07e0 24ff ee05

model_1/block_5_expand/Conv2D i1 [48, 1, 1, 8]
-19 -52 -36 105 10 -77 -76 -127
127 -24 34 -22 27 -76 3 32
-16 53 5 -127 16 103 -73 71
-17 127 -49 -89 -93 -5 24 -81
-1 -60 -99 -44 22 -78 -71 -127
-42 -92 83 56 13 127 31 -125
8 17 -50 36 8 16 -127 -52
28 -24 7 28 -53 59 127 61
1 48 -89 -19 -40 -127 -63 65
66 -2 -52 -28 0 127 -37 110
-20 57 67 127 95 107 -11 -42
-24 -49 -5 30 -127 63 -18 -17
-23 37 83 -57 62 -98 -127 -53
57 24 -102 -121 -19 -68 -62 127
-44 -127 14 -73 -5 -79 27 -119
11 73 63 100 91 127 -9 -23
36 13 -30 -127 51 96 -71 87
-92 88 -127 30 23 108 -94 39
-127 56 25 -13 -86 13 -17 8
127 3 -40 -28 87 -74 75 -89
127 -67 57 -30 -74 37 77 3
22 -38 -26 32 -10 26 127 25
104 34 -127 -101 20 125 66 124
-30 33 -42 -88 39 5 -127 5
127 -61 -98 -27 106 -74 17 35
-30 -82 76 -54 75 127 -21 -117
23 -74 50 34 127 -57 -59 -77
-33 -127 71 83 20 -14 -42 119
-17 44 -108 -40 91 -108 -28 127
-88 37 127 -86 28 -42 37 40
118 -87 78 -22 -76 -127 68 -34
28 28 52 -3 -31 -5 -127 7
00000000: edcc dc69 0ab3 b481 7fe8 22ea 1bb4 0320
00000010: f035 0581 1067 b747 ef7f cfa7 a3fb 18af
00000020: ffc4 9dd4 16b2 b981 d6a4 5338 0d7f 1f83
00000030: 0811 ce24 0810 81cc 1ce8 071c cb3b 7f3d
00000040: 0130 a7ed d881 c141 42fe cce4 007f db6e
00000050: ec39 437f 5f6b f5d6 e8cf fb1e 813f eeef
00000060: e925 53c7 3e9e 81cb 3918 9a87 edbc c27f
00000070: d481 0eb7 fbb1 1b89 0b49 3f64 5b7f f7e9
00000080: 240d e281 3360 b957 a458 811e 176c a227
00000090: 8138 19f3 aa0d ef08 7f03 d8e4 57b6 4ba7
000000a0: 7fbd 39e2 b625 4d03 16da e620 f61a 7f19
000000b0: 6822 819b 147d 427c e221 d6a8 2705 8105
000000c0: 7fc3 9ee5 6ab6 1123 e2ae 4cca 4b7f eb8b
000000d0: 17b6 3222 7fc7 c5b3 df81 4753 14f2 d677
000000e0: ef2c 94d8 5b94 e47f a825 7faa 1cd6 2528
000000f0: 76a9 4eea b481 44de 1c1c 34fd e1fb 8107

model_1/block_5_depthwise_BN/FusedBatchNormV3;model_1/block_5_depthwise/depthwise;model_1/block_6_expand/Conv2D i1 [1, 3, 3, 48]
86 93 59 22 -5 -82 35 32
-80 -4 -47 55 60 7 -3 10
46 -53 85 71 62 -15 6 19
-23 -71 70 11 -41 -74 31 38
40 -92 14 34 -39 41 -17 -127
-1 -102 -36 -11 26 -127 74 -127
127 22 75 -93 63 74 48 -51
-127 -96 -3 127 15 -62 -127 23
-10 97 59 47 42 76 94 40
127 -57 -25 -127 -127 -51 -127 127
36 -105 -83 127 24 -91 -92 -102
17 127 -72 29 -35 -88 96 10
63 8 37 -80 -13 -60 38 23
-74 -3 -8 31 34 19 40 -2
-50 6 58 47 -35 -40 -69 1
-21 -62 -53 -30 -44 -99 5 13
61 -56 32 28 -54 -57 -7 -83
3 -32 106 -22 12 -116 35 -68
85 5 31 61 55 72 10 -127
108 -127 -118 -60 20 45 -64 127
-127 95 50 70 2 95 79 -37
-34 116 84 20 32 -25 -90 55
74 115 -71 52 -76 0 -7 -75
-11 -60 29 -91 61 -19 50 -10
10 127 -127 74 127 74 -127 13
115 -36 -19 71 -127 127 -37 8
39 -127 -127 -4 127 34 127 -127
-98 85 -56 -7 11 -35 48 -18
127 -35 120 -72 98 -127 127 115
127 76 -109 -1 121 38 -127 -7
30 -1 17 -127 58 55 22 -85
127 -59 -127 -18 21 28 -63 97
00000000: 565d 3b16 fbae 2320 b0fc d137 3c07 fd0a
00000010: 2ecb 5547 3ef1 0613 e9b9 460b d7b6 1f26
00000020: 28a4 0e22 d929 ef81 ff9a dcf5 1a81 4a81
00000030: 7f16 4ba3 3f4a 30cd 81a0 fd7f 0fc2 8117
00000040: f661 3b2f 2a4c 5e28 7fc7 e781 81cd 817f
00000050: 2497 ad7f 18a5 a49a 117f b81d dda8 600a
00000060: 3f08 25b0 f3c4 2617 b6fd f81f 2213 28fe
00000070: ce06 3a2f ddd8 bb01 ebc2 cbe2 d49d 050d
00000080: 3dc8 201c cac7 f9ad 03e0 6aea 0c8c 23bc
00000090: 5505 1f3d 3748 0a81 6c81 8ac4 142d c07f
000000a0: 815f 3246 025f 4fdb de74 5414 20e7 a637
000000b0: 4a73 b934 b400 f9b5 f5c4 1da5 3ded 32f6
000000c0: 0a7f 814a 7f4a 810d 73dc ed47 817f db08
000000d0: 2781 81fc 7f22 7f81 9e55 c8f9 0bdd 30ee
000000e0: 7fdd 78b8 6281 7f73 7f4c 93ff 7926 81f9
000000f0: 1eff 1181 3a37 16ab 7fc5 81ee 151c c161

model_1/block_5_project/Conv2D i1 [8, 1, 1, 48]
17 31 37 34 -3 -28 51 44
6 20 -12 -16 46 -29 51 -15
-53 -33 -127 -9 36 -33 24 49
8 -14 39 -6 -13 -47 13 29
-48 52 46 7 44 74 -55 -52
4 18 -97 -44 31 18 -24 -57
-17 -38 4 69 -24 0 -5 -16
8 14 -22 -48 -2 -10 12 2
40 22 63 -39 4 23 21 -55
-1 -12 -30 -27 -38 8 -13 -3
-27 -32 -105 79 20 19 -127 -20
19 -14 68 21 106 -24 -35 50
-10 7 36 -40 -30 -24 -7 127
-50 91 -50 -6 127 -14 52 -17
-62 -69 0 40 -10 -18 20 -5
4 55 8 52 19 11 83 28
-66 -20 28 72 11 70 70 -123
45 32 -43 -30 15 29 -1 -6
24 -6 -127 -23 17 -9 49 -33
-19 -24 -1 19 -44 -51 43 20
17 52 3 33 -50 21 -62 -5
-36 -69 31 2 -66 -53 -62 19
80 40 -42 14 -58 -2 24 -12
34 -63 -24 20 48 -40 36 -17
8 39 -2 -2 24 -3 -68 -117
-35 17 -18 79 9 -25 1 60
42 48 -85 3 27 8 -24 -6
38 -9 5 -6 -22 12 0 -30
18 -21 -127 27 -34 -1 37 42
-30 -31 73 37 11 -49 11 8
-55 -38 111 15 88 21 65 -12
-127 -3 -109 -20 -85 -82 62 89
00000000: 111f 2522 fde4 332c 0614 f4f0 2ee3 33f1
00000010: cbdf 81f7 24df 1831 08f2 27fa f3d1 0d1d
00000020: d034 2e07 2c4a c9cc 0412 9fd4 1f12 e8c7
00000030: efda 0445 e800 fbf0 080e ead0 fef6 0c02
00000040: 2816 3fd9 0417 15c9 fff4 e2e5 da08 f3fd
00000050: e5e0 974f 1413 81ec 13f2 4415 6ae8 dd32
00000060: f607 24d8 e2e8 f97f ce5b cefa 7ff2 34ef
00000070: c2bb 0028 f6ee 14fb 0437 0834 130b 531c
00000080: beec 1c48 0b46 4685 2d20 d5e2 0f1d fffa
00000090: 18fa 81e9 11f7 31df ede8 ff13 d4cd 2b14
000000a0: 1134 0321 ce15 c2fb dcbb 1f02 becb c213
000000b0: 5028 d60e c6fe 18f4 22c1 e814 30d8 24ef
000000c0: 0827 fefe 18fd bc8b dd11 ee4f 09e7 013c
000000d0: 2a30 ab03 1b08 e8fa 26f7 05fa ea0c 00e2
000000e0: 12eb 811b deff 252a e2e1 4925 0bcf 0b08
000000f0: c9da 6f0f 5815 41f4 81fd 93ec abae 3e59

model_1/block_6_expand/Conv2D i1 [48, 1, 1, 8]
20 -29 -63 13 -127 8 -53 -5
-127 43 121 14 -104 -27 7 -3
13 67 -39 23 -62 -127 -22 75
-67 33 -19 127 7 -37 -69 -32
13 -10 44 -127 -14 20 -123 24
59 127 -59 -46 -31 -15 34 -109
58 -47 45 100 -39 -127 -2 -90
41 114 -60 -59 -58 -23 20 -127
1 -28 49 -4 12 9 -50 -127
-90 -5 -98 20 -127 -86 -86 -21
91 11 108 -35 -127 6 104 111
127 -29 -77 13 59 9 -68 2
-28 -101 127 12 24 5 -71 66
26 -57 66 -13 20 -127 42 -104
-118 48 127 8 -23 -75 49 -43
20 127 -31 -53 -51 -5 36 -93
34 99 -56 67 -8 -38 -19 127
36 84 -15 87 -56 94 -127 43
71 -25 127 -35 85 -113 6 -24
16 -3 1 127 36 -32 -29 -72
9 21 -34 45 -12 59 -127 9
15 2 40 27 29 127 40 -44
76 -127 -23 72 -76 79 17 32
-41 -115 -1 -107 -6 -72 -7 -127
15 28 -12 -68 -35 -127 -40 55
58 74 127 12 6 18 -48 3
-111 40 127 -47 -87 -20 93 -8
-75 47 -31 -97 31 127 -14 92
21 -107 60 56 48 13 -36 127
-127 55 94 -43 -126 6 109 -38
99 -106 21 62 -127 -23 41 -96
49 86 47 -29 -98 -18 15 127
00000000: 14e3 c10d 8108 cbfb 812b 790e 98e5 07fd
00000010: 0d43 d917 c281 ea4b bd21 ed7f 07db bbe0
00000020: 0df6 2c81 f214 8518 3b7f c5d2 e1f1 2293
00000030: 3ad1 2d64 d981 fea6 2972 c4c5 c6e9 1481
00000040: 01e4 31fc 0c09 ce81 a6fb 9e14 81aa aaeb
00000050: 5b0b 6cdd 8106 686f 7fe3 b30d 3b09 bc02
00000060: e49b 7f0c 1805 b942 1ac7 42f3 1481 2a98
00000070: 8a30 7f08 e9b5 31d5 147f e1cb cdfb 24a3
00000080: 2263 c843 f8da ed7f 2454 f157 c85e 812b
00000090: 47e7 7fdd 558f 06e8 10fd 017f 24e0 e3b8
000000a0: 0915 de2d f43b 8109 0f02 281b 1d7f 28d4
000000b0: 4c81 e948 b44f 1120 d78d ff95 fab8 f981
000000c0: 0f1c f4bc dd81 d837 3a4a 7f0c 0612 d003
000000d0: 9128 7fd1 a9ec 5df8 b52f e19f 1f7f f25c
000000e0: 1595 3c38 300d dc7f 8137 5ed5 8206 6dda
000000f0: 6396 153e 81e9 29a0 3156 2fe3 9eee 0f7f

model_1/head/Conv2D i1 [32, 1, 1, 48]
38 46 47 -61 -53 30 -23 90
-9 -17 -96 -66 -87 99 -70 81
59 111 5 22 -16 -77 -15 31
105 -90 -13 127 74 -84 60 22
-64 109 47 -40 -6 34 -75 3
-78 -23 93 -50 90 1 -65 123
58 -5 62 29 14 -86 -2 104
20 48 -92 48 -127 -87 15 -90
-71 -53 1 -43 85 69 -103 -81
32 -21 -44 -81 74 34 -33 -79
-100 -101 -109 -94 24 -83 -60 0
-15 95 -19 16 24 -10 -53 24
-8 -79 -89 -123 -53 5 66 -8
18 -59 -78 -63 45 71 -82 -127
-99 33 -57 23 -105 -65 21 17
-83 65 -54 -54 -35 -45 -97 27
44 -81 44 -7 -90 13 -68 63
52 -45 114 71 -76 -17 44 19
-87 111 75 -64 117 120 59 88
84 37 60 -37 116 25 121 127
-98 91 -34 110 -51 89 -79 1
121 95 -78 37 67 54 -59 124
-81 48 24 -92 -71 -55 -64 -44
-91 -23 -44 8 -52 -83 -37 -17
-81 40 99 7 81 26 -37 -26
33 80 -87 -38 -54 96 42 -85
100 62 -25 -60 -74 98 -97 -21
-19 -102 107 60 32 -99 117 49
-93 65 -35 -33 112 0 -103 -80
127 113 -88 -90 3 106 -27 -24
-83 116 -31 -39 39 -10 -63 69
-32 -73 67 53 -63 8 112 114
00000000: 262e 2fc3 cb1e e95a f7ef a0be a963 ba51
00000010: 3b6f 0516 f0b3 f11f 69a6 f37f 4aac 3c16
00000020: c06d 2fd8 fa22 b503 b2e9 5dce 5a01 bf7b
00000030: 3afb 3e1d 0eaa fe68 1430 a430 81a9 0fa6
00000040: b9cb 01d5 5545 99af 20eb d4af 4a22 dfb1
00000050: 9c9b 93a2 18ad c400 f15f ed10 18f6 cb18
00000060: f8b1 a785 cb05 42f8 12c5 b2c1 2d47 ae81
00000070: 9d21 c717 97bf 1511 ad41 caca ddd3 9f1b
00000080: 2caf 2cf9 a60d bc3f 34d3 7247 b4ef 2c13
00000090: a96f 4bc0 7578 3b58 5425 3cdb 7419 797f
000000a0: 9e5b de6e cd59 b101 795f b225 4336 c57c
000000b0: af30 18a4 b9c9 c0d4 a5e9 d408 ccad dbef
000000c0: af28 6307 511a dbe6 2150 a9da ca60 2aab
000000d0: 643e e7c4 b662 9feb ed9a 6b3c 209d 7531
000000e0: a341 dddf 7000 99b0 7f71 a8a6 036a e5e8
000000f0: ad74 e1d9 27f6 c145 e0b7 4335 c108 7072

model_1/logits/Conv2D i1 [3, 1, 1, 32]
-72 127 -56 2 105 -76 -91 -113
82 -17 -17 -114 82 65 -62 -35
-42 -2 -119 65 15 -115 87 -81
-15 34 92 -34 22 66 -65 115
104 -48 -87 13 28 56 -102 -49
-59 127 88 26 111 92 12 -49
108 9 -92 -83 122 2 21 59
-64 78 -8 -19 78 23 -55 -23
1 -90 103 116 13 85 -127 71
-43 37 -119 112 20 -71 113 64
103 -84 -87 103 24 24 8 63
-109 -52 -22 -18 33 87 -52 67
00000000: b87f c802 69b4 a58f 52ef ef8e 5241 c2dd
00000010: d6fe 8941 0f8d 57af f122 5cde 1642 bf73
00000020: 68d0 a90d 1c38 9acf c57f 581a 6f5c 0ccf
00000030: 6c09 a4ad 7a02 153b c04e f8ed 4e17 c9e9
00000040: 01a6 6774 0d55 8147 d525 8970 14b9 7140
00000050: 67ac a967 1818 083f 93cc eaee 2157 cc43
