src/lib/libtf/models/flash.tflite (tflite, 236544 bytes, 54 tensors)

sequential/model/Conv1/Conv2D i1 [8, 3, 3, 3]
00000000: 0afd 0d09 e91f 0de8 1529 1e1c 4313 3b19
00000010: df27 eca4 f4e3 8100 f9c9 121e 4b18 0509
00000020: fee0 bbe5 347a 2701 00fd c881 d81c 2d0b
00000030: 03ff 00df cbfd 2b5c 0a35 7f0c 102b ffd0
00000040: ace3 aea2 d9e1 faeb 000a 0604 10ff 000b
00000050: f92d e2f0 4edd d91f f0f4 50c9 db7f cab6
00000060: 3be4 e313 ebfc 29e4 f00f f5fe f4e9 fc1b
00000070: 2d0a f1e4 fce4 c5f7 407f 13de c3f9 f7f3
00000080: 0315 19fd f5f3 fedf c5e2 caab d0d4 e2ea
00000090: c698 d5ac 81c5 ced9 e4ff 04f6 fcfe fafc
000000a0: 0901 9dfb 2302 14f3 4111 ec81 de2c 0e15
000000b0: e56c 10e0 cdf3 110f f9fe 22f3 1efa 10fe
000000c0: f016 f9f9 15f8 1154 fa16 7fe9 fd3c e5e4
000000d0: cdec d5cc dfec 04ed
10 -3 13 9 -23 31 13 -24
21 41 30 28 67 19 59 25
-33 39 -20 -92 -12 -29 -127 0
-7 -55 18 30 75 24 5 9
-2 -32 -69 -27 52 122 39 1
0 -3 -56 -127 -40 28 45 11
3 -1 0 -33 -53 -3 43 92
10 53 127 12 16 43 -1 -48
-84 -29 -82 -94 -39 -31 -6 -21
0 10 6 4 16 -1 0 11
-7 45 -30 -16 78 -35 -39 31
-16 -12 80 -55 -37 127 -54 -74
59 -28 -29 19 -21 -4 41 -28
-16 15 -11 -2 -12 -23 -4 27
45 10 -15 -28 -4 -28 -59 -9
64 127 19 -34 -61 -7 -9 -13
3 21 25 -3 -11 -13 -2 -33
-59 -30 -54 -85 -48 -44 -30 -22
-58 -104 -43 -84 -127 -59 -50 -39
-28 -1 4 -10 -4 -2 -6 -4
9 1 -99 -5 35 2 20 -13
65 17 -20 -127 -34 44 14 21
-27 108 16 -32 -51 -13 17 15
-7 -2 34 -13 30 -6 16 -2
-16 22 -7 -7 21 -8 17 84
-6 22 127 -23 -3 60 -27 -28
-51 -20 -43 -52 -33 -20 4 -19

sequential/model/expanded_conv_depthwise_BN/FusedBatchNormV3;sequential/model/expanded_conv_depthwise/depthwise;sequential/model/block_9_project/Conv2D i1 [1, 3, 3, 8]
00000000: eafb 03ff fe1b fdfd 0cff 03f9 0a7f 0b7f
00000010: 0300 04f8 ff10 0208 0681 f803 f1fa 91fb
00000020: 8164 b37f 81f8 7fd8 0bff fdbf fa01 32e9
00000030: 12fe 01fc ffea 03fd 3aff 7fea 0d8f 000a
00000040: 0900 faf8 feec fb00
-22 -5 3 -1 -2 27 -3 -3
12 -1 3 -7 10 127 11 127
3 0 4 -8 -1 16 2 8
6 -127 -8 3 -15 -6 -111 -5
-127 100 -77 127 -127 -8 127 -40
11 -1 -3 -65 -6 1 50 -23
18 -2 1 -4 -1 -22 3 -3
58 -1 127 -22 13 -113 0 10
9 0 -6 -8 -2 -20 -5 0

sequential/model/expanded_conv_project/Conv2D i1 [8, 1, 1, 8]
00000000: f5f3 eb0d f781 0926 c318 8178 083d ed28
00000010: 09f6 18fc f781 0c1a 1833 347f 10d7 d5f3
00000020: 1038 15ee 81f9 19fa 3de8 7f99 12c6 f9d3
00000030: 1e7f 2fdb 26f3 bdec eae5 d6f0 f381 152a
-11 -13 -21 13 -9 -127 9 38
-61 24 -127 120 8 61 -19 40
9 -10 24 -4 -9 -127 12 26
24 51 52 127 16 -41 -43 -13
16 56 21 -18 -127 -7 25 -6
61 -24 127 -103 18 -58 -7 -45
30 127 47 -37 38 -13 -67 -20
-22 -27 -42 -16 -13 -127 21 42

sequential/model/block_1_expand/Conv2D i1 [48, 1, 1, 8]
00000000: 0b34 05ed 5de8 7ffd 7f54 4a0f f5d6 fd79
00000010: c00b fe7f 09ef dc3b 31df 8100 00d5 1877
00000020: 8751 81f0 101b d9d4 7fef fbd1 ffe0 0981
00000030: 06f9 fc01 81e6 3804 fcc4 fc01 e702 81fe
00000040: f419 22f9 7f0f c4ed 7fdb 1b00 fae1 286e
00000050: 7f06 fbdb fe0a 0084 cd01 fe7f fed4 dd22
00000060: 81fd b3ee 1171 c682 7306 7f0d f915 182f
00000070: 81fa 0e10 00f2 077d 810c 017e 00fa e87d
00000080: 42b8 7f4c f38a 2343 10c8 b07f 0118 f973
00000090: 12e0 882c ee00 247f 1810 f57f f803 b9d3
000000a0: 1236 708d 09b8 0a81 04fd fa00 81f3 3802
000000b0: 0138 fef6 037f f501 781a f860 fd00 d481
000000c0: 8119 a5d3 16d6 d0c3 d1fa c5d5 0781 0bd4
000000d0: 9aea 8109 0b04 edde 6304 7f12 f82f 102a
000000e0: 06c1 ea25 1a81 020e faf7 1a81 f1f9 14fe
000000f0: d505 7ffb ff06 f88a ff0a 0400 7f19 cdff
11 52 5 -19 93 -24 127 -3
127 84 74 15 -11 -42 -3 121
-64 11 -2 127 9 -17 -36 59
49 -33 -127 0 0 -43 24 119
-121 81 -127 -16 16 27 -39 -44
127 -17 -5 -47 -1 -32 9 -127
6 -7 -4 1 -127 -26 56 4
-4 -60 -4 1 -25 2 -127 -2
-12 25 34 -7 127 15 -60 -19
127 -37 27 0 -6 -31 40 110
127 6 -5 -37 -2 10 0 -124
-51 1 -2 127 -2 -44 -35 34
-127 -3 -77 -18 17 113 -58 -126
115 6 127 13 -7 21 24 47
-127 -6 14 16 0 -14 7 125
-127 12 1 126 0 -6 -24 125
66 -72 127 76 -13 -118 35 67
16 -56 -80 127 1 24 -7 115
18 -32 -120 44 -18 0 36 127
24 16 -11 127 -8 3 -71 -45
18 54 112 -115 9 -72 10 -127
4 -3 -6 0 -127 -13 56 2
1 56 -2 -10 3 127 -11 1
120 26 -8 96 -3 0 -44 -127
-127 25 -91 -45 22 -42 -48 -61
-47 -6 -59 -43 7 -127 11 -44
-102 -22 -127 9 11 4 -19 -34
99 4 127 18 -8 47 16 42
6 -63 -22 37 26 -127 2 14
-6 -9 26 -127 -15 -7 20 -2
-43 5 127 -5 -1 6 -8 -118
-1 10 4 0 127 25 -51 -1

sequential/model/block_1_depthwise_BN/FusedBatchNormV3;sequential/model/block_1_depthwise/depthwise;sequential/model/block_10_depthwise/depthwise i1 [1, 3, 3, 48]
00000000: 6edc b9a2 179b 41ca 4518 5c31 a03c 3789
00000010: 48a3 03d7 81c7 256d f946 fa42 81e0 58b0
00000020: d3c2 2f52 8131 704f d281 c22e bddd 07ae
00000030: 53c8 4d7f 5824 7985 b062 3945 0138 3b77
00000040: 4aa5 97c5 59a1 3401 717f df53 0634 50ce
00000050: 3170 7f7f a32f 48e5 5618 db69 7f6d fcf6
00000060: 16ea 03d7 2536 15a7 f42e aa23 5bf4 bdff
00000070: 1ce1 61ec 2602 aca7 1607 fa1f 2145 2408
00000080: fcd3 1e23 ec0b 0fc6 c769 0e52 c5b2 fe4c
00000090: 7f47 8110 ae81 46c0 60b8 7fa1 5a5a 7f7e
000000a0: d36f f3ab 74b0 317f fcf8 de13 c74f 4181
000000b0: 81b8 eb1b f265 7f7f cbb0 8136 fde5 8181
000000c0: 7e7f 72eb 810c 7f81 8181 5581 257f 6581
000000d0: da7f 7f81 bd81 4adc 4806 8147 0a7f 7f98
000000e0: 777f e205 eb7f 60d6 7ff9 c87f f67f 7b2c
000000f0: 1737 0209 e04e 1bab f6a2 a8bb 81fd b301
110 -36 -71 -94 23 -101 65 -54
69 24 92 49 -96 60 55 -119
72 -93 3 -41 -127 -57 37 109
-7 70 -6 66 -127 -32 88 -80
-45 -62 47 82 -127 49 112 79
-46 -127 -62 46 -67 -35 7 -82
83 -56 77 127 88 36 121 -123
-80 98 57 69 1 56 59 119
74 -91 -105 -59 89 -95 52 1
113 127 -33 83 6 52 80 -50
49 112 127 127 -93 47 72 -27
86 24 -37 105 127 109 -4 -10
22 -22 3 -41 37 54 21 -89
-12 46 -86 35 91 -12 -67 -1
28 -31 97 -20 38 2 -84 -89
22 7 -6 31 33 69 36 8
-4 -45 30 35 -20 11 15 -58
-57 105 14 82 -59 -78 -2 76
127 71 -127 16 -82 -127 70 -64
96 -72 127 -95 90 90 127 126
-45 111 -13 -85 116 -80 49 127
-4 -8 -34 19 -57 79 65 -127
-127 -72 -21 27 -14 101 127 127
-53 -80 -127 54 -3 -27 -127 -127
126 127 114 -21 -127 12 127 -127
-127 -127 85 -127 37 127 101 -127
-38 127 127 -127 -67 -127 74 -36
72 6 -127 71 10 127 127 -104
119 127 -30 5 -21 127 96 -42
127 -7 -56 127 -10 127 123 44
23 55 2 9 -32 78 27 -85
-10 -94 -88 -69 -127 -3 -77 1

sequential/model/block_1_project/Conv2D i1 [8, 1, 1, 48]
00000000: e426 e400 d4e7 b117 0915 2527 2405 d50b
00000010: d42a 0bc1 1e28 8105 f80b e12e faf5 1714
00000020: 0fe8 2412 006c bdef f414 e51d 0506 14fc
00000030: b69b c605 57e5 813d e7d9 f4b3 ec4c 06f6
00000040: 7284 f7ee c304 05ed 15fa e6cb 16f1 8ce9
00000050: 18c8 af9c 2c08 a6fe 0227 094f f307 042c
00000060: 07bc 0a39 7011 62f8 dee4 f4d0 03e6 1220
00000070: e0a6 2cc4 06bc c70b ba3b 46a0 dbfb c8d1
00000080: 1205 bcd0 fa7f 4ddd f409 e7b5 2d23 30e7
00000090: 0802 14f1 2119 16a6 1913 f409 0390 ef02
000000a0: e409 eefc fa33 8105 12a0 221d 2ef0 e138
000000b0: 0109 fddf 9ed3 08f1 f9fe 2702 f003 01cc
000000c0: 24c7 084a 3508 e3fb dbf3 17de 4b24 ea20
000000d0: d2bf 4223 23cc 7f18 e10d c8f0 f610 afd5
000000e0: 54e6 d4bf d3d0 e900 c062 fff7 3b54 2c1a
000000f0: c1ea dd35 fa0a ffcc c5dd fdeb 1026 b90f
-28 38 -28 0 -44 -25 -79 23
9 21 37 39 36 5 -43 11
-44 42 11 -63 30 40 -127 5
-8 11 -31 46 -6 -11 23 20
15 -24 36 18 0 108 -67 -17
-12 20 -27 29 5 6 20 -4
-74 -101 -58 5 87 -27 -127 61
-25 -39 -12 -77 -20 76 6 -10
114 -124 -9 -18 -61 4 5 -19
21 -6 -26 -53 22 -15 -116 -23
24 -56 -81 -100 44 8 -90 -2
2 39 9 79 -13 7 4 44
7 -68 10 57 112 17 98 -8
-34 -28 -12 -48 3 -26 18 32
-32 -90 44 -60 6 -68 -57 11
-70 59 70 -96 -37 -5 -56 -47
18 5 -68 -48 -6 127 77 -35
-12 9 -25 -75 45 35 48 -25
8 2 20 -15 33 25 22 -90
25 19 -12 9 3 -112 -17 2
-28 9 -18 -4 -6 51 -127 5
18 -96 34 29 46 -16 -31 56
1 9 -3 -33 -98 -45 8 -15
-7 -2 39 2 -16 3 1 -52
36 -57 8 74 53 8 -29 -5
-37 -13 23 -34 75 36 -22 32
-46 -65 66 35 35 -52 127 24
-31 13 -56 -16 -10 16 -81 -43
84 -26 -44 -65 -45 -48 -23 0
-64 98 -1 -9 59 84 44 26
-63 -22 -35 53 -6 10 -1 -52
-59 -35 -3 -21 16 38 -71 15

sequential/model/block_2_expand/Conv2D i1 [48, 1, 1, 8]
00000000: 81ef 1b90 847b 01c2 5004 13e8 053c 812c
00000010: d231 9959 cb7f 1335 61e6 e24a febd 0b7f
00000020: b0fa fb0d ecde 7f03 3871 152f 81d0 0be0
00000030: ffbc 237f 0da0 ed25 7ffd 6601 b320 4a7d
00000040: db81 3032 52e0 e403 b19a 12e6 e703 cd7f
00000050: de81 1e66 3e73 07e8 818b 1fb9 3b38 d67e
00000060: 51ee 58b3 1881 53ff 2311 157f f412 23c3
00000070: d5f8 2703 7fee ff7f ac7f 2f50 4069 d35e
00000080: 01e1 c181 c43c 1338 187f 0539 e7d3 fb11
00000090: 1222 f181 d2a9 17ef 1ec1 819c b463 0efd
000000a0: 1b04 11fd 7f17 20db 81ad bca5 2d29 3aee
000000b0: bcd4 4f7f 2ed1 cd7f 1925 d27f 731d 2460
000000c0: 7fff 87ea ffe9 2ecd 05f8 d3ee 46e7 81c4
000000d0: 7f08 69de a72f 3c77 12c8 d97f 26fe e893
000000e0: c37f 5244 3eeb e603 0001 3404 b802 7f42
000000f0: c6b5 34be b37f 3e2b 6a14 5be9 9f49 4e7f
-127 -17 27 -112 -124 123 1 -62
80 4 19 -24 5 60 -127 44
-46 49 -103 89 -53 127 19 53
97 -26 -30 74 -2 -67 11 127
-80 -6 -5 13 -20 -34 127 3
56 113 21 47 -127 -48 11 -32
-1 -68 35 127 13 -96 -19 37
127 -3 102 1 -77 32 74 125
-37 -127 48 50 82 -32 -28 3
-79 -102 18 -26 -25 3 -51 127
-34 -127 30 102 62 115 7 -24
-127 -117 31 -71 59 56 -42 126
81 -18 88 -77 24 -127 83 -1
35 17 21 127 -12 18 35 -61
-43 -8 39 3 127 -18 -1 127
-84 127 47 80 64 105 -45 94
1 -31 -63 -127 -60 60 19 56
24 127 5 57 -25 -45 -5 17
18 34 -15 -127 -46 -87 23 -17
30 -63 -127 -100 -76 99 14 -3
27 4 17 -3 127 23 32 -37
-127 -83 -68 -91 45 41 58 -18
-68 -44 79 127 46 -47 -51 127
25 37 -46 127 115 29 36 96
127 -1 -121 -22 -1 -23 46 -51
5 -8 -45 -18 70 -25 -127 -60
127 8 105 -34 -89 47 60 119
18 -56 -39 127 38 -2 -24 -109
-61 127 82 68 62 -21 -26 3
0 1 52 4 -72 2 127 66
-58 -75 52 -66 -77 127 62 43
106 20 91 -23 -97 73 78 127

sequential/model/block_2_depthwise_BN/FusedBatchNormV3;sequential/model/block_2_depthwise/depthwise;sequential/model/block_10_depthwise/depthwise i1 [1, 3, 3, 48]
00000000: bf32 d6cc f9ef 10f0 fef1 0727 fda2 a113
00000010: 7ffd 3827 98c6 6696 f8d0 f95e f40d 227f
00000020: eef5 f100 f6d7 f814 6ea1 c92e 4e93 e3fe
00000030: f681 2281 feec b87f 49b4 1727 1181 910b
00000040: da0b e1af ae03 497f 0df9 0b7f 1afb 0a99
00000050: 9f17 f7e4 7f81 38f8 fc86 c21b 6645 27e0
00000060: e9ff 11e7 fd22 1240 fd0c 031e 1924 a919
00000070: 480b e210 8132 4018 f843 03d5 eeff 0adb
00000080: cd02 fe05 e675 f20c 52c4 0ee0 3b27 d9f5
00000090: e0ec 8bf1 e317 fd01 1dc1 fd96 e4cd 8178
000000a0: 6c03 7f56 ee7f 7f6a 06c9 d901 2cda 2396
000000b0: 05e5 cafb fba2 2b15 557f e7f5 c07f 3ae0
000000c0: 8132 7f76 7f8c 81f4 ec81 8181 7fe7 ee26
000000d0: 0a81 9c81 7bf6 b29e 7fdb 7fc7 7f7f d34b
000000e0: 8181 7f81 55aa 8181 196d 980e 81b9 7f7f
000000f0: ed04 0b15 287f ed34 4508 34ce f3f0 b2ec
-65 50 -42 -52 -7 -17 16 -16
-2 -15 7 39 -3 -94 -95 19
127 -3 56 39 -104 -58 102 -106
-8 -48 -7 94 -12 13 34 127
-18 -11 -15 0 -10 -41 -8 20
110 -95 -55 46 78 -109 -29 -2
-10 -127 34 -127 -2 -20 -72 127
73 -76 23 39 17 -127 -111 11
-38 11 -31 -81 -82 3 73 127
13 -7 11 127 26 -5 10 -103
-97 23 -9 -28 127 -127 56 -8
-4 -122 -62 27 102 69 39 -32
-23 -1 17 -25 -3 34 18 64
-3 12 3 30 25 36 -87 25
72 11 -30 16 -127 50 64 24
-8 67 3 -43 -18 -1 10 -37
-51 2 -2 5 -26 117 -14 12
82 -60 14 -32 59 39 -39 -11
-32 -20 -117 -15 -29 23 -3 1
29 -63 -3 -106 -28 -51 -127 120
108 3 127 86 -18 127 127 106
6 -55 -39 1 44 -38 35 -106
5 -27 -54 -5 -5 -94 43 21
85 127 -25 -11 -64 127 58 -32
-127 50 127 118 127 -116 -127 -12
-20 -127 -127 -127 127 -25 -18 38
10 -127 -100 -127 123 -10 -78 -98
127 -37 127 -57 127 127 -45 75
-127 -127 127 -127 85 -86 -127 -127
25 109 -104 14 -127 -71 127 127
-19 4 11 21 40 127 -19 52
69 8 52 -50 -13 -16 -78 -20

sequential/model/block_2_project/Conv2D i1 [8, 1, 1, 48]
00000000: e7fb f7e0 bef1 faee 3f06 08fc 0a0f ec05
00000010: e10c efee 0009 ec02 12f8 5409 efaf f20c
00000020: fb22 7ff5 e8d6 1ada 1905 fbee efff ecab
00000030: 14e2 f540 03f8 1126 4650 2cce ca49 0204
00000040: f6e3 14ea c129 d31f 560f e221 1cfe 7f1a
00000050: efdb dfff f20b e8f6 02ec 0717 fb26 1c18
00000060: bbfd af70 bab7 1bc0 ae2a 389f eaf6 d403
00000070: 7d21 b5d1 bbe8 d410 54da 7ffa 54f2 bd10
00000080: 03e4 32fc cd1c ff93 3db5 c585 eeb7 bb64
00000090: 19cc 0cd7 22e9 f7b5 2ec1 04e6 aab3 ee08
000000a0: 0cf3 28db f61f ad02 4bdb 3111 06fb ffe5
000000b0: dc22 16e2 cb1b fffa 7f13 d024 ce31 f6ce
000000c0: 1503 0d0d 0621 f7f4 2c15 07d2 0006 c011
000000d0: 0112 17ed e61b 0328 2304 e107 2cf3 f019
000000e0: fefa 1e14 81ff 330a 0cf8 fe11 e031 e6a0
000000f0: d99f 2277 e0fc cd67 9c55 301f ae17 49d9
-25 -5 -9 -32 -66 -15 -6 -18
63 6 8 -4 10 15 -20 5
-31 12 -17 -18 0 9 -20 2
18 -8 84 9 -17 -81 -14 12
-5 34 127 -11 -24 -42 26 -38
25 5 -5 -18 -17 -1 -20 -85
20 -30 -11 64 3 -8 17 38
70 80 44 -50 -54 73 2 4
-10 -29 20 -22 -63 41 -45 31
86 15 -30 33 28 -2 127 26
-17 -37 -33 -1 -14 11 -24 -10
2 -20 7 23 -5 38 28 24
-69 -3 -81 112 -70 -73 27 -64
-82 42 56 -97 -22 -10 -44 3
125 33 -75 -47 -69 -24 -44 16
84 -38 127 -6 84 -14 -67 16
3 -28 50 -4 -51 28 -1 -109
61 -75 -59 -123 -18 -73 -69 100
25 -52 12 -41 34 -23 -9 -75
46 -63 4 -26 -86 -77 -18 8
12 -13 40 -37 -10 31 -83 2
75 -37 49 17 6 -5 -1 -27
-36 34 22 -30 -53 27 -1 -6
127 19 -48 36 -50 49 -10 -50
21 3 13 13 6 33 -9 -12
44 21 7 -46 0 6 -64 17
1 18 23 -19 -26 27 3 40
35 4 -31 7 44 -13 -16 25
-2 -6 30 20 -127 -1 51 10
12 -8 -2 17 -32 49 -26 -96
-39 -97 34 119 -32 -4 -51 103
-100 85 48 31 -82 23 73 -39

sequential/model/block_3_expand/Conv2D i1 [48, 1, 1, 8]
00000000: e142 c636 237f 241b 3481 a3e3 de3c 40db
00000010: d230 d890 d881 dfb9 f17f 3c1a 02b3 e41e
00000020: 972e 8156 0aea cfbb 5e98 811c 0cef 49d9
00000030: f0aa c20f 81d1 c95a ebd7 f4d7 3004 e47f
00000040: 101c a29f 2ddc 81a6 813a f765 f843 6001
00000050: e4f8 5a81 e53f 1124 69ec 6925 d62e 527f
00000060: 3a28 1ecc 4170 6081 2237 db3e f781 da35
00000070: 0e81 e5e4 0d45 22e0 a0fa fcbc 3b7f bae1
00000080: 0adc 710c e61b 7f4a 4411 3919 f2a7 d981
00000090: 8116 aef0 f084 1ca3 4516 79e8 c029 707f
000000a0: 167f 35f7 1729 2b09 db1f 1b95 c47f fdf4
000000b0: 1fff 54f6 ce15 7f64 b77f 392f 9ca5 8b7b
000000c0: f2f7 5f1b 8d7f f7a4 d416 4a18 812b b913
000000d0: d581 20d6 0c29 f7f2 e444 2133 e77f e0f3
000000e0: 1081 3717 377e 2724 127f eb1c bdc4 ee12
000000f0: cf48 6a5a 81bd d193 0f43 1a39 cef5 0f81
-31 66 -58 54 35 127 36 27
52 -127 -93 -29 -34 60 64 -37
-46 48 -40 -112 -40 -127 -33 -71
-15 127 60 26 2 -77 -28 30
-105 46 -127 86 10 -22 -49 -69
94 -104 -127 28 12 -17 73 -39
-16 -86 -62 15 -127 -47 -55 90
-21 -41 -12 -41 48 4 -28 127
16 28 -94 -97 45 -36 -127 -90
-127 58 -9 101 -8 67 96 1
-28 -8 90 -127 -27 63 17 36
105 -20 105 37 -42 46 82 127
58 40 30 -52 65 112 96 -127
34 55 -37 62 -9 -127 -38 53
14 -127 -27 -28 13 69 34 -32
-96 -6 -4 -68 59 127 -70 -31
10 -36 113 12 -26 27 127 74
68 17 57 25 -14 -89 -39 -127
-127 22 -82 -16 -16 -124 28 -93
69 22 121 -24 -64 41 112 127
22 127 53 -9 23 41 43 9
-37 31 27 -107 -60 127 -3 -12
31 -1 84 -10 -50 21 127 100
-73 127 57 47 -100 -91 -117 123
-14 -9 95 27 -115 127 -9 -92
-44 22 74 24 -127 43 -71 19
-43 -127 32 -42 12 41 -9 -14
-28 68 33 51 -25 127 -32 -13
16 -127 55 23 55 126 39 36
18 127 -21 28 -67 -60 -18 18
-49 72 106 90 -127 -67 -47 -109
15 67 26 57 -50 -11 15 -127

sequential/model/block_3_depthwise_BN/FusedBatchNormV3;sequential/model/block_3_depthwise/depthwise;sequential/model/block_10_depthwise/depthwise i1 [1, 3, 3, 48]
00000000: d6af d1bd d512 d8bd ca38 27a6 e516 a143
00000010: 57b7 c672 2540 d162 b4c3 3e45 36c3 5038
00000020: 33cc b9de 88ca 7c3c f1f1 1e40 475d d5cd
00000030: b98b b48d 810b ac9a bd5a 4d93 be45 8265
00000040: 6798 92fb 504c 5c7b b2a4 665e 5ba7 6254
00000050: 4da5 a0c2 96af 7f58 b6c5 3a54 507f a8a5
00000060: e9c9 d9be ae11 d0ca d22c 2ace eb4c ae2a
00000070: 34db e1d1 3881 cb2e e6d7 3017 2cde 3224
00000080: 2bd2 c9e4 b7dd 1229 e2dc 2631 1a3a dee0
00000090: b7a0 b6ae b0ec bbaf a85b 449c c638 8150
000000a0: 6aa8 b67f 4d51 c66c 94b3 4d6c 4faa 5d4a
000000b0: 4da4 9ebc 82b5 6d5f b2c2 3f49 6d77 beac
000000c0: 8181 8181 8784 8181 817f 7f81 817f a67f
000000d0: 7f81 81cd 7f55 7f7f 8181 7f7f 7f81 7f7f
000000e0: 7f81 8181 8181 7d7f 8181 7f7f 7f7c 8181
000000f0: cdd3 b4ac 9995 afaf bb4b 3eb7 ce68 b937
-42 -81 -47 -67 -43 18 -40 -67
-54 56 39 -90 -27 22 -95 67
87 -73 -58 114 37 64 -47 98
-76 -61 62 69 54 -61 80 56
51 -52 -71 -34 -120 -54 124 60
-15 -15 30 64 71 93 -43 -51
-71 -117 -76 -115 -127 11 -84 -102
-67 90 77 -109 -66 69 -126 101
103 -104 -110 -5 80 76 92 123
-78 -92 102 94 91 -89 98 84
77 -91 -96 -62 -106 -81 127 88
-74 -59 58 84 80 127 -88 -91
-23 -55 -39 -66 -82 17 -48 -54
-46 44 42 -50 -21 76 -82 42
52 -37 -31 -47 56 -127 -53 46
-26 -41 48 23 44 -34 50 36
43 -46 -55 -28 -73 -35 18 41
-30 -36 38 49 26 58 -34 -32
-73 -96 -74 -82 -80 -20 -69 -81
-88 91 68 -100 -58 56 -127 80
106 -88 -74 127 77 81 -58 108
-108 -77 77 108 79 -86 93 74
77 -92 -98 -68 -126 -75 109 95
-78 -62 63 73 109 119 -66 -84
-127 -127 -127 -127 -121 -124 -127 -127
-127 127 127 -127 -127 127 -90 127
127 -127 -127 -51 127 85 127 127
-127 -127 127 127 127 -127 127 127
127 -127 -127 -127 -127 -127 125 127
-127 -127 127 127 127 124 -127 -127
-51 -45 -76 -84 -103 -107 -81 -81
-69 75 62 -73 -50 104 -71 55

sequential/model/block_3_project/Conv2D i1 [8, 1, 1, 48]
00000000: e813 031e ec0a ff1f d1fa dafe f00f 2402
00000010: d0eb 1eed e57f ebec eadb 041f dd23 0ae8
00000020: f815 2026 1304 1de8 04df edf3 ec16 170e
00000030: 0b37 022f 2024 2b71 d1cf 50e0 dbe0 1ce8
00000040: ecfe 2603 1c81 fabc 090c f20c f90b ddc5
00000050: d901 15f4 103e 45ec 1916 27e3 dc2b 052f
00000060: fe1a 011b 1a11 e423 150d 3f13 05f3 21cd
00000070: 161a f70a f27f 08f5 14d7 fb00 e81e edc8
00000080: f10a 12da 1ff4 dae7 18f1 f7d1 e022 0d11
00000090: d933 fb03 ec24 4101 0107 0611 f024 2d13
000000a0: f000 0602 2cb1 f715 ef02 811e dce3 f608
000000b0: d6f3 0d1e 21f5 dae1 01ef 0b13 15f7 2a13
000000c0: 1500 d407 13f8 12f4 cb08 fe17 05f6 ed0f
000000d0: e222 f1f8 0081 f7fb 241f 21d3 2cf9 0008
000000e0: f331 1df7 ea0f f705 f6c3 ab13 1f22 fff7
000000f0: f931 5309 011d 1897 45de f1fd 61bd fc13
-24 19 3 30 -20 10 -1 31
-47 -6 -38 -2 -16 15 36 2
-48 -21 30 -19 -27 127 -21 -20
-22 -37 4 31 -35 35 10 -24
-8 21 32 38 19 4 29 -24
4 -33 -19 -13 -20 22 23 14
11 55 2 47 32 36 43 113
-47 -49 80 -32 -37 -32 28 -24
-20 -2 38 3 28 -127 -6 -68
9 12 -14 12 -7 11 -35 -59
-39 1 21 -12 16 62 69 -20
25 22 39 -29 -36 43 5 47
-2 26 1 27 26 17 -28 35
21 13 63 19 5 -13 33 -51
22 26 -9 10 -14 127 8 -11
20 -41 -5 0 -24 30 -19 -56
-15 10 18 -38 31 -12 -38 -25
24 -15 -9 -47 -32 34 13 17
-39 51 -5 3 -20 36 65 1
1 7 6 17 -16 36 45 19
-16 0 6 2 44 -79 -9 21
-17 2 -127 30 -36 -29 -10 8
-42 -13 13 30 33 -11 -38 -31
1 -17 11 19 21 -9 42 19
21 0 -44 7 19 -8 18 -12
-53 8 -2 23 5 -10 -19 15
-30 34 -15 -8 0 -127 -9 -5
36 31 33 -45 44 -7 0 8
-13 49 29 -9 -22 15 -9 5
-10 -61 -85 19 31 34 -1 -9
-7 49 83 9 1 29 24 -105
69 -34 -15 -3 97 -67 -4 19

sequential/model/block_4_expand/Conv2D i1 [48, 1, 1, 8]
00000000: 41a5 2900 3481 fbb0 d1cd b63d 8135 e013
00000010: 43ca 37ec 7fe5 ff4b f67f f270 0b05 d1d6
00000020: e17f 49da 2e14 bf14 a51c 010e 7fe8 55f0
00000030: 7cb8 760f 267f 69eb e2d0 3235 5414 cb7f
00000040: 0ef2 e0a1 f27f b712 8118 a6fe 62da c60a
00000050: ebb1 2e1e dfa5 81af 295a ebf9 e6b6 1b7f
00000060: 30cd 9f30 a97f 3556 d5e4 8113 a951 1329
00000070: c57f ad56 5a26 f34e aff5 f3fa 544c be81
00000080: 5381 9ae0 c569 cbef 0f7f 94cb b520 3f8e
00000090: b48f 2916 7fb7 e14e bd66 e72b 0798 8132
000000a0: 52ee 27bf fac4 197f 3dd8 7f75 d970 61ec
000000b0: e36b 0703 7fbb 90be 24cc 1c7f ffc9 45de
000000c0: df39 7fbe ebe5 0fe1 cb85 6543 1dfb e07f
000000d0: 41e7 81a1 9532 1d6a 297f 97c4 d217 2185
000000e0: e732 cba5 f1d7 81d9 9c35 81d1 6f31 cfff
000000f0: 53c9 0ce7 816f 7d43 c551 df5a 7fb5 f5fd
65 -91 41 0 52 -127 -5 -80
-47 -51 -74 61 -127 53 -32 19
67 -54 55 -20 127 -27 -1 75
-10 127 -14 112 11 5 -47 -42
-31 127 73 -38 46 20 -65 20
-91 28 1 14 127 -24 85 -16
124 -72 118 15 38 127 105 -21
-30 -48 50 53 84 20 -53 127
14 -14 -32 -95 -14 127 -73 18
-127 24 -90 -2 98 -38 -58 10
-21 -79 46 30 -33 -91 -127 -81
41 90 -21 -7 -26 -74 27 127
48 -51 -97 48 -87 127 53 86
-43 -28 -127 19 -87 81 19 41
-59 127 -83 86 90 38 -13 78
-81 -11 -13 -6 84 76 -66 -127
83 -127 -102 -32 -59 105 -53 -17
15 127 -108 -53 -75 32 63 -114
-76 -113 41 22 127 -73 -31 78
-67 102 -25 43 7 -104 -127 50
82 -18 39 -65 -6 -60 25 127
61 -40 127 117 -39 112 97 -20
-29 107 7 3 127 -69 -112 -66
36 -52 28 127 -1 -55 69 -34
-33 57 127 -66 -21 -27 15 -31
-53 -123 101 67 29 -5 -32 127
65 -25 -127 -95 -107 50 29 106
41 127 -105 -60 -46 23 33 -123
-25 50 -53 -91 -15 -41 -127 -39
-100 53 -127 -47 111 49 -49 -1
83 -55 12 -25 -127 111 125 67
-59 81 -33 90 127 -75 -11 -3

sequential/model/block_4_depthwise_BN/FusedBatchNormV3;sequential/model/block_4_depthwise/depthwise;sequential/model/block_10_depthwise/depthwise i1 [1, 3, 3, 48]
00000000: 9aee 30f6 810b 8100 f47f 440b c53b 1423
00000010: 1a12 16f9 90f0 0636 e106 f8be 188f 5830
00000020: f91a 37d9 1281 e47d b530 f7fb f509 04f4
00000030: 0f81 f518 c614 84f8 1b24 7f4c a5b0 a8d0
00000040: 00cf 7260 1240 b713 b6fc 0081 09ba e58b
00000050: f910 d481 ec02 0d61 7fee f37f 0681 03de
00000060: 8107 2d03 9a12 b7fd f66b fbf3 bf37 173e
00000070: d3f8 0fe3 9ee5 2a14 04ed 08d4 d981 3201
00000080: 060e d2dd 11a5 1260 ba25 f708 030f 082a
00000090: 3be3 20fb ab03 39ef c138 2821 b2dc c174
000000a0: e000 347f 0333 95f5 dd9a ecc1 7f18 287f
000000b0: 81fd 7900 fb24 8b81 2ff0 0d0c 812e 01d1
000000c0: 76c8 8181 407f f67f 81a4 d97f ad81 8181
000000d0: f481 b343 7f7f a552 8151 8761 c5ca 81a0
000000e0: 0f7f 8166 81cb 7fd5 be7f 81ba 6953 81b5
000000f0: 31ec 55ff cae1 10e6 d91a 04e6 d8af c16e
-102 -18 48 -10 -127 11 -127 0
-12 127 68 11 -59 59 20 35
26 18 22 -7 -112 -16 6 54
-31 6 -8 -66 24 -113 88 48
-7 26 55 -39 18 -127 -28 125
-75 48 -9 -5 -11 9 4 -12
15 -127 -11 24 -58 20 -124 -8
27 36 127 76 -91 -80 -88 -48
0 -49 114 96 18 64 -73 19
-74 -4 0 -127 9 -70 -27 -117
-7 16 -44 -127 -20 2 13 97
127 -18 -13 127 6 -127 3 -34
-127 7 45 3 -102 18 -73 -3
-10 107 -5 -13 -65 55 23 62
-45 -8 15 -29 -98 -27 42 20
4 -19 8 -44 -39 -127 50 1
6 14 -46 -35 17 -91 18 96
-70 37 -9 8 3 15 8 42
59 -29 32 -5 -85 3 57 -17
-63 56 40 33 -78 -36 -63 116
-32 0 52 127 3 51 -107 -11
-35 -102 -20 -63 127 24 40 127
-127 -3 121 0 -5 36 -117 -127
47 -16 13 12 -127 46 1 -47
118 -56 -127 -127 64 127 -10 127
-127 -92 -39 127 -83 -127 -127 -127
-12 -127 -77 67 127 127 -91 82
-127 81 -121 97 -59 -54 -127 -96
15 127 -127 102 -127 -53 127 -43
-66 127 -127 -70 105 83 -127 -75
49 -20 85 -1 -54 -31 16 -26
-39 26 4 -26 -40 -81 -63 110

sequential/model/block_4_project/Conv2D i1 [8, 1, 1, 48]
00000000: 7fef f3f5 e7ab dcf3 35db c8e3 e74d cc08
00000010: 0af9 070a 20dd 0606 2904 011d 093c d8a4
00000020: 10c2 06e3 22d8 f419 c4e9 e5d2 b0a8 06e4
00000030: b0fd 5ac2 3a28 2b14 ec13 fa65 17e1 81cb
00000040: 9fa8 22ef 0558 ce00 129a 2264 24e5 252a
00000050: 2d2a 001e b8e4 1610 02e3 9916 edcc 9d1f
00000060: 612b e7c1 d0fe d6ab 281a afd0 f13b c328
00000070: f751 080d 3936 0206 8113 20c4 0325 21ad
00000080: 11d9 1818 c9d0 1222 848c e7cb d5a6 260b
00000090: 1202 1819 9aea fb34 e3c3 f44f 0ceb afd0
000000a0: e31c 05c5 d37f 11cb 1b2c 34cf 110f 0c16
000000b0: 2318 0efc 2c39 17fa 24e7 19d1 f30a 1926
000000c0: cd0f 8809 f260 0d23 e67f 213b 13b8 eb22
000000d0: effe f51f f222 b412 06fa 32f4 27bf 7a55
000000e0: 3032 05cb ae10 fbe9 3116 1d23 2b1c 173a
000000f0: e4ff 24f5 39bb dee2 e0c2 07e1 2602 f100
127 -17 -13 -11 -25 -85 -36 -13
53 -37 -56 -29 -25 77 -52 8
10 -7 7 10 32 -35 6 6
41 4 1 29 9 60 -40 -92
16 -62 6 -29 34 -40 -12 25
-60 -23 -27 -46 -80 -88 6 -28
-80 -3 90 -62 58 40 43 20
-20 19 -6 101 23 -31 -127 -53
-97 -88 34 -17 5 88 -50 0
18 -102 34 100 36 -27 37 42
45 42 0 30 -72 -28 22 16
2 -29 -103 22 -19 -52 -99 31
97 43 -25 -63 -48 -2 -42 -85
40 26 -81 -48 -15 59 -61 40
-9 81 8 13 57 54 2 6
-127 19 32 -60 3 37 33 -83
17 -39 24 24 -55 -48 18 34
-124 -116 -25 -53 -43 -90 38 11
18 2 24 25 -102 -22 -5 52
-29 -61 -12 79 12 -21 -81 -48
-29 28 5 -59 -45 127 17 -53
27 44 52 -49 17 15 12 22
35 24 14 -4 44 57 23 -6
36 -25 25 -47 -13 10 25 38
-51 15 -120 9 -14 96 13 35
-26 127 33 59 19 -72 -21 34
-17 -2 -11 31 -14 34 -76 18
6 -6 50 -12 39 -65 122 85
48 50 5 -53 -82 16 -5 -23
49 22 29 35 43 28 23 58
-28 -1 36 -11 57 -69 -34 -30
-32 -62 7 -31 38 2 -15 0

sequential/model/block_5_expand/Conv2D i1 [48, 1, 1, 8]
00000000: f3ce d866 09b5 af81 7fe6 26e5 1bb6 031d
00000010: f52f 0881 0f5f c23f ea7f cea3 9aff 20aa
00000020: 01bb a2d7 1aad be81 d2ab 533a 127f 2585
00000030: 040a d420 0412 81d0 16ec 0b16 d234 7f3f
00000040: 012c aee5 d281 c140 3f06 c6ea 077f d579
00000050: ed39 4e7f 5d76 f9cd ecc7 ff21 8142 f2ec
00000060: f02a 54be 4b94 81c0 2d1f ac81 eac0 b96f
00000070: d581 08b3 feb1 118c 0647 4662 5c7f fde5
00000080: 270d e281 365b bc54 945f 8125 1b6b a430
00000090: 813e 14ee a412 eb04 7f03 d5e5 58b9 49a9
000000a0: 7fc0 2eda be1d 5703 11e0 de28 fb19 7f21
000000b0: 6327 8199 0e79 4d7a e427 d1ab 2b05 810b
000000c0: 7fc6 99ee 62c3 0a1a dfb2 48d2 427f e49a
000000d0: 15bf 2a21 7fc3 cfbc e781 3e58 10f4 d26b
000000e0: ee34 97d3 6394 e07f af20 7fa4 19d7 2924
000000f0: 6ab2 51e5 bf81 42e6 181c 32fa e4f9 8108
-13 -50 -40 102 9 -75 -81 -127
127 -26 38 -27 27 -74 3 29
-11 47 8 -127 15 95 -62 63
-22 127 -50 -93 -102 -1 32 -86
1 -69 -94 -41 26 -83 -66 -127
-46 -85 83 58 18 127 37 -123
4 10 -44 32 4 18 -127 -48
22 -20 11 22 -46 52 127 63
1 44 -82 -27 -46 -127 -63 64
63 6 -58 -22 7 127 -43 121
-19 57 78 127 93 118 -7 -51
-20 -57 -1 33 -127 66 -14 -20
-16 42 84 -66 75 -108 -127 -64
45 31 -84 -127 -22 -64 -71 111
-43 -127 8 -77 -2 -79 17 -116
6 71 70 98 92 127 -3 -27
39 13 -30 -127 54 91 -68 84
-108 95 -127 37 27 107 -92 48
-127 62 20 -18 -92 18 -21 4
127 3 -43 -27 88 -71 73 -87
127 -64 46 -38 -66 29 87 3
17 -32 -34 40 -5 25 127 33
99 39 -127 -103 14 121 77 122
-28 39 -47 -85 43 5 -127 11
127 -58 -103 -18 98 -61 10 26
-33 -78 72 -46 66 127 -28 -102
21 -65 42 33 127 -61 -49 -68
-25 -127 62 88 16 -12 -46 107
-18 52 -105 -45 99 -108 -32 127
-81 32 127 -92 25 -41 41 36
106 -78 81 -27 -65 -127 66 -26
24 28 50 -6 -28 -7 -127 8

sequential/model/block_5_depthwise_BN/FusedBatchNormV3;sequential/model/block_5_depthwise/depthwise;sequential/model/block_10_depthwise/depthwise i1 [1, 3, 3, 48]
00000000: 5b52 3221 f2b6 221b c0f2 db34 350e f910
00000010: 35d4 6040 3ff4 050b e1b9 3905 e6b5 2229
00000020: 22a1 0d1c e12a f481 0093 d5f5 1381 4781
00000030: 7f12 44a2 3240 2acc 95a7 047f 09cc 811d
00000040: fb66 453a 2a47 5c1f 7fce f281 83d5 817f
00000050: 1f9d b57f 26aa b188 117f ae1e d7b7 5c14
00000060: 4d01 1db2 eacc 2412 c6f2 071b 1f19 2903
00000070: d10c 493e dedb b9f9 dfbf c9dd d7a7 0912
00000080: 3acc 191e c2c9 009e 08df 73ec 088f 19c4
00000090: 6109 1940 2f49 0581 6981 81bf 0e31 c57f
000000a0: 8155 403f 0667 4fd7 e079 5814 2be5 9535
000000b0: 4764 bc2b b7ff febb efbf 16a5 36f5 33e9
000000c0: 017f 815a 7f40 8111 72e8 e253 817f e406
000000d0: 2d81 8102 7f1c 7f81 8861 da04 00ed 2fee
000000e0: 7fe9 7fb6 7a81 7f71 7f49 83fb 7331 81ee
000000f0: 2afb 0b81 3737 12a8 7fcd 81e8 1021 c965
91 82 50 33 -14 -74 34 27
-64 -14 -37 52 53 14 -7 16
53 -44 96 64 63 -12 5 11
-31 -71 57 5 -26 -75 34 41
34 -95 13 28 -31 42 -12 -127
0 -109 -43 -11 19 -127 71 -127
127 18 68 -94 50 64 42 -52
-107 -89 4 127 9 -52 -127 29
-5 102 69 58 42 71 92 31
127 -50 -14 -127 -125 -43 -127 127
31 -99 -75 127 38 -86 -79 -120
17 127 -82 30 -41 -73 92 20
77 1 29 -78 -22 -52 36 18
-58 -14 7 27 31 25 41 3
-47 12 73 62 -34 -37 -71 -7
-33 -65 -55 -35 -41 -89 9 18
58 -52 25 30 -62 -55 0 -98
8 -33 115 -20 8 -113 25 -60
97 9 25 64 47 73 5 -127
105 -127 -127 -65 14 49 -59 127
-127 85 64 63 6 103 79 -41
-32 121 88 20 43 -27 -107 53
71 100 -68 43 -73 -1 -2 -69
-17 -65 22 -91 54 -11 51 -23
1 127 -127 90 127 64 -127 17
114 -24 -30 83 -127 127 -28 6
45 -127 -127 2 127 28 127 -127
-120 97 -38 4 0 -19 47 -18
127 -23 127 -74 122 -127 127 113
127 73 -125 -5 115 49 -127 -18
42 -5 11 -127 55 55 18 -88
127 -51 -127 -24 16 33 -55 101

sequential/model/block_5_project/Conv2D i1 [8, 1, 1, 48]
00000000: 0e26 2121 f9e0 3031 041b f6f4 30dd 31eb
00000010: c8e1 81f9 2cd8 152e 08f7 2df9 f8cb 0723
00000020: d132 3005 324f c5ca 0715 9dd0 2319 e9c6
00000030: f2d6 0047 e8ff fdf3 0d09 efd0 fffb 0f06
00000040: 2c17 38d8 011a 19cf 00f4 e1e1 dc08 f3fd
00000050: e1e4 9d4b 1211 81ec 18f3 4418 68ea d92d
00000060: f905 1edd e6ed f67f d453 d5fe 7df8 30f0
00000070: c9bb fa26 faf0 1500 0739 0b2d 160c 4d1f
00000080: c0f0 1e40 0941 458b 3022 d6e4 0c21 fbf8
00000090: 15fb 81e3 10f3 35de e7ea f80d d1c7 2e12
000000a0: 0e33 0821 c512 bff8 d8b8 1c07 b5c6 c511
000000b0: 5028 d514 c601 1cf0 1ec0 e813 35d1 2af1
000000c0: 042c fef9 14fb b98c da16 eb4b 08e3 fe37
000000d0: 2732 b204 1904 e3f6 27f8 04fd e807 fde0
000000e0: 12e6 811e e102 2525 e0df 4727 0cd0 0f0c
000000f0: c7df 650d 5218 37f9 8100 95ee a6ab 3a52
14 38 33 33 -7 -32 48 49
4 27 -10 -12 48 -35 49 -21
-56 -31 -127 -7 44 -40 21 46
8 -9 45 -7 -8 -53 7 35
-47 50 48 5 50 79 -59 -54
7 21 -99 -48 35 25 -23 -58
-14 -42 0 71 -24 -1 -3 -13
13 9 -17 -48 -1 -5 15 6
44 23 56 -40 1 26 25 -49
0 -12 -31 -31 -36 8 -13 -3
-31 -28 -99 75 18 17 -127 -20
24 -13 68 24 104 -22 -39 45
-7 5 30 -35 -26 -19 -10 127
-44 83 -43 -2 125 -8 48 -16
-55 -69 -6 38 -6 -16 21 0
7 57 11 45 22 12 77 31
-64 -16 30 64 9 65 69 -117
48 34 -42 -28 12 33 -5 -8
21 -5 -127 -29 16 -13 53 -34
-25 -22 -8 13 -47 -57 46 18
14 51 8 33 -59 18 -65 -8
-40 -72 28 7 -75 -58 -59 17
80 40 -43 20 -58 1 28 -16
30 -64 -24 19 53 -47 42 -15
4 44 -2 -7 20 -5 -71 -116
-38 22 -21 75 8 -29 -2 55
39 50 -78 4 25 4 -29 -10
39 -8 4 -3 -24 7 -3 -32
18 -26 -127 30 -31 2 37 37
-32 -33 71 39 12 -48 15 12
-57 -33 101 13 82 24 55 -7
-127 0 -107 -18 -90 -85 58 82

sequential/model/block_6_expand/Conv2D i1 [48, 1, 1, 8]
00000000: 16e8 b813 810a c301 8523 7f0c 8deb 00f4
00000010: 074a e015 c781 f051 b023 f57f 08d0 bed8
00000020: 11ee 2981 ea18 8110 427f c2d2 daf3 2487
00000030: 3ecc 3563 d481 039d 2370 cbc7 c8e5 1581
00000040: 00e2 33fb 0a09 cf81 aafe 9618 81ae a7e8
00000050: 5b01 65d8 810c 5f5f 7fdc b40a 3803 b7fc
00000060: e992 7f10 160b b644 22c0 49f6 1081 328e
00000070: 9126 7f04 e3bc 33d0 1f7f d8cb bf02 2091
00000080: 1a64 d03c fcd6 f27f 1e4f f153 c751 8129
00000090: 45e3 7fdc 4d9b 0be5 09f4 0a7f 1ed6 e0aa
000000a0: 0318 e32a f833 810c 09fb 3216 197f 31ca
000000b0: 3f81 f33c b242 1516 d794 fa92 fbb9 f881
000000c0: 1316 eec1 d981 d233 3f47 7f10 0217 ceff
000000d0: 9822 7fce a6f1 5ff3 b32d db9e 1c7f ed59
000000e0: 1091 4336 3009 df7f 9134 51da 810c 68d6
000000f0: 6c97 1045 81ee 2fa3 3355 38db 92e9 0b7f
22 -24 -72 19 -127 10 -61 1
-123 35 127 12 -115 -21 0 -12
7 74 -32 21 -57 -127 -16 81
-80 35 -11 127 8 -48 -66 -40
17 -18 41 -127 -22 24 -127 16
66 127 -62 -46 -38 -13 36 -121
62 -52 53 99 -44 -127 3 -99
35 112 -53 -57 -56 -27 21 -127
0 -30 51 -5 10 9 -49 -127
-86 -2 -106 24 -127 -82 -89 -24
91 1 101 -40 -127 12 95 95
127 -36 -76 10 56 3 -73 -4
-23 -110 127 16 22 11 -74 68
34 -64 73 -10 16 -127 50 -114
-111 38 127 4 -29 -68 51 -48
31 127 -40 -53 -65 2 32 -111
26 100 -48 60 -4 -42 -14 127
30 79 -15 83 -57 81 -127 41
69 -29 127 -36 77 -101 11 -27
9 -12 10 127 30 -42 -32 -86
3 24 -29 42 -8 51 -127 12
9 -5 50 22 25 127 49 -54
63 -127 -13 60 -78 66 21 22
-41 -108 -6 -110 -5 -71 -8 -127
19 22 -18 -63 -39 -127 -46 51
63 71 127 16 2 23 -50 -1
-104 34 127 -50 -90 -15 95 -13
-77 45 -37 -98 28 127 -19 89
16 -111 67 54 48 9 -33 127
-111 52 81 -38 -127 12 104 -42
108 -105 16 69 -127 -18 47 -93
51 85 56 -37 -110 -23 11 127

sequential/model/block_6_depthwise_BN/FusedBatchNormV3;sequential/model/block_6_depthwise/depthwise;sequential/model/block_10_depthwise/depthwise i1 [1, 3, 3, 48]
00000000: 7081 a3c5 814b 6eb0 4f33 4765 277f cd42
00000010: 375f a3bc a2b3 c84b 4a57 5a46 49b5 d9c0
00000020: 81b6 b47f 41b9 e957 4db2 4e2c 9f40 43a1
00000030: 6ba6 a081 825f 609d 6957 5b75 505d 982c
00000040: 5d6c 98cd 8ba3 b670 5b63 6d63 5caf 7a95
00000050: fa96 a60e 31a9 8169 6c91 5650 6363 7881
00000060: 2794 b6b0 d222 2bf0 3027 261c 48fd b7e5
00000070: 3036 dde1 afcf d224 1e2d 1f2a 1ef5 dad2
00000080: a4b4 b601 94f1 c017 2bc6 2523 f72d 2fbe
00000090: 7f97 8bd6 905e 7f96 6151 5c7a 484b 8835
000000a0: 4f71 8481 969c a756 6861 7267 6ca2 edb3
000000b0: 8ca4 a16f 4297 bb68 5ba7 634b 884b 3f9d
000000c0: 79d2 8189 937f 7d81 7f7f 7f7f 7f63 81a8
000000d0: 7f7f 819a 8181 817f 7f7f 7f7f 7f81 7f81
000000e0: f081 8130 2c81 8b7f 7f81 7f7f 7f7f 7f88
000000f0: 1eaa bb99 db24 16ea 3847 3e12 681c c381
112 -127 -93 -59 -127 75 110 -80
79 51 71 101 39 127 -51 66
55 95 -93 -68 -94 -77 -56 75
74 87 90 70 73 -75 -39 -64
-127 -74 -76 127 65 -71 -23 87
77 -78 78 44 -97 64 67 -95
107 -90 -96 -127 -126 95 96 -99
105 87 91 117 80 93 -104 44
93 108 -104 -51 -117 -93 -74 112
91 99 109 99 92 -81 122 -107
-6 -106 -90 14 49 -87 -127 105
108 -111 86 80 99 99 120 -127
39 -108 -74 -80 -46 34 43 -16
48 39 38 28 72 -3 -73 -27
48 54 -35 -31 -81 -49 -46 36
30 45 31 42 30 -11 -38 -46
-92 -76 -74 1 -108 -15 -64 23
43 -58 37 35 -9 45 47 -66
127 -105 -117 -42 -112 94 127 -106
97 81 92 122 72 75 -120 53
79 113 -124 -127 -106 -100 -89 86
104 97 114 103 108 -94 -19 -77
-116 -92 -95 111 66 -105 -69 104
91 -89 99 75 -120 75 63 -99
121 -46 -127 -119 -109 127 125 -127
127 127 127 127 127 99 -127 -88
127 127 -127 -102 -127 -127 -127 127
127 127 127 127 127 -127 127 -127
-16 -127 -127 48 44 -127 -117 127
127 -127 127 127 127 127 127 -120
30 -86 -69 -103 -37 36 22 -22
56 71 62 18 104 28 -61 -127

sequential/model/block_6_project/Conv2D i1 [8, 1, 1, 48]
00000000: e1ea 14e5 f0e8 b011 0b02 d0da 19eb f9f3
00000010: f21a ce1f 05cb 4de9 c718 3e7f 14e2 a339
00000020: dde2 fd33 f407 012c fd33 1a8a ec1e 1ee7
00000030: f6fd f402 0d2e e4d4 b79f 54e4 c6f7 e804
00000040: 2212 2d1b fae3 ead8 062d 2043 d5dc 7fc5
00000050: 18c7 ee1e 0ba9 1ff1 11e9 ef3d 4da4 c50b
00000060: e824 fc07 bcec ff0e cf2f 022f 1e06 f6fb
00000070: e6d1 e513 0c7f 123c 65e7 d918 142a 91db
00000080: 0caa 2cad 0b33 f05b 5d27 b1f2 c21a ae2f
00000090: 37f8 3ee2 dc37 04cf fa5f 9728 dd81 2e0d
000000a0: c544 1026 b8dc 1ede e54d d30b cb17 35c4
000000b0: f5c4 77f5 f9d3 1913 cce0 39a8 b20d a91f
000000c0: 1517 f9fc fe10 dff7 e125 f707 dce3 0f0b
000000d0: 3d19 0801 e1f1 e4de ffc8 d737 f316 7b22
000000e0: 0731 c30b 1713 e50c 3afb c7de 7f31 57dc
000000f0: c50d 13c0 4b12 16f0 d589 f93b df26 f90d
-31 -22 20 -27 -16 -24 -80 17
11 2 -48 -38 25 -21 -7 -13
-14 26 -50 31 5 -53 77 -23
-57 24 62 127 20 -30 -93 57
-35 -30 -3 51 -12 7 1 44
-3 51 26 -118 -20 30 30 -25
-10 -3 -12 2 13 46 -28 -44
-73 -97 84 -28 -58 -9 -24 4
34 18 45 27 -6 -29 -22 -40
6 45 32 67 -43 -36 127 -59
24 -57 -18 30 11 -87 31 -15
17 -23 -17 61 77 -92 -59 11
-24 36 -4 7 -68 -20 -1 14
-49 47 2 47 30 6 -10 -5
-26 -47 -27 19 12 127 18 60
101 -25 -39 24 20 42 -111 -37
12 -86 44 -83 11 51 -16 91
93 39 -79 -14 -62 26 -82 47
55 -8 62 -30 -36 55 4 -49
-6 95 -105 40 -35 -127 46 13
-59 68 16 38 -72 -36 30 -34
-27 77 -45 11 -53 23 53 -60
-11 -60 119 -11 -7 -45 25 19
-52 -32 57 -88 -78 13 -87 31
21 23 -7 -4 -2 16 -33 -9
-31 37 -9 7 -36 -29 15 11
61 25 8 1 -31 -15 -28 -34
-1 -56 -41 55 -13 22 123 34
7 49 -61 11 23 19 -27 12
58 -5 -57 -34 127 49 87 -36
-59 13 19 -64 75 18 22 -16
-43 -119 -7 59 -33 38 -7 13

sequential/model/block_7_expand/Conv2D i1 [48, 1, 1, 8]
00000000: 5f7f 2a02 0842 075a f842 f84a 1f1d 81b7
00000010: 27a2 8158 e124 bb7c 4d41 7f90 1ecd 4aeb
00000020: e37f ede5 03d4 04c7 e27f beae a304 0135
00000030: 81b8 96da fd6c 14c6 18e2 7fd2 bd24 04bb
00000040: b25f 3718 b781 e7dc a21f 12fa 7fba 3323
00000050: 6adf 40c0 867f d7ee d2d1 9330 f4f2 818a
00000060: e323 e687 6a81 cb16 7f5e 5a52 d61b 132d
00000070: 81d9 2754 7d8a 4fc0 e54f 20de 100d bb7f
00000080: 0219 1f53 812b d8e3 f807 067f 1ee1 eed4
00000090: 152b 81ef a6b3 ffeb 596a 3e49 7fdc 07ef
000000a0: 5802 c525 d8ae fa81 f108 68e1 e397 8134
000000b0: 90f8 373f 7f05 e4b9 1d7f 4900 bcc8 3e12
000000c0: a881 3aea 3c90 1cce 1ff0 e5b0 ee8a 1b81
000000d0: 4781 bf5c 184b 0cd0 e8c0 335e 41c1 3c81
000000e0: 5581 4255 0308 d768 2402 b107 e581 2398
000000f0: c91c 7f67 cb37 4d8e 051e 2fe3 bf22 747f
95 127 42 2 8 66 7 90
-8 66 -8 74 31 29 -127 -73
39 -94 -127 88 -31 36 -69 124
77 65 127 -112 30 -51 74 -21
-29 127 -19 -27 3 -44 4 -57
-30 127 -66 -82 -93 4 1 53
-127 -72 -106 -38 -3 108 20 -58
24 -30 127 -46 -67 36 4 -69
-78 95 55 24 -73 -127 -25 -36
-94 31 18 -6 127 -70 51 35
106 -33 64 -64 -122 127 -41 -18
-46 -47 -109 48 -12 -14 -127 -118
-29 35 -26 -121 106 -127 -53 22
127 94 90 82 -42 27 19 45
-127 -39 39 84 125 -118 79 -64
-27 79 32 -34 16 13 -69 127
2 25 31 83 -127 43 -40 -29
-8 7 6 127 30 -31 -18 -44
21 43 -127 -17 -90 -77 -1 -21
89 106 62 73 127 -36 7 -17
88 2 -59 37 -40 -82 -6 -127
-15 8 104 -31 -29 -105 -127 52
-112 -8 55 63 127 5 -28 -71
29 127 73 0 -68 -56 62 18
-88 -127 58 -22 60 -112 28 -50
31 -16 -27 -80 -18 -118 27 -127
71 -127 -65 92 24 75 12 -48
-24 -64 51 94 65 -63 60 -127
85 -127 66 85 3 8 -41 104
36 2 -79 7 -27 -127 35 -104
-55 28 127 103 -53 55 77 -114
5 30 47 -29 -65 34 116 127

sequential/model/block_7_depthwise_BN/FusedBatchNormV3;sequential/model/block_7_depthwise/depthwise;sequential/model/block_10_depthwise/depthwise i1 [1, 3, 3, 48]
00000000: d7fc f8fd e0c3 00db fecc fc1f e2f7 05db
00000010: 0509 f020 0aef 08db e4e7 0a09 13ee de08
00000020: 06fe fa1b 030b 0f20 fe0a fc0c 0d7f dd11
00000030: e017 eb20 f0b1 00c2 1f89 0401 c181 0b05
00000040: 8db0 7f05 7200 fd04 62e6 f4f8 22b9 1af6
00000050: ec01 f143 c1e5 c3dc 150f 37d2 fa15 2e05
00000060: e800 3110 dbf5 12ff 1d0b 09e0 d4f5 fefd
00000070: 12f2 e5d1 ff04 faeb d1e9 1bfe 06ff 03ff
00000080: fb05 ef13 fbff f81b fff8 0b0a f80b e9ec
00000090: f71a 08d5 8b0c 1081 33cb b87f 22f9 2df9
000000a0: f37f 187f 5e43 bdcc 81d9 d781 d4b9 9306
000000b0: e677 fe44 0540 fa7f 7ffd 48a7 bd08 486b
000000c0: e081 cb9c 7ffd 7f29 7f81 cbef 3d5d 7f7f
000000d0: d300 afe2 2a05 2f7f 057f 8153 7f7f 7f81
000000e0: 7f0d 8166 7f81 81d4 aa7f 817f cd2f 8107
000000f0: fe27 7f7f e5e9 f585 2298 7f9f 81f8 1306
-41 -4 -8 -3 -32 -61 0 -37
-2 -52 -4 31 -30 -9 5 -37
5 9 -16 32 10 -17 8 -37
-28 -25 10 9 19 -18 -34 8
6 -2 -6 27 3 11 15 32
-2 10 -4 12 13 127 -35 17
-32 23 -21 32 -16 -79 0 -62
31 -119 4 1 -63 -127 11 5
-115 -80 127 5 114 0 -3 4
98 -26 -12 -8 34 -71 26 -10
-20 1 -15 67 -63 -27 -61 -36
21 15 55 -46 -6 21 46 5
-24 0 49 16 -37 -11 18 -1
29 11 9 -32 -44 -11 -2 -3
18 -14 -27 -47 -1 4 -6 -21
-47 -23 27 -2 6 -1 3 -1
-5 5 -17 19 -5 -1 -8 27
-1 -8 11 10 -8 11 -23 -20
-9 26 8 -43 -117 12 16 -127
51 -53 -72 127 34 -7 45 -7
-13 127 24 127 94 67 -67 -52
-127 -39 -41 -127 -44 -71 -109 6
-26 119 -2 68 5 64 -6 127
127 -3 72 -89 -67 8 72 107
-32 -127 -53 -100 127 -3 127 41
127 -127 -53 -17 61 93 127 127
-45 0 -81 -30 42 5 47 127
5 127 -127 83 127 127 127 -127
127 13 -127 102 127 -127 -127 -44
-86 127 -127 127 -51 47 -127 7
-2 39 127 127 -27 -23 -11 -123
34 -104 127 -97 -127 -8 19 6

sequential/model/block_7_project/Conv2D i1 [8, 1, 1, 48]
00000000: e61d e302 ab0c c8de 1a1e b9e1 e004 3346
00000010: e1f8 f1ec ceda f408 fe1c 27ef 0023 2e14
00000020: e82a ffe9 230f f405 e5cb 7f1e e4e9 fdd3
00000030: e4d7 daf5 7df2 d1fd ddc5 2410 3920 f07f
00000040: 05ec ed12 ff00 d929 f904 00e8 ea01 09f6
00000050: 1df5 fd1f 1bd0 e829 f8c2 34ef ede8 f417
00000060: f516 03c0 ead7 e15e 20b6 c9e1 f2f3 1681
00000070: 32ec 18dd 45bc 373e 1f13 dbd0 caa8 bbf6
00000080: efcd 0a89 4ebf 0bc8 a0e7 48fb ec0c 04cc
00000090: 05da d11e db06 fb81 1f2d 17c9 9b15 e9f4
000000a0: 00dd 1aca f41d 240c 0309 2af1 1d1a df2b
000000b0: 25d6 1129 16be f8eb 1ed6 a109 f618 01db
000000c0: eadc 1ecc caa5 f06d 24b9 3407 7fc0 d2e5
000000d0: c21b 360a 1ae8 32d1 02e7 fd46 f0df 2339
000000e0: 2c43 1fd4 0836 e23f db2e 13d9 200a 1526
000000f0: e8fc f30f cf1d 1f24 e338 c94a a150 dd82
-26 29 -29 2 -85 12 -56 -34
26 30 -71 -31 -32 4 51 70
-31 -8 -15 -20 -50 -38 -12 8
-2 28 39 -17 0 35 46 20
-24 42 -1 -23 35 15 -12 5
-27 -53 127 30 -28 -23 -3 -45
-28 -41 -38 -11 125 -14 -47 -3
-35 -59 36 16 57 32 -16 127
5 -20 -19 18 -1 0 -39 41
-7 4 0 -24 -22 1 9 -10
29 -11 -3 31 27 -48 -24 41
-8 -62 52 -17 -19 -24 -12 23
-11 22 3 -64 -22 -41 -31 94
32 -74 -55 -31 -14 -13 22 -127
50 -20 24 -35 69 -68 55 62
31 19 -37 -48 -54 -88 -69 -10
-17 -51 10 -119 78 -65 11 -56
-96 -25 72 -5 -20 12 4 -52
5 -38 -47 30 -37 6 -5 -127
31 45 23 -55 -101 21 -23 -12
0 -35 26 -54 -12 29 36 12
3 9 42 -15 29 26 -33 43
37 -42 17 41 22 -66 -8 -21
30 -42 -95 9 -10 24 1 -37
-22 -36 30 -52 -54 -91 -16 109
36 -71 52 7 127 -64 -46 -27
-62 27 54 10 26 -24 50 -47
2 -25 -3 70 -16 -33 35 57
44 67 31 -44 8 54 -30 63
-37 46 19 -39 32 10 21 38
-24 -4 -13 15 -49 29 31 36
-29 56 -55 74 -95 80 -35 -126

sequential/model/block_8_expand/Conv2D i1 [48, 1, 1, 8]
00000000: f02e 1039 1c24 81e9 cdc1 3381 ffef 47b2
00000010: 9e73 810a d851 3724 27e4 cfbf b881 cd63
00000020: dba7 4faf fd7f 132f 02c3 a948 adcc 7fa3
00000030: 2d45 bd36 ff87 f181 7f04 1df7 b428 c4e9
00000040: bf9a 81e5 5b05 c255 811f 04db 1baf 3e66
00000050: 8f81 058c 263e dec9 265e 34b7 81d3 cca2
00000060: 81f0 d54d f5c3 5613 26b4 fb8d 7fa8 cfc4
00000070: fa81 02d3 37d7 8bd0 810e e2f6 071f 29dc
00000080: 79d4 fe7f 1ff3 f623 0a4d cf52 ea7f 67eb
00000090: 6c26 81df 2cc1 30e5 2183 3d7f 15f6 19a9
000000a0: 6439 3f7f 23bf 132a 8150 fbb8 a3ea 7231
000000b0: cd30 7cac 575e db7f d505 8165 d2b5 0e64
000000c0: 7f25 585f 1ac9 122d fd1b cb06 0b7f 42d1
000000d0: 5f3a 9f4e d981 178d 11bc 07af dcf5 7f33
000000e0: e0f5 81d7 b7c7 33be 7fac d0f9 fef5 a476
000000f0: 3c7f c4f0 ae09 e25c 81d2 23d5 44bb 16f0
-16 46 16 57 28 36 -127 -23
-51 -63 51 -127 -1 -17 71 -78
-98 115 -127 10 -40 81 55 36
39 -28 -49 -65 -72 -127 -51 99
-37 -89 79 -81 -3 127 19 47
2 -61 -87 72 -83 -52 127 -93
45 69 -67 54 -1 -121 -15 -127
127 4 29 -9 -76 40 -60 -23
-65 -102 -127 -27 91 5 -62 85
-127 31 4 -37 27 -81 62 102
-113 -127 5 -116 38 62 -34 -55
38 94 52 -73 -127 -45 -52 -94
-127 -16 -43 77 -11 -61 86 19
38 -76 -5 -115 127 -88 -49 -60
-6 -127 2 -45 55 -41 -117 -48
-127 14 -30 -10 7 31 41 -36
121 -44 -2 127 31 -13 -10 35
10 77 -49 82 -22 127 103 -21
108 38 -127 -33 44 -63 48 -27
33 -125 61 127 21 -10 25 -87
100 57 63 127 35 -65 19 42
-127 80 -5 -72 -93 -22 114 49
-51 48 124 -84 87 94 -37 127
-43 5 -127 101 -46 -75 14 100
127 37 88 95 26 -55 18 45
-3 27 -53 6 11 127 66 -47
95 58 -97 78 -39 -127 23 -115
17 -68 7 -81 -36 -11 127 51
-32 -11 -127 -41 -73 -57 51 -66
127 -84 -48 -7 -2 -11 -92 118
60 127 -60 -16 -82 9 -30 92
-127 -46 35 -43 68 -69 22 -16

sequential/model/block_8_depthwise_BN/FusedBatchNormV3;sequential/model/block_8_depthwise/depthwise;sequential/model/block_10_depthwise/depthwise i1 [1, 3, 3, 48]
00000000: f5fa b1e0 d013 f1fe c107 0703 db04 fa0b
00000010: f2f6 04ef f5f7 def1 fe57 0af8 e50b 1502
00000020: e735 380b fcaf 0229 fc7f f611 a229 c601
00000030: c01a e318 bb01 a2ed be2f f3e5 fda5 29fc
00000040: 989c 821e 94f9 ed03 e981 0df6 7f7f 57e6
00000050: ea81 7f6a 64c2 d8df 7fa3 afc1 d7f8 068f
00000060: e9f5 c612 f109 9b03 f2c6 1401 f9e5 1309
00000070: fae4 efe7 eaf4 faef 034d f7fb 0208 0812
00000080: fa47 4209 ffff 04fa a2bc fae3 de08 1b08
00000090: c38a b6a6 d24f f3e5 c97f d87f 9ee0 0118
000000a0: 16cb 2c03 8ed9 e4e2 8ef5 edef 2201 057f
000000b0: f734 dae4 7fbd d8e3 1135 ee7f af12 81a2
000000c0: 8117 de7f 8182 f47f b9f4 81e5 7fb8 817f
000000d0: e5e5 11b5 73f4 7f7f 10c5 7f81 39d8 7fa9
000000e0: 7fa9 a881 9181 7f81 6cc4 7f2d 5e7f 7d4f
000000f0: b77f 815b f97f 81fb 7f2e 7f01 ee8a 6202
-11 -6 -79 -32 -48 19 -15 -2
-63 7 7 3 -37 4 -6 11
-14 -10 4 -17 -11 -9 -34 -15
-2 87 10 -8 -27 11 21 2
-25 53 56 11 -4 -81 2 41
-4 127 -10 17 -94 41 -58 1
-64 26 -29 24 -69 1 -94 -19
-66 47 -13 -27 -3 -91 41 -4
-104 -100 -126 30 -108 -7 -19 3
-23 -127 13 -10 127 127 87 -26
-22 -127 127 106 100 -62 -40 -33
127 -93 -81 -63 -41 -8 6 -113
-23 -11 -58 18 -15 9 -101 3
-14 -58 20 1 -7 -27 19 9
-6 -28 -17 -25 -22 -12 -6 -17
3 77 -9 -5 2 8 8 18
-6 71 66 9 -1 -1 4 -6
-94 -68 -6 -29 -34 8 27 8
-61 -118 -74 -90 -46 79 -13 -27
-55 127 -40 127 -98 -32 1 24
22 -53 44 3 -114 -39 -28 -30
-114 -11 -19 -17 34 1 5 127
-9 52 -38 -28 127 -67 -40 -29
17 53 -18 127 -81 18 -127 -94
-127 23 -34 127 -127 -126 -12 127
-71 -12 -127 -27 127 -72 -127 127
-27 -27 17 -75 115 -12 127 127
16 -59 127 -127 57 -40 127 -87
127 -87 -88 -127 -111 -127 127 -127
108 -60 127 45 94 127 125 79
-73 127 -127 91 -7 127 -127 -5
127 46 127 1 -18 -118 98 2

sequential/model/block_8_project/Conv2D i1 [8, 1, 1, 48]
00000000: 1221 322a 0105 2155 5649 1eb6 c74c 0794
00000010: e11c 7f25 57cd dced 5d1a 2ef0 c2ee d50d
00000020: 491c dcdc 99e0 3912 faf1 ecdf a3bb 30dc
00000030: b003 7b1b eb3c 02ba 146f 42db 12ee 0126
00000040: 1f67 eb22 57b2 3e0b 32dc 464b 183c 7fc7
00000050: f1b0 1721 9bc9 581c 8f14 fe03 b6ec 94bf
00000060: 05d8 e008 ff52 e128 3e30 0cda e5cc f5f7
00000070: e8e1 945e 36ff 3e98 474c ba01 3ee8 caac
00000080: ff00 09e0 acfb 2bc7 73ee ef38 8127 e047
00000090: b837 7fe2 3ee6 31bf 36f4 01e8 3d40 07f5
000000a0: b24e e504 55ca d147 39fb 1455 1304 0ce4
000000b0: 4b2b 40f6 a8f1 203e 01e7 26e6 e807 f41c
000000c0: ec11 d3b0 1c18 eed2 0cd7 c84a 07f1 33b7
000000d0: 360d 06d4 04b9 dcc2 33e8 ec21 4009 b113
000000e0: 0f0f 254a d0f1 f4f4 f3ff f7f4 c381 5c36
000000f0: d917 429a 1a4f c84a 2eb5 1c31 ea06 1d45
18 33 50 42 1 5 33 85
86 73 30 -74 -57 76 7 -108
-31 28 127 37 87 -51 -36 -19
93 26 46 -16 -62 -18 -43 13
73 28 -36 -36 -103 -32 57 18
-6 -15 -20 -33 -93 -69 48 -36
-80 3 123 27 -21 60 2 -70
20 111 66 -37 18 -18 1 38
31 103 -21 34 87 -78 62 11
50 -36 70 75 24 60 127 -57
-15 -80 23 33 -101 -55 88 28
-113 20 -2 3 -74 -20 -108 -65
5 -40 -32 8 -1 82 -31 40
62 48 12 -38 -27 -52 -11 -9
-24 -31 -108 94 54 -1 62 -104
71 76 -70 1 62 -24 -54 -84
-1 0 9 -32 -84 -5 43 -57
115 -18 -17 56 -127 39 -32 71
-72 55 127 -30 62 -26 49 -65
54 -12 1 -24 61 64 7 -11
-78 78 -27 4 85 -54 -47 71
57 -5 20 85 19 4 12 -28
75 43 64 -10 -88 -15 32 62
1 -25 38 -26 -24 7 -12 28
-20 17 -45 -80 28 24 -18 -46
12 -41 -56 74 7 -15 51 -73
54 13 6 -44 4 -71 -36 -62
51 -24 -20 33 64 9 -79 19
15 15 37 74 -48 -15 -12 -12
-13 -1 -9 -12 -61 -127 92 54
-39 23 66 -102 26 79 -56 74
46 -75 28 49 -22 6 29 69

sequential/model/block_9_expand/Conv2D i1 [48, 1, 1, 8]
00000000: f510 207f 1b06 d3b1 7fd4 b819 54ce 0a37
00000010: b8f9 ca88 597f 41f5 13e9 4454 6d81 3b1b
00000020: 01dd 5c5d 0736 3681 e281 fb31 dce5 d1f7
00000030: fdb8 16f5 908c 8159 5c20 d801 cc3d d67f
00000040: 4e81 f9de 5500 04e9 247d 07bd 7f07 1ee2
00000050: 5381 246f 220f b73d 0530 ef4c 0d00 81bc
00000060: 3ca4 8fb7 fcca b17f 6a3f af7c cd81 d392
00000070: 7d87 0b7f bf1b 341f 207c c606 fe0b 237f
00000080: 7fe1 1b20 d52f db17 7f7f e543 d511 61e1
00000090: c07f 00f9 172e 73ad 1ccc 387f c519 eaf3
000000a0: 3700 1131 6081 06ab 44c2 fd71 057f fee4
000000b0: f1dd e3f1 620c 127f 4f1b 8155 ce01 0471
000000c0: 30fa 747f da47 8810 082f c713 217f 46d3
000000d0: c2de 61fb 2872 e47f e096 5132 816e d999
000000e0: bbb9 6881 16ae 2a86 cd90 81c4 d5dd c869
000000f0: 81db 440b 782f 8b49 f5f4 81e4 e613 f042
-11 16 32 127 27 6 -45 -79
127 -44 -72 25 84 -50 10 55
-72 -7 -54 -120 89 127 65 -11
19 -23 68 84 109 -127 59 27
1 -35 92 93 7 54 54 -127
-30 -127 -5 49 -36 -27 -47 -9
-3 -72 22 -11 -112 -116 -127 89
92 32 -40 1 -52 61 -42 127
78 -127 -7 -34 85 0 4 -23
36 125 7 -67 127 7 30 -30
83 -127 36 111 34 15 -73 61
5 48 -17 76 13 0 -127 -68
60 -92 -113 -73 -4 -54 -79 127
106 63 -81 124 -51 -127 -45 -110
125 -121 11 127 -65 27 52 31
32 124 -58 6 -2 11 35 127
127 -31 27 32 -43 47 -37 23
127 127 -27 67 -43 17 97 -31
-64 127 0 -7 23 46 115 -83
28 -52 56 127 -59 25 -22 -13
55 0 17 49 96 -127 6 -85
68 -62 -3 113 5 127 -2 -28
-15 -35 -29 -15 98 12 18 127
79 27 -127 85 -50 1 4 113
48 -6 116 127 -38 71 -120 16
8 47 -57 19 33 127 70 -45
-62 -34 97 -5 40 114 -28 127
-32 -106 81 50 -127 110 -39 -103
-69 -71 104 -127 22 -82 42 -122
-51 -112 -127 -60 -43 -35 -56 105
-127 -37 68 11 120 47 -117 73
-11 -12 -127 -28 -26 19 -16 66

sequential/model/block_9_depthwise_BN/FusedBatchNormV3;sequential/model/block_9_depthwise/depthwise;sequential/model/block_10_depthwise/depthwise i1 [1, 3, 3, 48]
00000000: fd03 2417 f4ea fa0e f037 169e 19d4 f10d
00000010: e2f0 2ef4 c4cc e429 81ff b23f f412 09d0
00000020: 0ba9 eee2 e71d 02da c9f5 f0e8 1616 f17f
00000030: 810b 00ae 0381 a1e6 c4e4 0291 0ef9 ffc8
00000040: 1981 331f 03be 813c dff2 b2ee 261f e6a6
00000050: 81ec da18 c78b 09c3 ed3f 0a1a 0664 ff46
00000060: 0a06 2f0d f7fd f2f0 c9fe f6d2 ec37 fbe1
00000070: ece2 46ed e1c9 fefa 3cfd a6ec f5fb 02d3
00000080: ddd6 dd13 f406 05fb 22fd fcea 0f7f 12c5
00000090: f95f 7f9a a8bb b27f 0e2d 7f81 fd81 de7f
000000a0: e1ad 5f03 1111 f07f c0df 8371 7f24 110b
000000b0: f0d6 da81 81c5 f2ed 22d4 62c9 16b5 db6e
000000c0: ac42 bbfc 7f02 7fd7 7f7f 876f 7f0a 7fcb
000000d0: 7fc7 817f 817f 32fb a87f 2981 1e7f 81c8
000000e0: 4f81 81f3 7e81 7f7f f47f e97f 81e9 7f50
000000f0: fb81 6a81 9fc4 94f5 07fe 05f3 2559 fd5a
-3 3 36 23 -12 -22 -6 14
-16 55 22 -98 25 -44 -15 13
-30 -16 46 -12 -60 -52 -28 41
-127 -1 -78 63 -12 18 9 -48
11 -87 -18 -30 -25 29 2 -38
-55 -11 -16 -24 22 22 -15 127
-127 11 0 -82 3 -127 -95 -26
-60 -28 2 -111 14 -7 -1 -56
25 -127 51 31 3 -66 -127 60
-33 -14 -78 -18 38 31 -26 -90
-127 -20 -38 24 -57 -117 9 -61
-19 63 10 26 6 100 -1 70
10 6 47 13 -9 -3 -14 -16
-55 -2 -10 -46 -20 55 -5 -31
-20 -30 70 -19 -31 -55 -2 -6
60 -3 -90 -20 -11 -5 2 -45
-35 -42 -35 19 -12 6 5 -5
34 -3 -4 -22 15 127 18 -59
-7 95 127 -102 -88 -69 -78 127
14 45 127 -127 -3 -127 -34 127
-31 -83 95 3 17 17 -16 127
-64 -33 -125 113 127 36 17 11
-16 -42 -38 -127 -127 -59 -14 -19
34 -44 98 -55 22 -75 -37 110
-84 66 -69 -4 127 2 127 -41
127 127 -121 111 127 10 127 -53
127 -57 -127 127 -127 127 50 -5
-88 127 41 -127 30 127 -127 -56
79 -127 -127 -13 126 -127 127 127
-12 127 -23 127 -127 -23 127 80
-5 -127 106 -127 -97 -60 -108 -11
7 -2 5 -13 37 89 -3 90

sequential/model/block_9_project/Conv2D i1 [8, 1, 1, 48]
00000000: da18 081f 03ec 1a19 1f71 26e0 4e0a 37d8
00000010: 5c37 f9f1 2350 30cd f104 d6d7 1c24 00da
00000020: 3117 30eb 2e81 cc6e e358 d3ff e6cd 1618
00000030: 2bc9 28fd 11d0 e112 da23 2130 8116 d729
00000040: 2f2a e5e9 0607 e9f4 121f e003 14ec e906
00000050: 5fef a312 bd1b ca34 1dde 28e7 48e8 b1fc
00000060: e7e3 1a34 1f05 ffff 050d 18f3 ccec 0cfb
00000070: 0c04 fa0e 07f7 f62e 09ea 37d7 ebf3 0c31
00000080: 0207 d81b 1428 ff02 ea7f 190e 0106 6a01
00000090: 14f3 f555 014b 1705 ebe9 094a f403 2114
000000a0: dd19 f557 1429 09e3 f7fd 14fa 4872 3f15
000000b0: 8129 07b2 becd e3e0 c975 0a13 c760 5cd3
000000c0: 1c4a eb18 1cd1 bde2 3a7f 0f1b e4ff d1ec
000000d0: c1ee eddf eef1 11f7 154b fa3e 08d3 2a07
000000e0: d60c 0fe6 cf1d 1220 bc60 ccfb 09fd 8efb
000000f0: 0016 b5b5 0b0e 121c fe01 cb19 11eb 10f1
-38 24 8 31 3 -20 26 25
31 113 38 -32 78 10 55 -40
92 55 -7 -15 35 80 48 -51
-15 4 -42 -41 28 36 0 -38
49 23 48 -21 46 -127 -52 110
-29 88 -45 -1 -26 -51 22 24
43 -55 40 -3 17 -48 -31 18
-38 35 33 48 -127 22 -41 41
47 42 -27 -23 6 7 -23 -12
18 31 -32 3 20 -20 -23 6
95 -17 -93 18 -67 27 -54 52
29 -34 40 -25 72 -24 -79 -4
-25 -29 26 52 31 5 -1 -1
5 13 24 -13 -52 -20 12 -5
12 4 -6 14 7 -9 -10 46
9 -22 55 -41 -21 -13 12 49
2 7 -40 27 20 40 -1 2
-22 127 25 14 1 6 106 1
20 -13 -11 85 1 75 23 5
-21 -23 9 74 -12 3 33 20
-35 25 -11 87 20 41 9 -29
-9 -3 20 -6 72 114 63 21
-127 41 7 -78 -66 -51 -29 -32
-55 117 10 19 -57 96 92 -45
28 74 -21 24 28 -47 -67 -30
58 127 15 27 -28 -1 -47 -20
-63 -18 -19 -33 -18 -15 17 -9
21 75 -6 62 8 -45 42 7
-42 12 15 -26 -49 29 18 32
-68 96 -52 -5 9 -3 -114 -5
0 22 -75 -75 11 14 18 28
-2 1 -53 25 17 -21 16 -15

sequential/model/block_10_expand/Conv2D i1 [48, 1, 1, 8]
00000000: c9a1 2734 2c40 e47f 440f 414c 8114 df08
00000010: 3581 a85c f2de 08b5 64f9 81b9 0204 c072
00000020: 0bde f6cf e7bb 7f1a 7fc8 170f 5dfe e114
00000030: 7f40 5a34 20ce ff1c 3207 0281 b1eb c8c2
00000040: 8105 5cfc 1d43 448b d7f8 7fd3 40ca 0ba4
00000050: a354 e10d 22e2 81d6 b377 6681 8584 e9fa
00000060: f64c d96d 81ea 232b f2c8 7ff5 c792 982d
00000070: 9e81 43a2 f2d5 c4e8 3009 812c c830 fa55
00000080: 6410 8101 6665 2d37 41ca 94db db82 8d7f
00000090: 81c9 b889 ce5a ebdd cbf9 ff7f 5116 363c
000000a0: 41e2 db4b 7f2a 2222 1c2e e663 150b 81ba
000000b0: e34e 849e 0fce cd7f 6508 5441 7fca 1cf8
000000c0: 5c43 92ee d92b db7f de90 d33b eae2 3681
000000d0: 81cd a6d0 ce32 f0e6 0e81 d05b da05 30ba
000000e0: 037f 24cf 0530 ec54 edf0 8104 c6d2 febe
000000f0: dc35 2316 fe81 cf58 3ad6 2d7f bd42 37b3
-55 -95 39 52 44 64 -28 127
68 15 65 76 -127 20 -33 8
53 -127 -88 92 -14 -34 8 -75
100 -7 -127 -71 2 4 -64 114
11 -34 -10 -49 -25 -69 127 26
127 -56 23 15 93 -2 -31 20
127 64 90 52 32 -50 -1 28
50 7 2 -127 -79 -21 -56 -62
-127 5 92 -4 29 67 68 -117
-41 -8 127 -45 64 -54 11 -92
-93 84 -31 13 34 -30 -127 -42
-77 119 102 -127 -123 -124 -23 -6
-10 76 -39 109 -127 -22 35 43
-14 -56 127 -11 -57 -110 -104 45
-98 -127 67 -94 -14 -43 -60 -24
48 9 -127 44 -56 48 -6 85
100 16 -127 1 102 101 45 55
65 -54 -108 -37 -37 -126 -115 127
-127 -55 -72 -119 -50 90 -21 -35
-53 -7 -1 127 81 22 54 60
65 -30 -37 75 127 42 34 34
28 46 -26 99 21 11 -127 -70
-29 78 -124 -98 15 -50 -51 127
101 8 84 65 127 -54 28 -8
92 67 -110 -18 -39 43 -37 127
-34 -112 -45 59 -22 -30 54 -127
-127 -51 -90 -48 -50 50 -16 -26
14 -127 -48 91 -38 5 48 -70
3 127 36 -49 5 48 -20 84
-19 -16 -127 4 -58 -46 -2 -66
-36 53 35 22 -2 -127 -49 88
58 -42 45 127 -67 66 55 -77
