src/lib/libtf/models/sky.tflite (tflite, 232184 bytes, 54 tensors)

sequential/model/Conv1/Conv2D i1 [8, 3, 3, 1]
0	0xc7	-57
1	0x32	50
2	0x09	9
3	0x81	-127
4	0x79	121
5	0x00	0
6	0xd6	-42
7	0x2e	46
8	0x00	0
9	0x39	57
10	0x7f	127
11	0x23	35
12	0xbc	-68
13	0xb1	-79
14	0xd4	-44
15	0x07	7
16	0xd7	-41
17	0x06	6
18	0x1f	31
19	0x1c	28
20	0xd1	-47
21	0x34	52
22	0x45	69
23	0x81	-127
24	0x15	21
25	0x20	32
26	0xc6	-58
27	0x2a	42
28	0x35	53
29	0x14	20
30	0x35	53
31	0x4a	74
32	0x1a	26
33	0xb0	-80
34	0x81	-127
35	0xc6	-58
36	0x04	4
37	0xcb	-53
38	0x2f	47
39	0x10	16
40	0x81	-127
41	0x70	112
42	0x05	5
43	0xdb	-37
44	0x20	32
45	0x02	2
46	0xc8	-56
47	0x00	0
48	0xff	-1
49	0x7f	127
50	0x02	2
51	0x01	1
52	0xb5	-75
53	0x00	0
54	0xf1	-15
55	0xad	-83
56	0xff	-1
57	0xe8	-24
58	0x81	-127
59	0xfa	-6
60	0xf2	-14
61	0xcb	-53
62	0x05	5
63	0x2c	44
64	0x81	-127
65	0x1e	30
66	0xed	-19
67	0xfd	-3
68	0xf5	-11
69	0xe8	-24
70	0x4b	75
71	0xf4	-12

sequential/model/expanded_conv_depthwise_BN/FusedBatchNormV3;sequential/model/expanded_conv_depthwise/depthwise;sequential/model/block_9_project/Conv2D i1 [1, 3, 3, 8]
0	0x00	0
1	0x01	1
2	0x0e	14
3	0x12	18
4	0x0a	10
5	0x00	0
6	0x09	9
7	0x1f	31
8	0x07	7
9	0x01	1
10	0xda	-38
11	0x7f	127
12	0xea	-22
13	0x01	1
14	0xfc	-4
15	0x1e	30
16	0xfc	-4
17	0xff	-1
18	0xf7	-9
19	0x12	18
20	0xfe	-2
21	0x01	1
22	0xfa	-6
23	0x15	21
24	0xfc	-4
25	0xff	-1
26	0x7f	127
27	0xe9	-23
28	0x7f	127
29	0xff	-1
30	0x91	-111
31	0x29	41
32	0x7f	127
33	0x81	-127
34	0x98	-104
35	0x06	6
36	0xa4	-92
37	0x7f	127
38	0xf2	-14
39	0x81	-127
40	0xe5	-27
41	0x03	3
42	0x10	16
43	0xeb	-21
44	0xff	-1
45	0x00	0
46	0x7f	127
47	0x27	39
48	0x02	2
49	0x01	1
50	0x0a	10
51	0x04	4
52	0x0a	10
53	0xff	-1
54	0x10	16
55	0x21	33
56	0x04	4
57	0x03	3
58	0xd4	-44
59	0xfe	-2
60	0xf2	-14
61	0x03	3
62	0xf6	-10
63	0x98	-104
64	0xfc	-4
65	0x00	0
66	0xf7	-9
67	0x00	0
68	0x00	0
69	0xff	-1
70	0xfa	-6
71	0x25	37

sequential/model/expanded_conv_project/Conv2D i1 [8, 1, 1, 8]
0	0xe8	-24
1	0xfd	-3
2	0xd3	-45
3	0xde	-34
4	0xed	-19
5	0x25	37
6	0x81	-127
7	0xf8	-8
8	0x12	18
9	0x5c	92
10	0xff	-1
11	0x7f	127
12	0x09	9
13	0xf9	-7
14	0xf6	-10
15	0xdc	-36
16	0x7f	127
17	0xfb	-5
18	0xdd	-35
19	0xc7	-57
20	0xbc	-68
21	0x2e	46
22	0x61	97
23	0xcb	-53
24	0x0b	11
25	0x81	-127
26	0x2a	42
27	0xad	-83
28	0x10	16
29	0xaa	-86
30	0x1b	27
31	0x3b	59
32	0x7f	127
33	0xfd	-3
34	0xc3	-61
35	0xf7	-9
36	0x1e	30
37	0xfc	-4
38	0x81	-127
39	0xd0	-48
40	0x03	3
41	0xdf	-33
42	0x04	4
43	0x25	37
44	0x03	3
45	0x81	-127
46	0xff	-1
47	0x0a	10
48	0x7f	127
49	0xe5	-27
50	0x72	114
51	0x02	2
52	0x6c	108
53	0xe2	-30
54	0xfc	-4
55	0x08	8
56	0x81	-127
57	0xfd	-3
58	0xa2	-94
59	0xfc	-4
60	0x9d	-99
61	0x08	8
62	0x21	33
63	0x07	7

sequential/model/block_1_expand/Conv2D i1 [48, 1, 1, 8]
0	0x99	-103
1	0x98	-104
2	0x16	22
3	0x81	-127
4	0xc3	-61
5	0xfd	-3
6	0xfc	-4
7	0xfe	-2
8	0x81	-127
9	0xf1	-15
10	0x62	98
11	0x00	0
12	0xcd	-51
13	0x17	23
14	0x03	3
15	0x11	17
16	0x16	22
17	0xf5	-11
18	0x15	21
19	0x7f	127
20	0x19	25
21	0xe6	-26
22	0xef	-17
23	0xfb	-5
24	0x95	-107
25	0xba	-70
26	0xe6	-26
27	0xf2	-14
28	0x27	39
29	0x7f	127
30	0xd3	-45
31	0xdc	-36
32	0xfa	-6
33	0xe2	-30
34	0xf8	-8
35	0xfe	-2
36	0xf7	-9
37	0x08	8
38	0x81	-127
39	0xba	-70
40	0xfe	-2
41	0xdd	-35
42	0xf2	-14
43	0xfe	-2
44	0xf5	-11
45	0x0a	10
46	0x81	-127
47	0xba	-70
48	0x7f	127
49	0x07	7
50	0x10	16
51	0xf5	-11
52	0xbd	-67
53	0x12	18
54	0x02	2
55	0xfb	-5
56	0x81	-127
57	0xe3	-29
58	0xf1	-15
59	0x05	5
60	0x44	68
61	0x0c	12
62	0xff	-1
63	0x0a	10
64	0x16	22
65	0x2a	42
66	0xf4	-12
67	0xf5	-11
68	0xe4	-28
69	0x81	-127
70	0x29	41
71	0x11	17
72	0x4c	76
73	0x15	21
74	0xf3	-13
75	0xfa	-6
76	0xe9	-23
77	0xfd	-3
78	0xf8	-8
79	0x7f	127
80	0x77	119
81	0xf5	-11
82	0x85	-123
83	0x09	9
84	0xa8	-88
85	0xf7	-9
86	0x2b	43
87	0x7f	127
88	0x81	-127
89	0x68	104
90	0x08	8
91	0xdb	-37
92	0x56	86
93	0xbc	-68
94	0x09	9
95	0x17	23
96	0x7f	127
97	0xdd	-35
98	0x95	-107
99	0x0d	13
100	0x34	52
101	0xfc	-4
102	0xf7	-9
103	0xeb	-21
104	0x7f	127
105	0x0a	10
106	0x0e	14
107	0xf3	-13
108	0xe3	-29
109	0x1b	27
110	0x08	8
111	0xf3	-13
112	0x85	-123
113	0xad	-83
114	0x60	96
115	0xe7	-25
116	0x49	73
117	0xf3	-13
118	0xd7	-41
119	0x81	-127
120	0x21	33
121	0x4b	75
122	0x01	1
123	0xfc	-4
124	0xf7	-9
125	0x81	-127
126	0xee	-18
127	0x08	8
128	0xf5	-11
129	0xbe	-66
130	0x0b	11
131	0x04	4
132	0x0b	11
133	0x7f	127
134	0x0c	12
135	0x06	6
136	0x20	32
137	0x82	-126
138	0xb7	-73
139	0xfa	-6
140	0xdd	-35
141	0x7f	127
142	0xc6	-58
143	0xf0	-16
144	0x29	41
145	0xee	-18
146	0xf1	-15
147	0xef	-17
148	0xed	-19
149	0x1b	27
150	0x7f	127
151	0xf3	-13
152	0xfb	-5
153	0x17	23
154	0xfe	-2
155	0x81	-127
156	0xf6	-10
157	0x23	35
158	0xfd	-3
159	0xf6	-10
160	0xb2	-78
161	0xe1	-31
162	0x4a	74
163	0x0a	10
164	0x38	56
165	0x65	101
166	0xfc	-4
167	0x81	-127
168	0xeb	-21
169	0xfa	-6
170	0x22	34
171	0xe7	-25
172	0xee	-18
173	0x0c	12
174	0x81	-127
175	0xb0	-80
176	0x46	70
177	0xf6	-10
178	0x08	8
179	0x7f	127
180	0xef	-17
181	0xf5	-11
182	0x38	56
183	0x28	40
184	0x7f	127
185	0xf3	-13
186	0x8b	-117
187	0xf6	-10
188	0x1d	29
189	0xe7	-25
190	0x0b	11
191	0x06	6
192	0xe0	-32
193	0x15	21
194	0x1c	28
195	0x22	34
196	0x0a	10
197	0x02	2
198	0x81	-127
199	0xab	-85
200	0x7f	127
201	0x0b	11
202	0xaa	-86
203	0x08	8
204	0x0e	14
205	0xfa	-6
206	0x06	6
207	0x1a	26
208	0xff	-1
209	0x36	54
210	0xe0	-32
211	0x81	-127
212	0xe4	-28
213	0x17	23
214	0x03	3
215	0xfe	-2
216	0x7f	127
217	0x13	19
218	0x92	-110
219	0xfd	-3
220	0x97	-105
221	0x2f	47
222	0x16	22
223	0x4f	79
224	0x81	-127
225	0xea	-22
226	0xeb	-21
227	0x11	17
228	0x37	55
229	0x0a	10
230	0xfe	-2
231	0x21	33
232	0xf8	-8
233	0x81	-127
234	0xf1	-15
235	0x83	-125
236	0xf6	-10
237	0x1b	27
238	0xef	-17
239	0xea	-22
240	0x01	1
241	0x5c	92
242	0x7f	127
243	0x22	34
244	0x25	37
245	0x98	-104
246	0x71	113
247	0x23	35
248	0xb5	-75
249	0xfb	-5
250	0x81	-127
251	0x2e	46
252	0x01	1
253	0xe9	-23
254	0x5e	94
255	0x67	103

sequential/model/block_1_depthwise_BN/FusedBatchNormV3;sequential/model/block_1_depthwise/depthwise;sequential/model/block_10_depthwise/depthwise i1 [1, 3, 3, 48]
0	0xe8	-24
1	0xab	-85
2	0x9b	-101
3	0x4b	75
4	0xaa	-86
5	0x04	4
6	0xa7	-89
7	0xb3	-77
8	0x3a	58
9	0x48	72
10	0x74	116
11	0xd7	-41
12	0x03	3
13	0x0a	10
14	0xae	-82
15	0xc2	-62
16	0x60	96
17	0xad	-83
18	0x20	32
19	0xd4	-44
20	0xec	-20
21	0x96	-106
22	0xdd	-35
23	0xb3	-77
24	0x56	86
25	0x5a	90
26	0x03	3
27	0x84	-124
28	0x04	4
29	0xd3	-45
30	0x3a	58
31	0x4f	79
32	0x31	49
33	0x46	70
34	0x43	67
35	0x16	22
36	0x5c	92
37	0x59	89
38	0x1e	30
39	0x0b	11
40	0x84	-124
41	0xf3	-13
42	0x1a	26
43	0x2a	42
44	0xd7	-41
45	0x32	50
46	0xdf	-33
47	0xa1	-95
48	0x58	88
49	0xf7	-9
50	0x24	36
51	0x4e	78
52	0x81	-127
53	0x2a	42
54	0xc4	-60
55	0x0a	10
56	0x65	101
57	0x6d	109
58	0x76	118
59	0x3f	63
60	0xf7	-9
61	0xb9	-71
62	0x81	-127
63	0x97	-105
64	0x77	119
65	0xdc	-36
66	0x66	102
67	0xb0	-80
68	0x95	-107
69	0x7f	127
70	0x7f	127
71	0x21	33
72	0x7f	127
73	0x5c	92
74	0x30	48
75	0x89	-119
76	0xb1	-79
77	0xcd	-51
78	0x99	-103
79	0x72	114
80	0x61	97
81	0x7f	127
82	0x63	99
83	0x66	102
84	0xef	-17
85	0x58	88
86	0x3e	62
87	0xb9	-71
88	0xa8	-88
89	0xaf	-81
90	0x0d	13
91	0xca	-54
92	0xc7	-57
93	0x69	105
94	0xd1	-47
95	0x66	102
96	0x6e	110
97	0xff	-1
98	0x39	57
99	0x42	66
100	0xb2	-78
101	0x0d	13
102	0xe3	-29
103	0xf8	-8
104	0x19	25
105	0x4d	77
106	0x01	1
107	0xe1	-31
108	0xb6	-74
109	0x03	3
110	0xd5	-43
111	0xd0	-48
112	0x25	37
113	0x55	85
114	0x37	55
115	0xf2	-14
116	0xbf	-65
117	0xe6	-26
118	0xad	-83
119	0x49	73
120	0x26	38
121	0x16	22
122	0x19	25
123	0xd3	-45
124	0xff	-1
125	0xd8	-40
126	0x18	24
127	0x2a	42
128	0x2e	46
129	0x5f	95
130	0x0a	10
131	0x3f	63
132	0xfb	-5
133	0x17	23
134	0x2f	47
135	0xf8	-8
136	0xca	-54
137	0xfd	-3
138	0x03	3
139	0x0a	10
140	0xec	-20
141	0x3f	63
142	0xf3	-13
143	0xfc	-4
144	0x27	39
145	0x81	-127
146	0x75	117
147	0x5b	91
148	0x5a	90
149	0xb8	-72
150	0x81	-127
151	0x81	-127
152	0x70	112
153	0x51	81
154	0x6a	106
155	0xce	-50
156	0x06	6
157	0xff	-1
158	0x95	-107
159	0xa5	-91
160	0x5e	94
161	0x7f	127
162	0x2c	44
163	0x98	-104
164	0xd7	-41
165	0x6e	110
166	0x20	32
167	0x81	-127
168	0x65	101
169	0x75	117
170	0x6e	110
171	0x82	-126
172	0xfd	-3
173	0x87	-121
174	0xb7	-73
175	0x5e	94
176	0x6d	109
177	0x00	0
178	0x66	102
179	0x37	55
180	0x21	33
181	0x76	118
182	0x38	56
183	0x00	0
184	0xf4	-12
185	0xe7	-25
186	0x63	99
187	0x60	96
188	0x92	-110
189	0x5a	90
190	0x92	-110
191	0x6f	111
192	0x7f	127
193	0xf6	-10
194	0x05	5
195	0x7f	127
196	0x7a	122
197	0x81	-127
198	0x9c	-100
199	0x06	6
200	0x7f	127
201	0x7f	127
202	0x7f	127
203	0x3a	58
204	0xe3	-29
205	0x81	-127
206	0x8a	-118
207	0x81	-127
208	0x7f	127
209	0x3e	62
210	0x7f	127
211	0x81	-127
212	0x81	-127
213	0x86	-122
214	0x97	-105
215	0x31	49
216	0x6e	110
217	0x7f	127
218	0x7f	127
219	0x81	-127
220	0x81	-127
221	0x81	-127
222	0x7f	127
223	0x7f	127
224	0x7f	127
225	0x05	5
226	0x7f	127
227	0x7f	127
228	0xfd	-3
229	0x7f	127
230	0x7f	127
231	0x81	-127
232	0x0a	10
233	0x81	-127
234	0x7c	124
235	0xad	-83
236	0x81	-127
237	0x7f	127
238	0x86	-122
239	0x81	-127
240	0x67	103
241	0xfb	-5
242	0x81	-127
243	0x49	73
244	0x58	88
245	0xc5	-59
246	0xd7	-41
247	0xf9	-7
248	0x15	21
249	0x52	82
250	0x0b	11
251	0xec	-20
252	0x81	-127
253	0x01	1
254	0xe2	-30
255	0xdd	-35

sequential/model/block_1_project/Conv2D i1 [8, 1, 1, 48]
0	0x31	49
1	0x6a	106
2	0xd8	-40
3	0x47	71
4	0xfe	-2
5	0xfb	-5
6	0xe9	-23
7	0x0a	10
8	0x3f	63
9	0xbf	-65
10	0x02	2
11	0xe6	-26
12	0x0a	10
13	0x08	8
14	0xdd	-35
15	0xcb	-53
16	0x01	1
17	0xed	-19
18	0x20	32
19	0x0f	15
20	0xc6	-58
21	0xe2	-30
22	0xde	-34
23	0x08	8
24	0x11	17
25	0x0f	15
26	0x1a	26
27	0xfe	-2
28	0x10	16
29	0x0b	11
30	0xeb	-21
31	0x1c	28
32	0xc1	-63
33	0x0c	12
34	0x71	113
35	0x81	-127
36	0xe9	-23
37	0x16	22
38	0xf4	-12
39	0x73	115
40	0xe3	-29
41	0x0e	14
42	0x0c	12
43	0xff	-1
44	0xf2	-14
45	0x25	37
46	0x19	25
47	0xd5	-43
48	0x00	0
49	0xd0	-48
50	0x23	35
51	0x34	52
52	0xf3	-13
53	0xf3	-13
54	0xed	-19
55	0xea	-22
56	0x2e	46
57	0xd4	-44
58	0x5d	93
59	0x2d	45
60	0x14	20
61	0x0a	10
62	0xd2	-46
63	0xae	-82
64	0x7f	127
65	0x2a	42
66	0x11	17
67	0x0a	10
68	0xb7	-73
69	0x21	33
70	0x25	37
71	0xf3	-13
72	0xcf	-49
73	0xa2	-94
74	0xe0	-32
75	0xcd	-51
76	0xf4	-12
77	0xc4	-60
78	0x2b	43
79	0xd7	-41
80	0xf5	-11
81	0xe9	-23
82	0xe1	-31
83	0x0c	12
84	0x05	5
85	0xed	-19
86	0x55	85
87	0xcd	-51
88	0xf3	-13
89	0x21	33
90	0xc3	-61
91	0x25	37
92	0x4d	77
93	0x40	64
94	0x0f	15
95	0x31	49
96	0x4d	77
97	0xe5	-27
98	0xf2	-14
99	0xf0	-16
100	0x6c	108
101	0x6e	110
102	0x3d	61
103	0x4c	76
104	0xe3	-29
105	0xfa	-6
106	0x01	1
107	0xe1	-31
108	0xf9	-7
109	0x2e	46
110	0x3b	59
111	0x1d	29
112	0xe6	-26
113	0xde	-34
114	0x3c	60
115	0xbc	-68
116	0xd7	-41
117	0xce	-50
118	0xd3	-45
119	0x3c	60
120	0xa3	-93
121	0xa2	-94
122	0x76	118
123	0x14	20
124	0x3c	60
125	0xbd	-67
126	0xc4	-60
127	0x14	20
128	0x81	-127
129	0x56	86
130	0x6a	106
131	0x13	19
132	0xf7	-9
133	0xfe	-2
134	0xfa	-6
135	0x12	18
136	0x1b	27
137	0x44	68
138	0x10	16
139	0xc2	-62
140	0xeb	-21
141	0x12	18
142	0x37	55
143	0xd3	-45
144	0x51	81
145	0xe1	-31
146	0x10	16
147	0xf5	-11
148	0x79	121
149	0x7e	126
150	0x1b	27
151	0x2f	47
152	0xdb	-37
153	0xe2	-30
154	0x1d	29
155	0x38	56
156	0x81	-127
157	0x2a	42
158	0x45	69
159	0x18	24
160	0x07	7
161	0x0b	11
162	0x4c	76
163	0x92	-110
164	0xa2	-94
165	0x12	18
166	0x23	35
167	0x5a	90
168	0x07	7
169	0xdd	-35
170	0x36	54
171	0x1c	28
172	0x31	49
173	0xc6	-58
174	0x02	2
175	0xf5	-11
176	0x89	-119
177	0x3f	63
178	0xc0	-64
179	0x86	-122
180	0x17	23
181	0xd9	-39
182	0x43	67
183	0xcd	-51
184	0x35	53
185	0xa0	-96
186	0x91	-111
187	0xe4	-28
188	0xc1	-63
189	0x2a	42
190	0xf2	-14
191	0x3f	63
192	0x25	37
193	0x2a	42
194	0xe3	-29
195	0xda	-38
196	0xf4	-12
197	0xf6	-10
198	0xed	-19
199	0xee	-18
200	0x04	4
201	0xfd	-3
202	0xf8	-8
203	0xf3	-13
204	0xdf	-33
205	0xec	-20
206	0x3f	63
207	0x33	51
208	0xd8	-40
209	0xef	-17
210	0xde	-34
211	0x2b	43
212	0x1e	30
213	0xf3	-13
214	0xf2	-14
215	0x04	4
216	0xcf	-49
217	0xd7	-41
218	0xfc	-4
219	0x35	53
220	0xf3	-13
221	0x0c	12
222	0xea	-22
223	0x1c	28
224	0xe1	-31
225	0xf0	-16
226	0x1a	26
227	0x81	-127
228	0xf7	-9
229	0x1a	26
230	0x0b	11
231	0x36	54
232	0x07	7
233	0xf4	-12
234	0xf5	-11
235	0xe8	-24
236	0x2b	43
237	0x02	2
238	0x56	86
239	0xeb	-21
240	0x44	68
241	0x3a	58
242	0xa4	-92
243	0x32	50
244	0x07	7
245	0x06	6
246	0xf8	-8
247	0x1e	30
248	0xac	-84
249	0xc4	-60
250	0xc5	-59
251	0xea	-22
252	0x23	35
253	0x15	21
254	0x2b	43
255	0x1a	26

sequential/model/block_2_expand/Conv2D i1 [48, 1, 1, 8]
0	0xf0	-16
1	0x20	32
2	0x0c	12
3	0x81	-127
4	0xa0	-96
5	0x06	6
6	0x1f	31
7	0x76	118
8	0x64	100
9	0x06	6
10	0xf3	-13
11	0xff	-1
12	0xa9	-87
13	0x31	49
14	0x7f	127
15	0x18	24
16	0xfb	-5
17	0x70	112
18	0xd9	-39
19	0xe4	-28
20	0xdd	-35
21	0x58	88
22	0xcf	-49
23	0x81	-127
24	0x3f	63
25	0xb8	-72
26	0xa8	-88
27	0x75	117
28	0x81	-127
29	0xd5	-43
30	0xfd	-3
31	0xe7	-25
32	0x27	39
33	0xc1	-63
34	0x2e	46
35	0xf0	-16
36	0x81	-127
37	0xfe	-2
38	0x32	50
39	0x1a	26
40	0xef	-17
41	0x32	50
42	0xf6	-10
43	0xa4	-92
44	0x81	-127
45	0xfc	-4
46	0xe1	-31
47	0x08	8
48	0x33	51
49	0xed	-19
50	0x24	36
51	0x1f	31
52	0x7f	127
53	0xe6	-26
54	0xf8	-8
55	0x86	-122
56	0x0f	15
57	0x22	34
58	0x15	21
59	0x7f	127
60	0x17	23
61	0xfa	-6
62	0xfe	-2
63	0x16	22
64	0x17	23
65	0x1a	26
66	0x0f	15
67	0xd3	-45
68	0x21	33
69	0x7f	127
70	0x0b	11
71	0xe4	-28
72	0x77	119
73	0x1d	29
74	0xf4	-12
75	0x13	19
76	0xc0	-64
77	0xcb	-53
78	0x7f	127
79	0x4d	77
80	0x02	2
81	0x44	68
82	0xb7	-73
83	0xdf	-33
84	0x03	3
85	0x7f	127
86	0x53	83
87	0xc6	-58
88	0xf0	-16
89	0xdd	-35
90	0x81	-127
91	0x62	98
92	0xc2	-62
93	0x1c	28
94	0xf3	-13
95	0x4b	75
96	0x9e	-98
97	0xab	-85
98	0x37	55
99	0x30	48
100	0x1e	30
101	0x81	-127
102	0xd5	-43
103	0x0a	10
104	0x27	39
105	0x21	33
106	0x20	32
107	0x33	51
108	0xc6	-58
109	0x7f	127
110	0x0e	14
111	0xd8	-40
112	0x07	7
113	0xa1	-95
114	0x06	6
115	0xfc	-4
116	0xc1	-63
117	0xb7	-73
118	0x81	-127
119	0x69	105
120	0xa9	-87
121	0x2a	42
122	0xfa	-6
123	0x05	5
124	0x5d	93
125	0xfe	-2
126	0x81	-127
127	0xd1	-47
128	0x5b	91
129	0x4e	78
130	0x9c	-100
131	0x81	-127
132	0x37	55
133	0x7a	122
134	0x6f	111
135	0x23	35
136	0x95	-107
137	0x78	120
138	0x81	-127
139	0x29	41
140	0xf6	-10
141	0xe9	-23
142	0x16	22
143	0x8f	-113
144	0x23	35
145	0xfc	-4
146	0xa5	-91
147	0x7f	127
148	0xf6	-10
149	0xdc	-36
150	0xd8	-40
151	0xc4	-60
152	0x75	117
153	0x10	16
154	0x0a	10
155	0x1e	30
156	0xd5	-43
157	0x08	8
158	0x7f	127
159	0x30	48
160	0x27	39
161	0xb7	-73
162	0xa7	-89
163	0x7f	127
164	0x30	48
165	0xe3	-29
166	0xe6	-26
167	0xc1	-63
168	0x16	22
169	0x32	50
170	0x7f	127
171	0x98	-104
172	0x2b	43
173	0xe5	-27
174	0x1c	28
175	0x9a	-102
176	0xaf	-81
177	0xdb	-37
178	0x81	-127
179	0x3a	58
180	0xe4	-28
181	0x21	33
182	0x06	6
183	0x79	121
184	0x4c	76
185	0x1a	26
186	0x20	32
187	0x29	41
188	0x81	-127
189	0x6c	108
190	0x3b	59
191	0xd6	-42
192	0xf5	-11
193	0x01	1
194	0x81	-127
195	0x4f	79
196	0xda	-38
197	0x1e	30
198	0x2b	43
199	0x42	66
200	0x2f	47
201	0xde	-34
202	0xb5	-75
203	0x7f	127
204	0x34	52
205	0xff	-1
206	0xdb	-37
207	0xf3	-13
208	0xb1	-79
209	0x17	23
210	0x7f	127
211	0x9e	-98
212	0xed	-19
213	0x1f	31
214	0x3e	62
215	0xf8	-8
216	0xbc	-68
217	0x50	80
218	0x7f	127
219	0x02	2
220	0x14	20
221	0xf6	-10
222	0x4a	74
223	0x12	18
224	0xca	-54
225	0xa0	-96
226	0x26	38
227	0x81	-127
228	0xec	-20
229	0x09	9
230	0xfc	-4
231	0xe7	-25
232	0xb2	-78
233	0xb2	-78
234	0xed	-19
235	0x57	87
236	0xf9	-7
237	0x81	-127
238	0xf3	-13
239	0x38	56
240	0x81	-127
241	0x30	48
242	0x71	113
243	0xe3	-29
244	0x28	40
245	0x25	37
246	0x40	64
247	0x19	25
248	0xc5	-59
249	0x32	50
250	0x54	84
251	0x81	-127
252	0xd3	-45
253	0x11	17
254	0x22	34
255	0x3d	61

sequential/model/block_2_depthwise_BN/FusedBatchNormV3;sequential/model/block_2_depthwise/depthwise;sequential/model/block_10_depthwise/depthwise i1 [1, 3, 3, 48]
0	0xf9	-7
1	0xd5	-43
2	0x28	40
3	0xe2	-30
4	0x7f	127
5	0xfe	-2
6	0xf7	-9
7	0xf3	-13
8	0xdf	-33
9	0x2a	42
10	0xf5	-11
11	0x08	8
12	0x41	65
13	0x0f	15
14	0x7f	127
15	0xd9	-39
16	0x0c	12
17	0xed	-19
18	0xe3	-29
19	0xf1	-15
20	0xdf	-33
21	0xed	-19
22	0xbf	-65
23	0x1a	26
24	0x87	-121
25	0x2c	44
26	0x19	25
27	0xd3	-45
28	0xf4	-12
29	0x11	17
30	0xee	-18
31	0xfd	-3
32	0xde	-34
33	0x1e	30
34	0x11	17
35	0x02	2
36	0x54	84
37	0x32	50
38	0x1e	30
39	0xf9	-7
40	0x41	65
41	0x0f	15
42	0xf4	-12
43	0xfb	-5
44	0x9a	-102
45	0xf7	-9
46	0xd8	-40
47	0xd9	-39
48	0x03	3
49	0x9d	-99
50	0xb9	-71
51	0xe1	-31
52	0xcb	-53
53	0xfe	-2
54	0x24	36
55	0x16	22
56	0x10	16
57	0xfd	-3
58	0x3e	62
59	0x7f	127
60	0xf6	-10
61	0x34	52
62	0xba	-70
63	0x7f	127
64	0xff	-1
65	0xbc	-68
66	0x27	39
67	0xce	-50
68	0xb4	-76
69	0x81	-127
70	0xae	-82
71	0x4f	79
72	0x81	-127
73	0xa7	-89
74	0x13	19
75	0x78	120
76	0x0e	14
77	0x21	33
78	0x7f	127
79	0x09	9
80	0x81	-127
81	0x90	-112
82	0xcf	-49
83	0x26	38
84	0x7f	127
85	0xa8	-88
86	0x75	117
87	0x0a	10
88	0x38	56
89	0xf6	-10
90	0xea	-22
91	0xf3	-13
92	0xc9	-55
93	0xf0	-16
94	0x46	70
95	0x00	0
96	0x0c	12
97	0xf0	-16
98	0xf3	-13
99	0x7f	127
100	0x2f	47
101	0x09	9
102	0xb1	-79
103	0xfe	-2
104	0xe6	-26
105	0xd5	-43
106	0xe9	-23
107	0xed	-19
108	0x34	52
109	0xfd	-3
110	0xc2	-62
111	0xd2	-46
112	0x17	23
113	0x15	21
114	0xfb	-5
115	0xf6	-10
116	0x00	0
117	0x00	0
118	0xe2	-30
119	0x0f	15
120	0xcf	-49
121	0xbe	-66
122	0xe4	-28
123	0x27	39
124	0xfe	-2
125	0x1c	28
126	0xa7	-89
127	0xf8	-8
128	0x0d	13
129	0x48	72
130	0x11	17
131	0x15	21
132	0x03	3
133	0x49	73
134	0x81	-127
135	0xff	-1
136	0x1a	26
137	0xfc	-4
138	0xf8	-8
139	0x1a	26
140	0x81	-127
141	0xff	-1
142	0xc8	-56
143	0x2d	45
144	0x91	-111
145	0xbf	-65
146	0x7f	127
147	0xf9	-7
148	0xd5	-43
149	0xdd	-35
150	0x4f	79
151	0x12	18
152	0x12	18
153	0x5e	94
154	0x09	9
155	0x0f	15
156	0x2e	46
157	0x1b	27
158	0x6a	106
159	0x1e	30
160	0x1e	30
161	0x81	-127
162	0x61	97
163	0x29	41
164	0x51	81
165	0xf7	-9
166	0x35	53
167	0xda	-38
168	0xf6	-10
169	0xea	-22
170	0x23	35
171	0xcd	-51
172	0x17	23
173	0x33	51
174	0x24	36
175	0x37	55
176	0x24	36
177	0x9b	-101
178	0x03	3
179	0x7f	127
180	0x0a	10
181	0x2a	42
182	0xd5	-43
183	0x8c	-116
184	0x18	24
185	0x5a	90
186	0xee	-18
187	0xab	-85
188	0x1f	31
189	0xac	-84
190	0xc3	-61
191	0x13	19
192	0x7f	127
193	0xbd	-67
194	0xb8	-72
195	0xb6	-74
196	0x01	1
197	0x81	-127
198	0x7f	127
199	0x7f	127
200	0x7f	127
201	0x11	17
202	0x7f	127
203	0xd6	-42
204	0x81	-127
205	0x16	22
206	0xd8	-40
207	0xd4	-44
208	0x7f	127
209	0x90	-112
210	0x7f	127
211	0x7f	127
212	0x7f	127
213	0x52	82
214	0x7f	127
215	0x81	-127
216	0x00	0
217	0xe5	-27
218	0x6a	106
219	0xeb	-21
220	0x7f	127
221	0x7f	127
222	0x83	-125
223	0x7f	127
224	0x1f	31
225	0x81	-127
226	0x7f	127
227	0x9b	-101
228	0xbe	-66
229	0x7f	127
230	0x9d	-99
231	0x7b	123
232	0x81	-127
233	0x81	-127
234	0x7f	127
235	0x81	-127
236	0x67	103
237	0x81	-127
238	0x7f	127
239	0x82	-126
240	0xf5	-11
241	0x94	-108
242	0x0d	13
243	0x4c	76
244	0xe4	-28
245	0xf7	-9
246	0xd2	-46
247	0x0a	10
248	0xf2	-14
249	0x81	-127
250	0xdf	-33
251	0x31	49
252	0x4e	78
253	0x0a	10
254	0xc6	-58
255	0x2c	44

sequential/model/block_2_project/Conv2D i1 [8, 1, 1, 48]
0	0x26	38
1	0xd1	-47
2	0x65	101
3	0x43	67
4	0x1d	29
5	0xd9	-39
6	0x17	23
7	0x09	9
8	0xfd	-3
9	0x38	56
10	0xe1	-31
11	0x0f	15
12	0xd0	-48
13	0xae	-82
14	0x28	40
15	0x04	4
16	0x95	-107
17	0x41	65
18	0xde	-34
19	0x44	68
20	0xd5	-43
21	0x46	70
22	0x02	2
23	0xe3	-29
24	0xff	-1
25	0xd3	-45
26	0x42	66
27	0xe4	-28
28	0xe8	-24
29	0x19	25
30	0xe0	-32
31	0x69	105
32	0xc2	-62
33	0xf6	-10
34	0xdf	-33
35	0xad	-83
36	0xc2	-62
37	0xd2	-46
38	0xda	-38
39	0xf4	-12
40	0xf5	-11
41	0x3c	60
42	0x81	-127
43	0x0a	10
44	0x37	55
45	0x18	24
46	0x1b	27
47	0x35	53
48	0xc9	-55
49	0xe0	-32
50	0x3c	60
51	0xfa	-6
52	0xe5	-27
53	0x1e	30
54	0xdc	-36
55	0xe2	-30
56	0x2e	46
57	0xf6	-10
58	0xfe	-2
59	0xe2	-30
60	0xef	-17
61	0x0f	15
62	0x01	1
63	0x14	20
64	0x01	1
65	0x15	21
66	0x0f	15
67	0xf5	-11
68	0xc6	-58
69	0xe4	-28
70	0xb8	-72
71	0xe9	-23
72	0x17	23
73	0xdb	-37
74	0xe2	-30
75	0xdf	-33
76	0x16	22
77	0xb9	-71
78	0xf8	-8
79	0x81	-127
80	0xf9	-7
81	0xc6	-58
82	0xbd	-67
83	0xbb	-69
84	0xd8	-40
85	0xac	-84
86	0xe9	-23
87	0x15	21
88	0x29	41
89	0xf0	-16
90	0x51	81
91	0x97	-105
92	0xcd	-51
93	0xf0	-16
94	0xe8	-24
95	0xfa	-6
96	0xc4	-60
97	0x5d	93
98	0xf9	-7
99	0x26	38
100	0x10	16
101	0x0b	11
102	0x16	22
103	0xdb	-37
104	0x4c	76
105	0xd4	-44
106	0x47	71
107	0x53	83
108	0x64	100
109	0x10	16
110	0x20	32
111	0xc6	-58
112	0x61	97
113	0x01	1
114	0x07	7
115	0x1c	28
116	0xf3	-13
117	0x14	20
118	0x0e	14
119	0x7f	127
120	0x90	-112
121	0xd5	-43
122	0x09	9
123	0xeb	-21
124	0xff	-1
125	0x53	83
126	0xeb	-21
127	0xa9	-87
128	0xec	-20
129	0x02	2
130	0x05	5
131	0xb1	-79
132	0xe8	-24
133	0x08	8
134	0xda	-38
135	0xef	-17
136	0x57	87
137	0xac	-84
138	0x17	23
139	0xfb	-5
140	0x1d	29
141	0x87	-121
142	0x00	0
143	0xf1	-15
144	0x3d	61
145	0xed	-19
146	0xc2	-62
147	0x20	32
148	0x55	85
149	0xad	-83
150	0x03	3
151	0x88	-120
152	0xde	-34
153	0xf8	-8
154	0xc4	-60
155	0xa7	-89
156	0xeb	-21
157	0x7f	127
158	0xf4	-12
159	0x14	20
160	0xd3	-45
161	0xf0	-16
162	0xbd	-67
163	0xd0	-48
164	0x20	32
165	0x53	83
166	0xf6	-10
167	0xca	-54
168	0x71	113
169	0x2c	44
170	0x35	53
171	0xba	-70
172	0x20	32
173	0xa2	-94
174	0x35	53
175	0xbf	-65
176	0x37	55
177	0x40	64
178	0x71	113
179	0xb5	-75
180	0xd2	-46
181	0x12	18
182	0xe1	-31
183	0x2d	45
184	0x17	23
185	0x57	87
186	0xb0	-80
187	0x1d	29
188	0xfd	-3
189	0x1a	26
190	0x08	8
191	0x26	38
192	0xca	-54
193	0x1f	31
194	0xd5	-43
195	0x45	69
196	0x5e	94
197	0xe3	-29
198	0x1d	29
199	0xd3	-45
200	0xd9	-39
201	0xfb	-5
202	0xc2	-62
203	0x22	34
204	0xd3	-45
205	0xf0	-16
206	0x04	4
207	0xc4	-60
208	0x0b	11
209	0x3f	63
210	0xe0	-32
211	0xd7	-41
212	0xd5	-43
213	0x25	37
214	0xba	-70
215	0xc0	-64
216	0x13	19
217	0xf6	-10
218	0x14	20
219	0xda	-38
220	0x21	33
221	0xda	-38
222	0xe1	-31
223	0x3e	62
224	0xf9	-7
225	0x4d	77
226	0xb9	-71
227	0xb5	-75
228	0xc1	-63
229	0xc1	-63
230	0xdb	-37
231	0xff	-1
232	0x42	66
233	0xca	-54
234	0x7f	127
235	0x16	22
236	0x01	1
237	0x56	86
238	0xc8	-56
239	0xcc	-52
240	0x36	54
241	0x08	8
242	0x53	83
243	0xf8	-8
244	0xfa	-6
245	0x13	19
246	0x35	53
247	0x20	32
248	0x7f	127
249	0xfe	-2
250	0x45	69
251	0x01	1
252	0x48	72
253	0x36	54
254	0x1b	27
255	0xc3	-61

sequential/model/block_3_expand/Conv2D i1 [48, 1, 1, 8]
0	0x29	41
1	0x16	22
2	0xcf	-49
3	0x05	5
4	0xd6	-42
5	0x37	55
6	0x81	-127
7	0x1b	27
8	0x04	4
9	0xc1	-63
10	0x82	-126
11	0xfd	-3
12	0xf7	-9
13	0xea	-22
14	0x7f	127
15	0x93	-109
16	0x81	-127
17	0xce	-50
18	0xb7	-73
19	0xce	-50
20	0xde	-34
21	0x37	55
22	0x81	-127
23	0xfa	-6
24	0xc7	-57
25	0xdc	-36
26	0x11	17
27	0xf4	-12
28	0xe8	-24
29	0x81	-127
30	0x94	-108
31	0xec	-20
32	0xd3	-45
33	0x81	-127
34	0xd2	-46
35	0x12	18
36	0x3d	61
37	0x16	22
38	0xd7	-41
39	0xd5	-43
40	0x4c	76
41	0xdd	-35
42	0x5d	93
43	0x36	54
44	0x81	-127
45	0x3f	63
46	0xb2	-78
47	0x96	-106
48	0x26	38
49	0x81	-127
50	0xbf	-65
51	0xe0	-32
52	0xf3	-13
53	0x41	65
54	0xd3	-45
55	0xac	-84
56	0xe6	-26
57	0xa9	-87
58	0xc6	-58
59	0xc0	-64
60	0x49	73
61	0x81	-127
62	0x01	1
63	0x16	22
64	0x22	34
65	0x41	65
66	0x30	48
67	0x3d	61
68	0x22	34
69	0xcf	-49
70	0xfa	-6
71	0x7f	127
72	0xe6	-26
73	0xc7	-57
74	0xcc	-52
75	0x08	8
76	0x2d	45
77	0xf0	-16
78	0x7f	127
79	0xf4	-12
80	0xe1	-31
81	0x13	19
82	0x81	-127
83	0x16	22
84	0x17	23
85	0x14	20
86	0x63	99
87	0x92	-110
88	0x04	4
89	0xdd	-35
90	0xde	-34
91	0x01	1
92	0x81	-127
93	0x13	19
94	0x04	4
95	0x35	53
96	0x5d	93
97	0x3f	63
98	0xea	-22
99	0x27	39
100	0xb1	-79
101	0x7f	127
102	0x53	83
103	0xf6	-10
104	0xd1	-47
105	0xfb	-5
106	0x14	20
107	0xec	-20
108	0x2a	42
109	0x81	-127
110	0xfc	-4
111	0x45	69
112	0x98	-104
113	0xcf	-49
114	0x0a	10
115	0x25	37
116	0x0b	11
117	0x45	69
118	0x84	-124
119	0x81	-127
120	0x3d	61
121	0x55	85
122	0x2f	47
123	0x03	3
124	0x81	-127
125	0x2a	42
126	0x72	114
127	0xca	-54
128	0xfd	-3
129	0xc9	-55
130	0x05	5
131	0x4a	74
132	0xf7	-9
133	0xbb	-69
134	0x07	7
135	0x81	-127
136	0xb0	-80
137	0x7f	127
138	0x1b	27
139	0xf3	-13
140	0xc1	-63
141	0xcf	-49
142	0xac	-84
143	0xaf	-81
144	0x60	96
145	0x7f	127
146	0xa9	-87
147	0x9d	-99
148	0x5d	93
149	0x66	102
150	0xa4	-92
151	0xae	-82
152	0xe4	-28
153	0x4f	79
154	0xf1	-15
155	0x0b	11
156	0x81	-127
157	0x07	7
158	0xba	-70
159	0x9e	-98
160	0x81	-127
161	0xfd	-3
162	0x06	6
163	0x0d	13
164	0x18	24
165	0x14	20
166	0x68	104
167	0x30	48
168	0xe1	-31
169	0xfc	-4
170	0x35	53
171	0x10	16
172	0xa4	-92
173	0x95	-107
174	0x81	-127
175	0x1a	26
176	0xfb	-5
177	0xdd	-35
178	0xd1	-47
179	0xfa	-6
180	0x81	-127
181	0x03	3
182	0x05	5
183	0x3c	60
184	0x3d	61
185	0x04	4
186	0xf0	-16
187	0xf2	-14
188	0x7f	127
189	0x3f	63
190	0xaa	-86
191	0x51	81
192	0x7f	127
193	0x0a	10
194	0xcd	-51
195	0x19	25
196	0xa6	-90
197	0x06	6
198	0x08	8
199	0xfb	-5
200	0x1e	30
201	0xc4	-60
202	0x40	64
203	0x6d	109
204	0xcf	-49
205	0x81	-127
206	0x1a	26
207	0x6c	108
208	0x16	22
209	0x7f	127
210	0x08	8
211	0x38	56
212	0x4f	79
213	0xed	-19
214	0x15	21
215	0xef	-17
216	0x81	-127
217	0x72	114
218	0x3e	62
219	0xed	-19
220	0x7b	123
221	0xbc	-68
222	0x01	1
223	0x5f	95
224	0xb6	-74
225	0xb7	-73
226	0xc5	-59
227	0xdd	-35
228	0x4f	79
229	0x81	-127
230	0x16	22
231	0xf0	-16
232	0xc9	-55
233	0xe7	-25
234	0x2f	47
235	0x29	41
236	0x7f	127
237	0xa2	-94
238	0xab	-85
239	0x48	72
240	0x7f	127
241	0x2f	47
242	0x8a	-118
243	0x99	-103
244	0xb3	-77
245	0xa8	-88
246	0xb4	-76
247	0xbb	-69
248	0x1a	26
249	0x03	3
250	0x27	39
251	0x40	64
252	0x81	-127
253	0x08	8
254	0x23	35
255	0x05	5

sequential/model/block_3_depthwise_BN/FusedBatchNormV3;sequential/model/block_3_depthwise/depthwise;sequential/model/block_10_depthwise/depthwise i1 [1, 3, 3, 48]
0	0x38	56
1	0xbe	-66
2	0xe1	-31
3	0x2a	42
4	0x59	89
5	0x29	41
6	0xbe	-66
7	0xa4	-92
8	0x0e	14
9	0x38	56
10	0x64	100
11	0xbe	-66
12	0xd3	-45
13	0x45	69
14	0x60	96
15	0x2e	46
16	0x41	65
17	0xb3	-77
18	0x42	66
19	0x51	81
20	0xa4	-92
21	0xa5	-91
22	0x2d	45
23	0x50	80
24	0xcc	-52
25	0xeb	-21
26	0x4e	78
27	0x4a	74
28	0x5e	94
29	0x5a	90
30	0xce	-50
31	0x3f	63
32	0x33	51
33	0xb9	-71
34	0x9a	-102
35	0xb4	-76
36	0x40	64
37	0xc6	-58
38	0x4b	75
39	0x07	7
40	0xab	-85
41	0x3d	61
42	0x2b	43
43	0xa6	-90
44	0x41	65
45	0x6d	109
46	0x49	73
47	0xc0	-64
48	0x54	84
49	0xab	-85
50	0xc0	-64
51	0x48	72
52	0x6f	111
53	0x32	50
54	0xb7	-73
55	0x96	-106
56	0x1c	28
57	0x49	73
58	0x6e	110
59	0xa0	-96
60	0xb4	-76
61	0x59	89
62	0x68	104
63	0x49	73
64	0x42	66
65	0x9f	-97
66	0x3f	63
67	0x66	102
68	0xab	-85
69	0x8a	-118
70	0x44	68
71	0x60	96
72	0xba	-70
73	0xc5	-59
74	0x6e	110
75	0x62	98
76	0x72	114
77	0x7f	127
78	0xbe	-66
79	0x54	84
80	0x42	66
81	0x9c	-100
82	0x81	-127
83	0xaf	-81
84	0x53	83
85	0xb2	-78
86	0x4c	76
87	0x1e	30
88	0x91	-111
89	0x4c	76
90	0x2d	45
91	0x9d	-99
92	0x5c	92
93	0x7c	124
94	0x50	80
95	0xad	-83
96	0x2a	42
97	0xdb	-37
98	0xd4	-44
99	0x1b	27
100	0x27	39
101	0x02	2
102	0xe8	-24
103	0xcc	-52
104	0x18	24
105	0x15	21
106	0x15	21
107	0xdc	-36
108	0xbf	-65
109	0x26	38
110	0x25	37
111	0x14	20
112	0x0a	10
113	0xec	-20
114	0x1d	29
115	0x17	23
116	0xf2	-14
117	0xb0	-80
118	0x1f	31
119	0x25	37
120	0xe4	-28
121	0xf6	-10
122	0x2e	46
123	0x23	35
124	0x2c	44
125	0x30	48
126	0xed	-19
127	0x0c	12
128	0x1d	29
129	0xc0	-64
130	0xbe	-66
131	0xce	-50
132	0x17	23
133	0xe0	-32
134	0x0f	15
135	0x13	19
136	0xdf	-33
137	0x1f	31
138	0x0b	11
139	0xe3	-29
140	0x21	33
141	0x1a	26
142	0x18	24
143	0xcf	-49
144	0x36	54
145	0xa8	-88
146	0xbe	-66
147	0x51	81
148	0x6f	111
149	0x54	84
150	0x8d	-115
151	0x90	-112
152	0x5a	90
153	0x64	100
154	0x6c	108
155	0xa8	-88
156	0xa6	-90
157	0x61	97
158	0x7f	127
159	0x4d	77
160	0x6f	111
161	0xa0	-96
162	0x33	51
163	0x77	119
164	0x92	-110
165	0x81	-127
166	0x50	80
167	0x6e	110
168	0x91	-111
169	0xb2	-78
170	0x70	112
171	0x5c	92
172	0x65	101
173	0x5d	93
174	0xab	-85
175	0x62	98
176	0x5f	95
177	0x88	-120
178	0xa1	-95
179	0x81	-127
180	0x57	87
181	0xa0	-96
182	0x76	118
183	0x4d	77
184	0x9b	-101
185	0x60	96
186	0x60	96
187	0x87	-121
188	0x5a	90
189	0x75	117
190	0x35	53
191	0xa7	-89
192	0x37	55
193	0x81	-127
194	0x81	-127
195	0x7f	127
196	0x7f	127
197	0x7f	127
198	0x81	-127
199	0x81	-127
200	0x7f	127
201	0x7f	127
202	0x7f	127
203	0x81	-127
204	0x81	-127
205	0x7f	127
206	0x78	120
207	0x7f	127
208	0x7f	127
209	0x81	-127
210	0x3a	58
211	0x7f	127
212	0x81	-127
213	0x81	-127
214	0x7f	127
215	0x7f	127
216	0x81	-127
217	0x81	-127
218	0x7f	127
219	0x7f	127
220	0x7f	127
221	0x71	113
222	0x81	-127
223	0x7f	127
224	0x7f	127
225	0x81	-127
226	0xa2	-94
227	0x88	-120
228	0x7f	127
229	0x81	-127
230	0x7f	127
231	0x7f	127
232	0x81	-127
233	0x7f	127
234	0x7f	127
235	0x81	-127
236	0x7f	127
237	0x7f	127
238	0x3c	60
239	0x81	-127
240	0xfc	-4
241	0xc3	-61
242	0xae	-82
243	0x3c	60
244	0x2e	46
245	0x23	35
246	0xc4	-60
247	0xcd	-51
248	0x3d	61
249	0x2a	42
250	0x1b	27
251	0xc2	-62
252	0xae	-82
253	0x2a	42
254	0x35	53
255	0x36	54

sequential/model/block_3_project/Conv2D i1 [8, 1, 1, 48]
0	0xee	-18
1	0xe4	-28
2	0x30	48
3	0xcd	-51
4	0x39	57
5	0x56	86
6	0x45	69
7	0x5e	94
8	0x6d	109
9	0xd1	-47
10	0xed	-19
11	0x3b	59
12	0xe4	-28
13	0xeb	-21
14	0x11	17
15	0xed	-19
16	0x2d	45
17	0x2b	43
18	0x0d	13
19	0xcb	-53
20	0xe2	-30
21	0x16	22
22	0xa8	-88
23	0xda	-38
24	0x20	32
25	0xf7	-9
26	0x16	22
27	0xb6	-74
28	0xdd	-35
29	0x1c	28
30	0x2c	44
31	0x18	24
32	0x19	25
33	0x30	48
34	0x40	64
35	0x10	16
36	0x78	120
37	0xca	-54
38	0xb3	-77
39	0x05	5
40	0xc9	-55
41	0xbd	-67
42	0xe1	-31
43	0x00	0
44	0xb8	-72
45	0xaa	-86
46	0x81	-127
47	0x3a	58
48	0xf5	-11
49	0x00	0
50	0xd8	-40
51	0x31	49
52	0x01	1
53	0x0c	12
54	0xd8	-40
55	0xef	-17
56	0xc7	-57
57	0x19	25
58	0x12	18
59	0x56	86
60	0xe3	-29
61	0x02	2
62	0xe6	-26
63	0x7f	127
64	0x27	39
65	0x3b	59
66	0x0b	11
67	0xe2	-30
68	0xd5	-43
69	0xeb	-21
70	0xbd	-67
71	0x15	21
72	0x0d	13
73	0xf8	-8
74	0xef	-17
75	0xaa	-86
76	0x30	48
77	0xf6	-10
78	0xc7	-57
79	0xbe	-66
80	0x3e	62
81	0xe0	-32
82	0xdf	-33
83	0xc7	-57
84	0x21	33
85	0x24	36
86	0x34	52
87	0xd7	-41
88	0x06	6
89	0x45	69
90	0x32	50
91	0xd7	-41
92	0x00	0
93	0xdc	-36
94	0xcd	-51
95	0xea	-22
96	0x06	6
97	0xb9	-71
98	0xe5	-27
99	0xfb	-5
100	0xe1	-31
101	0x11	17
102	0x04	4
103	0x0b	11
104	0x6e	110
105	0x11	17
106	0xf9	-7
107	0xef	-17
108	0xe3	-29
109	0xb4	-76
110	0x25	37
111	0x08	8
112	0x01	1
113	0xc3	-61
114	0xe9	-23
115	0xfc	-4
116	0x9d	-99
117	0x32	50
118	0x06	6
119	0x1d	29
120	0x07	7
121	0x2e	46
122	0xdb	-37
123	0xe6	-26
124	0xec	-20
125	0xdb	-37
126	0x29	41
127	0xd1	-47
128	0x9d	-99
129	0x1d	29
130	0xce	-50
131	0x37	55
132	0xbd	-67
133	0x3c	60
134	0xec	-20
135	0xe9	-23
136	0x7f	127
137	0xec	-20
138	0xfd	-3
139	0x29	41
140	0x1e	30
141	0x28	40
142	0xc7	-57
143	0xdc	-36
144	0xe1	-31
145	0x8e	-114
146	0x60	96
147	0x3b	59
148	0x18	24
149	0x94	-108
150	0xee	-18
151	0xf2	-14
152	0x81	-127
153	0x7f	127
154	0x3d	61
155	0xcb	-53
156	0x36	54
157	0x0a	10
158	0xea	-22
159	0x15	21
160	0x3a	58
161	0x23	35
162	0xe3	-29
163	0x2e	46
164	0x4b	75
165	0x56	86
166	0x20	32
167	0xc1	-63
168	0x0c	12
169	0x57	87
170	0x40	64
171	0x20	32
172	0xe3	-29
173	0xb8	-72
174	0x0e	14
175	0x0e	14
176	0xe7	-25
177	0x06	6
178	0x35	53
179	0x0a	10
180	0xef	-17
181	0xad	-83
182	0xd8	-40
183	0x2b	43
184	0xe5	-27
185	0xf5	-11
186	0x15	21
187	0xbb	-69
188	0xae	-82
189	0x12	18
190	0x00	0
191	0x1a	26
192	0xf5	-11
193	0x37	55
194	0xef	-17
195	0x48	72
196	0x21	33
197	0x04	4
198	0x0a	10
199	0xfe	-2
200	0xca	-54
201	0x4e	78
202	0x2f	47
203	0x49	73
204	0x01	1
205	0x15	21
206	0x3d	61
207	0x0e	14
208	0x07	7
209	0x99	-103
210	0xf8	-8
211	0xf2	-14
212	0x59	89
213	0xf4	-12
214	0x9f	-97
215	0x3b	59
216	0x48	72
217	0xe9	-23
218	0x1e	30
219	0x1d	29
220	0x30	48
221	0x1a	26
222	0xf5	-11
223	0xca	-54
224	0xcc	-52
225	0x7f	127
226	0x03	3
227	0x10	16
228	0x3b	59
229	0xe7	-25
230	0x14	20
231	0x17	23
232	0xe6	-26
233	0x2b	43
234	0xff	-1
235	0xe8	-24
236	0x02	2
237	0xce	-50
238	0xe0	-32
239	0x13	19
240	0xe5	-27
241	0x01	1
242	0xf8	-8
243	0xb8	-72
244	0x81	-127
245	0x21	33
246	0x76	118
247	0x1b	27
248	0x0d	13
249	0x3c	60
250	0xe6	-26
251	0xe4	-28
252	0x96	-106
253	0xf8	-8
254	0x3b	59
255	0xdf	-33

sequential/model/block_4_expand/Conv2D i1 [48, 1, 1, 8]
0	0xb0	-80
1	0x81	-127
2	0xde	-34
3	0x1c	28
4	0xdd	-35
5	0xf5	-11
6	0x34	52
7	0xcf	-49
8	0xf4	-12
9	0x7f	127
10	0x2c	44
11	0xac	-84
12	0x05	5
13	0xa8	-88
14	0xb8	-72
15	0x5f	95
16	0x81	-127
17	0xbf	-65
18	0x24	36
19	0x08	8
20	0x45	69
21	0x04	4
22	0x1f	31
23	0xf1	-15
24	0x02	2
25	0xd8	-40
26	0x81	-127
27	0xc6	-58
28	0x22	34
29	0xce	-50
30	0xde	-34
31	0x37	55
32	0xc4	-60
33	0x8e	-114
34	0x66	102
35	0xe8	-24
36	0x7f	127
37	0xc7	-57
38	0x37	55
39	0x02	2
40	0xea	-22
41	0x42	66
42	0x36	54
43	0xa3	-93
44	0x65	101
45	0x22	34
46	0xcb	-53
47	0x7f	127
48	0x81	-127
49	0x64	100
50	0x36	54
51	0x4a	74
52	0xcc	-52
53	0x01	1
54	0x2b	43
55	0x82	-126
56	0x29	41
57	0xf0	-16
58	0x3b	59
59	0x1d	29
60	0x34	52
61	0x81	-127
62	0xfc	-4
63	0x68	104
64	0xf9	-7
65	0x46	70
66	0xf5	-11
67	0xdc	-36
68	0x14	20
69	0x6c	108
70	0x7f	127
71	0xb8	-72
72	0x52	82
73	0x7f	127
74	0x0a	10
75	0xba	-70
76	0xae	-82
77	0xbd	-67
78	0xc9	-55
79	0x75	117
80	0x1f	31
81	0xf7	-9
82	0x1e	30
83	0x02	2
84	0xeb	-21
85	0x23	35
86	0x81	-127
87	0xb1	-79
88	0xbb	-69
89	0x0e	14
90	0x98	-104
91	0xb8	-72
92	0x7f	127
93	0x15	21
94	0x26	38
95	0x38	56
96	0x55	85
97	0x24	36
98	0xe5	-27
99	0xfb	-5
100	0x7f	127
101	0x5b	91
102	0x0d	13
103	0x06	6
104	0x81	-127
105	0x87	-121
106	0xf8	-8
107	0x37	55
108	0x9d	-99
109	0x2f	47
110	0x44	68
111	0x09	9
112	0xf6	-10
113	0x68	104
114	0xa6	-90
115	0x7f	127
116	0xc7	-57
117	0x7d	125
118	0xf0	-16
119	0x22	34
120	0xef	-17
121	0xac	-84
122	0xdd	-35
123	0xa3	-93
124	0x7f	127
125	0x41	65
126	0xdf	-33
127	0x3f	63
128	0x44	68
129	0xac	-84
130	0x01	1
131	0x2d	45
132	0x25	37
133	0xf1	-15
134	0x22	34
135	0x81	-127
136	0xac	-84
137	0xac	-84
138	0x81	-127
139	0x64	100
140	0x09	9
141	0x61	97
142	0x4a	74
143	0x95	-107
144	0x50	80
145	0xf5	-11
146	0x7f	127
147	0x0a	10
148	0xde	-34
149	0x8d	-115
150	0xaf	-81
151	0xdd	-35
152	0xe9	-23
153	0x7f	127
154	0x1d	29
155	0x1e	30
156	0x62	98
157	0x8b	-117
158	0xbc	-68
159	0xdd	-35
160	0xbc	-68
161	0xf3	-13
162	0x81	-127
163	0xd8	-40
164	0x22	34
165	0xf9	-7
166	0xfd	-3
167	0xfc	-4
168	0x81	-127
169	0xea	-22
170	0x2e	46
171	0x40	64
172	0xa6	-90
173	0x8b	-117
174	0x78	120
175	0xd1	-47
176	0x37	55
177	0xf8	-8
178	0x81	-127
179	0xba	-70
180	0xdb	-37
181	0xf7	-9
182	0xfa	-6
183	0x34	52
184	0xe3	-29
185	0x22	34
186	0x7f	127
187	0xe9	-23
188	0xa4	-92
189	0x25	37
190	0xf6	-10
191	0x9b	-101
192	0xa7	-89
193	0x65	101
194	0x54	84
195	0x6d	109
196	0x7f	127
197	0x5f	95
198	0x00	0
199	0xd8	-40
200	0xcc	-52
201	0x81	-127
202	0xb7	-73
203	0x24	36
204	0xc1	-63
205	0x25	37
206	0x33	51
207	0xfd	-3
208	0x66	102
209	0x78	120
210	0x81	-127
211	0xc3	-61
212	0x87	-121
213	0xe6	-26
214	0xbf	-65
215	0x25	37
216	0x3a	58
217	0x36	54
218	0xc0	-64
219	0x15	21
220	0x81	-127
221	0x13	19
222	0xe1	-31
223	0xf2	-14
224	0xe7	-25
225	0x48	72
226	0x19	25
227	0xb4	-76
228	0x4d	77
229	0x63	99
230	0x81	-127
231	0x8a	-118
232	0x2a	42
233	0xfd	-3
234	0xff	-1
235	0xb6	-74
236	0x81	-127
237	0x05	5
238	0x11	17
239	0xc9	-55
240	0xa6	-90
241	0xfd	-3
242	0x28	40
243	0x7f	127
244	0x33	51
245	0x15	21
246	0xdb	-37
247	0xee	-18
248	0x0d	13
249	0x8a	-118
250	0xfe	-2
251	0xad	-83
252	0x81	-127
253	0x3a	58
254	0xc1	-63
255	0x8f	-113

sequential/model/block_4_depthwise_BN/FusedBatchNormV3;sequential/model/block_4_depthwise/depthwise;sequential/model/block_10_depthwise/depthwise i1 [1, 3, 3, 48]
0	0xc9	-55
1	0x01	1
2	0x24	36
3	0x0b	11
4	0x7f	127
5	0xce	-50
6	0x17	23
7	0x09	9
8	0x08	8
9	0x1c	28
10	0x47	71
11	0xf2	-14
12	0x06	6
13	0x10	16
14	0xbe	-66
15	0x0b	11
16	0x51	81
17	0xd5	-43
18	0xec	-20
19	0x47	71
20	0xdb	-37
21	0x0a	10
22	0xcc	-52
23	0xf5	-11
24	0xed	-19
25	0x00	0
26	0x1f	31
27	0xd4	-44
28	0xe4	-28
29	0x7f	127
30	0x19	25
31	0xab	-85
32	0xd2	-46
33	0x5e	94
34	0x64	100
35	0xb7	-73
36	0x06	6
37	0xcd	-51
38	0x81	-127
39	0xe2	-30
40	0x08	8
41	0xed	-19
42	0xf3	-13
43	0xba	-70
44	0xfe	-2
45	0xd2	-46
46	0x81	-127
47	0x19	25
48	0xbe	-66
49	0x62	98
50	0xfb	-5
51	0x23	35
52	0xf3	-13
53	0xac	-84
54	0x71	113
55	0xf0	-16
56	0x52	82
57	0x0c	12
58	0x54	84
59	0x7f	127
60	0x3c	60
61	0x7f	127
62	0xee	-18
63	0x1e	30
64	0x68	104
65	0xa7	-89
66	0x04	4
67	0x5f	95
68	0xd8	-40
69	0xe9	-23
70	0x67	103
71	0x95	-107
72	0x03	3
73	0x2c	44
74	0x95	-107
75	0x16	22
76	0xe4	-28
77	0xab	-85
78	0x71	113
79	0x81	-127
80	0x81	-127
81	0xa9	-87
82	0xfe	-2
83	0xe6	-26
84	0xc0	-64
85	0xde	-34
86	0x90	-112
87	0x13	19
88	0xc3	-61
89	0xe4	-28
90	0x12	18
91	0x81	-127
92	0x18	24
93	0xa5	-91
94	0x1f	31
95	0x32	50
96	0xea	-22
97	0xf8	-8
98	0x07	7
99	0xff	-1
100	0x30	48
101	0xce	-50
102	0x17	23
103	0xfe	-2
104	0x17	23
105	0x16	22
106	0x0a	10
107	0xd0	-48
108	0xf5	-11
109	0x02	2
110	0xc4	-60
111	0x19	25
112	0x3d	61
113	0xde	-34
114	0xf0	-16
115	0x48	72
116	0xe8	-24
117	0x00	0
118	0xc1	-63
119	0xfd	-3
120	0x16	22
121	0x00	0
122	0x1c	28
123	0x99	-103
124	0xdb	-37
125	0x32	50
126	0xcd	-51
127	0xb1	-79
128	0x09	9
129	0xf9	-7
130	0x58	88
131	0xcd	-51
132	0x0a	10
133	0xdd	-35
134	0xa3	-93
135	0x08	8
136	0x0e	14
137	0xfd	-3
138	0x01	1
139	0xca	-54
140	0xf3	-13
141	0xb9	-71
142	0x82	-126
143	0xea	-22
144	0x81	-127
145	0x7f	127
146	0xf7	-9
147	0xbd	-67
148	0x07	7
149	0xae	-82
150	0x0e	14
151	0xf9	-7
152	0x1c	28
153	0x10	16
154	0x40	64
155	0x27	39
156	0x4b	75
157	0x5b	91
158	0xc1	-63
159	0x24	36
160	0x7f	127
161	0x81	-127
162	0x0e	14
163	0x57	87
164	0xe9	-23
165	0xc8	-56
166	0x9c	-100
167	0xdd	-35
168	0x81	-127
169	0xf8	-8
170	0xdf	-33
171	0x0d	13
172	0xf5	-11
173	0x04	4
174	0x4d	77
175	0xbd	-67
176	0xc0	-64
177	0x7f	127
178	0x8d	-115
179	0xb1	-79
180	0x21	33
181	0xc0	-64
182	0x26	38
183	0x3e	62
184	0x97	-105
185	0x1e	30
186	0xb0	-80
187	0x35	53
188	0xf4	-12
189	0x81	-127
190	0x08	8
191	0xd5	-43
192	0x08	8
193	0x7d	125
194	0x7f	127
195	0x7f	127
196	0xd4	-44
197	0x69	105
198	0x81	-127
199	0x7f	127
200	0x7f	127
201	0x81	-127
202	0xa8	-88
203	0x49	73
204	0x7f	127
205	0x62	98
206	0x7f	127
207	0x8f	-113
208	0xcd	-51
209	0x99	-103
210	0x7f	127
211	0xfb	-5
212	0x81	-127
213	0x7f	127
214	0x7f	127
215	0x03	3
216	0x60	96
217	0x6f	111
218	0x48	72
219	0x7f	127
220	0x7f	127
221	0xb7	-73
222	0x7f	127
223	0x0c	12
224	0xc4	-60
225	0xa3	-93
226	0xd7	-41
227	0x81	-127
228	0x7f	127
229	0x7f	127
230	0x5e	94
231	0x3f	63
232	0xca	-54
233	0x7f	127
234	0xe5	-27
235	0x46	70
236	0x7f	127
237	0x2e	46
238	0xf9	-7
239	0x81	-127
240	0xb6	-74
241	0x46	70
242	0xe2	-30
243	0xcb	-53
244	0xc4	-60
245	0x88	-120
246	0x11	17
247	0xe9	-23
248	0xfa	-6
249	0x03	3
250	0x74	116
251	0x26	38
252	0x21	33
253	0x54	84
254	0xce	-50
255	0x7f	127

sequential/model/block_4_project/Conv2D i1 [8, 1, 1, 48]
0	0x2e	46
1	0x30	48
2	0xb1	-79
3	0x33	51
4	0x0d	13
5	0x16	22
6	0xa6	-90
7	0xe3	-29
8	0x06	6
9	0xeb	-21
10	0x00	0
11	0xdb	-37
12	0xf0	-16
13	0xff	-1
14	0x2c	44
15	0x05	5
16	0x2f	47
17	0xef	-17
18	0x2f	47
19	0xe9	-23
20	0x13	19
21	0xde	-34
22	0x29	41
23	0x01	1
24	0x0e	14
25	0xe6	-26
26	0xed	-19
27	0x12	18
28	0xf3	-13
29	0xff	-1
30	0xee	-18
31	0x00	0
32	0x2f	47
33	0x15	21
34	0x15	21
35	0x0e	14
36	0x7f	127
37	0x3b	59
38	0x20	32
39	0xe6	-26
40	0x03	3
41	0xec	-20
42	0xfa	-6
43	0xeb	-21
44	0x50	80
45	0x1e	30
46	0x14	20
47	0xd0	-48
48	0x41	65
49	0x1a	26
50	0x09	9
51	0xfb	-5
52	0x1e	30
53	0x5b	91
54	0xf3	-13
55	0xe9	-23
56	0x21	33
57	0x3d	61
58	0xdb	-37
59	0xb4	-76
60	0x71	113
61	0xef	-17
62	0x11	17
63	0x34	52
64	0x17	23
65	0x25	37
66	0x1e	30
67	0xa4	-92
68	0x7f	127
69	0xe8	-24
70	0x29	41
71	0x3a	58
72	0x2f	47
73	0x1e	30
74	0x2a	42
75	0x16	22
76	0x1e	30
77	0xbc	-68
78	0x3d	61
79	0x4e	78
80	0x3c	60
81	0x6e	110
82	0x0e	14
83	0x78	120
84	0x48	72
85	0x20	32
86	0x19	25
87	0x1c	28
88	0x57	87
89	0x10	16
90	0x26	38
91	0x23	35
92	0x19	25
93	0x31	49
94	0x73	115
95	0xb9	-71
96	0xeb	-21
97	0x0c	12
98	0x52	82
99	0x7f	127
100	0xce	-50
101	0x17	23
102	0xfe	-2
103	0x3c	60
104	0x22	34
105	0x4a	74
106	0x17	23
107	0xb2	-78
108	0xd9	-39
109	0x73	115
110	0x1a	26
111	0x2b	43
112	0xad	-83
113	0xa0	-96
114	0x50	80
115	0x05	5
116	0x01	1
117	0x3e	62
118	0xc6	-58
119	0xae	-82
120	0xe3	-29
121	0xd9	-39
122	0x1a	26
123	0xf8	-8
124	0x91	-111
125	0x15	21
126	0x02	2
127	0xf9	-7
128	0xdb	-37
129	0xe3	-29
130	0xa9	-87
131	0xd3	-45
132	0x12	18
133	0x1a	26
134	0xa7	-89
135	0xed	-19
136	0xe7	-25
137	0xc7	-57
138	0xdc	-36
139	0x17	23
140	0x47	71
141	0xb3	-77
142	0xe3	-29
143	0x1c	28
144	0xe6	-26
145	0x34	52
146	0xb1	-79
147	0xf5	-11
148	0x12	18
149	0xb0	-80
150	0x06	6
151	0x48	72
152	0x6a	106
153	0xac	-84
154	0xd6	-42
155	0x0b	11
156	0xf9	-7
157	0xec	-20
158	0x0c	12
159	0x40	64
160	0x17	23
161	0x09	9
162	0xf3	-13
163	0xe6	-26
164	0xfb	-5
165	0x16	22
166	0xb2	-78
167	0x26	38
168	0xe9	-23
169	0xe2	-30
170	0x26	38
171	0xf7	-9
172	0x40	64
173	0xdf	-33
174	0x2b	43
175	0xcb	-53
176	0x25	37
177	0xee	-18
178	0xe3	-29
179	0xce	-50
180	0x81	-127
181	0xfd	-3
182	0xaf	-81
183	0x12	18
184	0xe6	-26
185	0xc6	-58
186	0x26	38
187	0xfc	-4
188	0xca	-54
189	0x10	16
190	0xf6	-10
191	0xdc	-36
192	0x38	56
193	0xea	-22
194	0x24	36
195	0xea	-22
196	0xc2	-62
197	0x48	72
198	0x1b	27
199	0x44	68
200	0x83	-125
201	0xce	-50
202	0x37	55
203	0x2e	46
204	0x4d	77
205	0xc6	-58
206	0xb9	-71
207	0xbd	-67
208	0x5a	90
209	0x43	67
210	0x3e	62
211	0xe1	-31
212	0x12	18
213	0x9f	-97
214	0xed	-19
215	0x2e	46
216	0xdf	-33
217	0x03	3
218	0xcd	-51
219	0x81	-127
220	0xc8	-56
221	0xc6	-58
222	0x5f	95
223	0x29	41
224	0x55	85
225	0x03	3
226	0x70	112
227	0x5d	93
228	0x41	65
229	0x44	68
230	0x38	56
231	0x25	37
232	0x0a	10
233	0x27	39
234	0xcd	-51
235	0xe1	-31
236	0x58	88
237	0x48	72
238	0x5d	93
239	0xcc	-52
240	0x23	35
241	0x4e	78
242	0x11	17
243	0x60	96
244	0x1c	28
245	0x1b	27
246	0xcc	-52
247	0x99	-103
248	0x9c	-100
249	0x1e	30
250	0xf2	-14
251	0x00	0
252	0x1a	26
253	0x3f	63
254	0x25	37
255	0xb8	-72

sequential/model/block_5_expand/Conv2D i1 [48, 1, 1, 8]
0	0x81	-127
1	0x29	41
2	0xf0	-16
3	0xf2	-14
4	0x3d	61
5	0x21	33
6	0x07	7
7	0xcf	-49
8	0xfb	-5
9	0xcd	-51
10	0xe2	-30
11	0xf5	-11
12	0xc8	-56
13	0x81	-127
14	0x0d	13
15	0x10	16
16	0xb8	-72
17	0x45	69
18	0x03	3
19	0xc9	-55
20	0xcc	-52
21	0x29	41
22	0xc0	-64
23	0x7f	127
24	0x38	56
25	0x2c	44
26	0x35	53
27	0xee	-18
28	0xce	-50
29	0x81	-127
30	0x2c	44
31	0xec	-20
32	0x11	17
33	0x3c	60
34	0x86	-122
35	0x20	32
36	0x81	-127
37	0x57	87
38	0x2d	45
39	0x22	34
40	0xe1	-31
41	0x2d	45
42	0x1e	30
43	0xdf	-33
44	0xac	-84
45	0x81	-127
46	0xc4	-60
47	0xf8	-8
48	0xc9	-55
49	0x7f	127
50	0x65	101
51	0xdb	-37
52	0xba	-70
53	0xde	-34
54	0x13	19
55	0xd7	-41
56	0xf9	-7
57	0xfe	-2
58	0x25	37
59	0x42	66
60	0x01	1
61	0x81	-127
62	0xfb	-5
63	0x39	57
64	0x7f	127
65	0x1a	26
66	0xb1	-79
67	0x4e	78
68	0xab	-85
69	0xbd	-67
70	0x94	-108
71	0xf9	-7
72	0x5d	93
73	0xd4	-44
74	0xbb	-69
75	0xb5	-75
76	0x08	8
77	0xeb	-21
78	0xd1	-47
79	0x7f	127
80	0xa7	-89
81	0x03	3
82	0x0a	10
83	0x7f	127
84	0x04	4
85	0x47	71
86	0x1a	26
87	0x9f	-97
88	0x19	25
89	0x12	18
90	0x39	57
91	0xef	-17
92	0x0a	10
93	0x77	119
94	0x7f	127
95	0x5e	94
96	0xbb	-69
97	0xa9	-87
98	0xd4	-44
99	0xa4	-92
100	0x7f	127
101	0xe5	-27
102	0xec	-20
103	0x26	38
104	0xe7	-25
105	0xfc	-4
106	0xf6	-10
107	0x32	50
108	0x13	19
109	0x81	-127
110	0x2c	44
111	0x45	69
112	0x51	81
113	0x56	86
114	0x79	121
115	0x14	20
116	0x4d	77
117	0x81	-127
118	0x9f	-97
119	0xe3	-29
120	0xd6	-42
121	0x4b	75
122	0x7f	127
123	0x3d	61
124	0xf7	-9
125	0x14	20
126	0x2d	45
127	0xb5	-75
128	0x9d	-99
129	0xd5	-43
130	0x2f	47
131	0xb6	-74
132	0x7f	127
133	0x06	6
134	0xc8	-56
135	0xff	-1
136	0x24	36
137	0xd0	-48
138	0xd2	-46
139	0x01	1
140	0xf5	-11
141	0x7f	127
142	0xe7	-25
143	0x29	41
144	0xe5	-27
145	0x7f	127
146	0x51	81
147	0xcf	-49
148	0xc0	-64
149	0x30	48
150	0x57	87
151	0xa4	-92
152	0x10	16
153	0x6b	107
154	0x54	84
155	0x7f	127
156	0xe4	-28
157	0x20	32
158	0x27	39
159	0x22	34
160	0x09	9
161	0x07	7
162	0x41	65
163	0x81	-127
164	0xc2	-62
165	0xff	-1
166	0x45	69
167	0xf0	-16
168	0x97	-105
169	0x4f	79
170	0x25	37
171	0x81	-127
172	0x79	121
173	0x49	73
174	0x7b	123
175	0x07	7
176	0x4b	75
177	0xdf	-33
178	0xa1	-95
179	0x48	72
180	0x36	54
181	0xca	-54
182	0xc7	-57
183	0x7f	127
184	0x25	37
185	0xb0	-80
186	0x81	-127
187	0xd8	-40
188	0x40	64
189	0xf4	-12
190	0xc1	-63
191	0x5d	93
192	0x2b	43
193	0xec	-20
194	0x9e	-98
195	0x12	18
196	0xc6	-58
197	0x23	35
198	0x81	-127
199	0x7a	122
200	0xf1	-15
201	0xea	-22
202	0x37	55
203	0x0b	11
204	0x7f	127
205	0xf0	-16
206	0xab	-85
207	0xd2	-46
208	0x0b	11
209	0x66	102
210	0x7f	127
211	0xe0	-32
212	0xde	-34
213	0xee	-18
214	0x35	53
215	0xbc	-68
216	0xda	-38
217	0x25	37
218	0x7f	127
219	0xaa	-86
220	0x16	22
221	0x13	19
222	0x59	89
223	0x87	-121
224	0x3d	61
225	0xf7	-9
226	0x5b	91
227	0x7f	127
228	0x4a	74
229	0xe3	-29
230	0x23	35
231	0x65	101
232	0x46	70
233	0x4a	74
234	0x6b	107
235	0x14	20
236	0xc4	-60
237	0x1f	31
238	0x81	-127
239	0x5b	91
240	0x2a	42
241	0xf8	-8
242	0xa9	-87
243	0x3f	63
244	0x81	-127
245	0xd8	-40
246	0xd8	-40
247	0x39	57
248	0x17	23
249	0x7f	127
250	0x61	97
251	0xc0	-64
252	0xb7	-73
253	0x26	38
254	0x6b	107
255	0x87	-121

sequential/model/block_5_depthwise_BN/FusedBatchNormV3;sequential/model/block_5_depthwise/depthwise;sequential/model/block_10_depthwise/depthwise i1 [1, 3, 3, 48]
0	0x42	66
1	0x4a	74
2	0xe7	-25
3	0x3a	58
4	0xfe	-2
5	0xfc	-4
6	0xcc	-52
7	0x0b	11
8	0x22	34
9	0xb8	-72
10	0x20	32
11	0x0c	12
12	0x0d	13
13	0x8b	-117
14	0xe0	-32
15	0x24	36
16	0x6a	106
17	0x24	36
18	0xbd	-67
19	0x03	3
20	0x52	82
21	0x11	17
22	0xe9	-23
23	0xf0	-16
24	0x4a	74
25	0x21	33
26	0x14	20
27	0xfd	-3
28	0xbc	-68
29	0x18	24
30	0xf6	-10
31	0xc6	-58
32	0x7f	127
33	0x0b	11
34	0x73	115
35	0x1a	26
36	0xdb	-37
37	0x1f	31
38	0x7f	127
39	0x20	32
40	0xc0	-64
41	0x49	73
42	0xa0	-96
43	0xc8	-56
44	0x1f	31
45	0xa3	-93
46	0xd9	-39
47	0x00	0
48	0x5c	92
49	0x7f	127
50	0xb1	-79
51	0x63	99
52	0x12	18
53	0x3e	62
54	0xbb	-69
55	0x81	-127
56	0x30	48
57	0x32	50
58	0x7f	127
59	0x29	41
60	0xf1	-15
61	0xea	-22
62	0xea	-22
63	0xf9	-7
64	0xbc	-68
65	0x7f	127
66	0xab	-85
67	0x1a	26
68	0x3b	59
69	0x7f	127
70	0x24	36
71	0xe7	-25
72	0x1c	28
73	0x11	17
74	0x07	7
75	0x7f	127
76	0x81	-127
77	0x5b	91
78	0xe7	-25
79	0x81	-127
80	0x01	1
81	0xe1	-31
82	0x20	32
83	0x56	86
84	0xb2	-78
85	0x7f	127
86	0x7b	123
87	0x2b	43
88	0x8d	-115
89	0xb5	-75
90	0x47	71
91	0xf8	-8
92	0x0d	13
93	0x1c	28
94	0x81	-127
95	0x5f	95
96	0x2d	45
97	0x2b	43
98	0xf4	-12
99	0x21	33
100	0x03	3
101	0xf9	-7
102	0xdc	-36
103	0x13	19
104	0x1a	26
105	0xa6	-90
106	0x1e	30
107	0x0a	10
108	0x09	9
109	0xa9	-87
110	0xe6	-26
111	0xe9	-23
112	0x60	96
113	0xee	-18
114	0xe0	-32
115	0xf6	-10
116	0x4b	75
117	0x13	19
118	0xe5	-27
119	0x2b	43
120	0x35	53
121	0x42	66
122	0x10	16
123	0xfb	-5
124	0xf2	-14
125	0x0f	15
126	0xef	-17
127	0xdb	-37
128	0x75	117
129	0x11	17
130	0x57	87
131	0x11	17
132	0xee	-18
133	0x1c	28
134	0x62	98
135	0xff	-1
136	0xdb	-37
137	0x48	72
138	0x34	52
139	0x41	65
140	0x22	34
141	0x61	97
142	0x0d	13
143	0xf0	-16
144	0xe6	-26
145	0xd1	-47
146	0x81	-127
147	0x64	100
148	0x12	18
149	0x35	53
150	0x43	67
151	0xe2	-30
152	0x22	34
153	0x32	50
154	0xce	-50
155	0x7f	127
156	0x7f	127
157	0xf6	-10
158	0xe1	-31
159	0xb8	-72
160	0xdd	-35
161	0x51	81
162	0x4b	75
163	0xf4	-12
164	0x92	-110
165	0x12	18
166	0x1b	27
167	0x96	-106
168	0x1d	29
169	0x35	53
170	0x15	21
171	0x0d	13
172	0xf6	-10
173	0x5e	94
174	0x19	25
175	0x2f	47
176	0x44	68
177	0x7f	127
178	0x1f	31
179	0x27	39
180	0xaf	-81
181	0xff	-1
182	0xc7	-57
183	0x53	83
184	0x59	89
185	0xfd	-3
186	0x53	83
187	0x88	-120
188	0x0a	10
189	0x99	-103
190	0xff	-1
191	0x7f	127
192	0x2c	44
193	0xa6	-90
194	0xda	-38
195	0x81	-127
196	0x79	121
197	0x0f	15
198	0x7f	127
199	0xb0	-80
200	0x81	-127
201	0x7f	127
202	0xff	-1
203	0x4f	79
204	0x98	-104
205	0x7f	127
206	0x7f	127
207	0xf0	-16
208	0x81	-127
209	0x4d	77
210	0x0e	14
211	0x7f	127
212	0x25	37
213	0xff	-1
214	0x7f	127
215	0xf9	-7
216	0x81	-127
217	0x7f	127
218	0x22	34
219	0xb0	-80
220	0x9e	-98
221	0x2a	42
222	0x81	-127
223	0x61	97
224	0x6a	106
225	0x9b	-101
226	0x23	35
227	0x7f	127
228	0x7f	127
229	0x3d	61
230	0xf3	-13
231	0x7f	127
232	0x7f	127
233	0xb4	-76
234	0xeb	-21
235	0xff	-1
236	0x73	115
237	0xba	-70
238	0x07	7
239	0x2a	42
240	0xf3	-13
241	0xd2	-46
242	0x88	-120
243	0x33	51
244	0xef	-17
245	0x7f	127
246	0x32	50
247	0xe9	-23
248	0x1f	31
249	0x1e	30
250	0xd4	-44
251	0x47	71
252	0xf3	-13
253	0x08	8
254	0xdc	-36
255	0xed	-19

sequential/model/block_5_project/Conv2D i1 [8, 1, 1, 48]
0	0x7f	127
1	0xe9	-23
2	0x16	22
3	0xe3	-29
4	0x17	23
5	0x35	53
6	0x08	8
7	0x26	38
8	0x6b	107
9	0xb1	-79
10	0x39	57
11	0x09	9
12	0xd6	-42
13	0x40	64
14	0x13	19
15	0xd3	-45
16	0x0b	11
17	0xe6	-26
18	0xe8	-24
19	0xef	-17
20	0x0a	10
21	0xc6	-58
22	0x08	8
23	0xeb	-21
24	0xca	-54
25	0xdf	-33
26	0xda	-38
27	0xdc	-36
28	0xe3	-29
29	0x4b	75
30	0xe9	-23
31	0x24	36
32	0x1a	26
33	0xdb	-37
34	0x0e	14
35	0xe3	-29
36	0x3f	63
37	0xc1	-63
38	0xcb	-53
39	0x06	6
40	0x1c	28
41	0xec	-20
42	0xba	-70
43	0xff	-1
44	0x39	57
45	0xe5	-27
46	0x37	55
47	0xdd	-35
48	0x2f	47
49	0x00	0
50	0xf8	-8
51	0x3b	59
52	0x33	51
53	0x3a	58
54	0x13	19
55	0x20	32
56	0x41	65
57	0xaf	-81
58	0xfe	-2
59	0x04	4
60	0x29	41
61	0x15	21
62	0xdc	-36
63	0xf4	-12
64	0xdd	-35
65	0xd5	-43
66	0xbd	-67
67	0xfb	-5
68	0x05	5
69	0xd0	-48
70	0x2f	47
71	0x4c	76
72	0xfd	-3
73	0xc3	-61
74	0xfc	-4
75	0x28	40
76	0xe9	-23
77	0x35	53
78	0xcb	-53
79	0x7f	127
80	0xe7	-25
81	0x2c	44
82	0xeb	-21
83	0xe9	-23
84	0xc7	-57
85	0xf2	-14
86	0xf7	-9
87	0xe7	-25
88	0xd1	-47
89	0xee	-18
90	0xdd	-35
91	0x29	41
92	0x14	20
93	0xfb	-5
94	0x08	8
95	0xab	-85
96	0xdb	-37
97	0xe5	-27
98	0xad	-83
99	0x23	35
100	0xac	-84
101	0xe1	-31
102	0xf4	-12
103	0x30	48
104	0x94	-108
105	0xaa	-86
106	0xa7	-89
107	0xdf	-33
108	0xdb	-37
109	0x31	49
110	0x81	-127
111	0xfd	-3
112	0x4b	75
113	0xa7	-89
114	0x1f	31
115	0xed	-19
116	0x7c	124
117	0x56	86
118	0xe6	-26
119	0x03	3
120	0x32	50
121	0x61	97
122	0x10	16
123	0x9e	-98
124	0xcc	-52
125	0x03	3
126	0x41	65
127	0x03	3
128	0xe3	-29
129	0x2b	43
130	0x49	73
131	0xbd	-67
132	0x44	68
133	0xfa	-6
134	0x54	84
135	0x62	98
136	0xd3	-45
137	0x67	103
138	0x2e	46
139	0xfd	-3
140	0xad	-83
141	0x47	71
142	0xd8	-40
143	0x49	73
144	0xfe	-2
145	0xec	-20
146	0xf6	-10
147	0x24	36
148	0xe8	-24
149	0x04	4
150	0xf6	-10
151	0x2c	44
152	0x49	73
153	0x5b	91
154	0x81	-127
155	0xe3	-29
156	0x16	22
157	0xeb	-21
158	0xea	-22
159	0x4e	78
160	0xc8	-56
161	0xef	-17
162	0xfa	-6
163	0x31	49
164	0xea	-22
165	0x01	1
166	0x4a	74
167	0x14	20
168	0x08	8
169	0x0c	12
170	0xcd	-51
171	0x35	53
172	0xdc	-36
173	0x19	25
174	0xdb	-37
175	0xe5	-27
176	0x0d	13
177	0x1c	28
178	0x21	33
179	0x11	17
180	0x34	52
181	0xf9	-7
182	0x2c	44
183	0x02	2
184	0xc7	-57
185	0x55	85
186	0x45	69
187	0x14	20
188	0x1b	27
189	0xf5	-11
190	0xe1	-31
191	0xd7	-41
192	0xe5	-27
193	0xb6	-74
194	0x11	17
195	0xd2	-46
196	0x02	2
197	0x5c	92
198	0xc5	-59
199	0xba	-70
200	0x01	1
201	0xd0	-48
202	0x49	73
203	0x24	36
204	0xc6	-58
205	0xe8	-24
206	0xf0	-16
207	0x1b	27
208	0x44	68
209	0x0c	12
210	0xe5	-27
211	0x2d	45
212	0xb6	-74
213	0xe5	-27
214	0x73	115
215	0xef	-17
216	0xa4	-92
217	0xef	-17
218	0xf9	-7
219	0x0e	14
220	0x13	19
221	0xe9	-23
222	0xf4	-12
223	0x3d	61
224	0xcb	-53
225	0x2e	46
226	0xe9	-23
227	0x37	55
228	0xde	-34
229	0x25	37
230	0xfc	-4
231	0x13	19
232	0xdb	-37
233	0x27	39
234	0xde	-34
235	0x29	41
236	0x7f	127
237	0x37	55
238	0xf5	-11
239	0x04	4
240	0xba	-70
241	0xbe	-66
242	0x39	57
243	0x81	-127
244	0xec	-20
245	0x15	21
246	0xdc	-36
247	0xc9	-55
248	0xfc	-4
249	0x47	71
250	0xc8	-56
251	0x47	71
252	0xad	-83
253	0x13	19
254	0x31	49
255	0x09	9
